trained_models/NN_tuned_complex_fe/NN_32-16.pth (torch, 40062 bytes, 11 tensors)

weight f4 [1, 121]
000000 44 12 85 bf f6 a1 9b bf fe 7e a6 bf 67 06 aa bf
       -1.0396199 -1.2158802 -1.3007505 -1.3283204
000010 8b 1b b0 bd b6 c2 8d bd 9f bc fb be 3b f4 de bf
       -0.085990034 -0.06921904 -0.49167344 -1.7418283
000020 39 ba 92 bc 46 e6 88 bf 92 12 00 3e 4f e0 dd bd
       -0.017911064 -1.0695274 0.12507084 -0.10833799
000030 b7 42 42 be 87 59 32 3f 47 e7 2b 3f 9c 16 0c 3e
       -0.18970762 0.6966786 0.67149776 0.136805
000040 51 87 69 be 1b 11 e5 be 9f df 41 3f 7c 87 7f 3f
       -0.22805525 -0.44739613 0.75731844 0.9981611
000050 6f 5b 5d 3f 2f 46 b7 3d 89 9a e7 3e af 73 e4 3f
       0.8646764 0.08948933 0.45235088 1.7847804
000060 58 fb 8c 3f 46 6e d4 3e be e3 66 3f 9b c6 b3 3f
       1.1014204 0.41490382 0.90191257 1.4044985
000070 3f 93 01 40 09 2e 00 40 f3 27 f7 3f b9 55 67 3f
       2.0246122 2.0028098 1.9309067 0.9036518
000080 00 4b 0f 3f cf a5 8f 3f 53 f9 14 3f c3 a7 1e 3f
       0.55973816 1.1222476 0.5819294 0.61974734
000090 ad d6 d5 3e aa 2e 62 be 2f ca c7 3d d4 75 b6 bd
       0.41765347 -0.22088113 0.0975536 -0.08909193
0000a0 91 ac 7b be 23 e3 d4 bc 3e 34 ff bd 38 cf 7c 3e
       -0.24577548 -0.025987213 -0.12461136 0.24688423
0000b0 81 a4 13 3f fb ae 6b 3f 2d 5e 47 bf 9f 4d 8b 3d
       0.5767289 0.92063874 -0.77878076 0.068019144
0000c0 b4 8a db 3e af 5b 82 3f 4e 1b a1 3f fe 31 86 3f
       0.4287926 1.018423 1.2586458 1.0484006
0000d0 31 df 37 3f 20 ea 71 3f 67 93 b4 3f b3 66 8f 3f
       0.7182494 0.9449787 1.4107484 1.1203216
0000e0 9d 18 c5 3f 6e f8 ea 3f a4 69 e2 3f 83 e1 31 40
       1.5398136 1.8357065 1.7688489 2.7793891
0000f0 f4 d9 1d bf 83 3a df 3d e3 c6 bb 3f 88 37 67 be
       -0.61660695 0.10899832 1.467007 -0.22579777
000100 53 c7 a4 be c8 68 3f 3f 46 52 4b 3f c0 72 78 3f
       -0.32183322 0.7476926 0.79422414 0.97050095
000110 ed a1 53 bf 3a 93 7d 3f a4 a8 6f be c4 13 a8 3e
       -0.82668954 0.99052775 -0.23404175 0.3282758
000120 24 4b bb bf 18 54 10 bf dc 53 57 bf f4 ce 3e bf
       -1.4632306 -0.56378317 -0.84112334 -0.74534535
000130 2a ab b2 bf 1b af c0 be 07 09 7f bf 10 33 5b bf
       -1.3958485 -0.37633595 -0.9962315 -0.8562479
000140 9b 73 9b bf 7d fa ac bf af a4 d4 bf 6f dd db bf
       -1.2144655 -1.3513943 -1.6612757 -1.7176951
000150 67 78 c6 bf 91 64 af bf 41 78 91 bf 34 c7 8b bf
       -1.5505494 -1.3702565 -1.1364824 -1.0920167
000160 b9 30 87 bf 44 a5 ea be ee 7b b8 bf ae a6 7d bf
       -1.0561744 -0.45829213 -1.441282 -0.9908246
000170 9f 96 8b bf 8c 6b 8e bf 5f b6 8b bf b9 39 90 bf
       -1.0905341 -1.1126571 -1.091503 -1.1267616
000180 99 01 67 bf 2f d3 aa bf 98 17 68 bf 21 fa 21 bf
       -0.9023681 -1.3345698 -0.90661 -0.6327229
000190 85 fa c1 bf 4f 14 87 bf 30 ba c6 be 6a 2b 80 be
       -1.5154577 -1.0553073 -0.38813925 -0.25033122
0001a0 68 a7 4b be 63 f1 4d be c0 a8 d7 be 22 15 ee be
       -0.19888079 -0.20111613 -0.42120934 -0.46500498
0001b0 27 6c 4a bd 80 00 3d be 9b 38 3d 3e 46 5c 79 be
       -0.04941955 -0.18457222 0.18478625 -0.24351606
0001c0 c1 ff 12 bd 72 30 c9 3e 54 c4 b5 3e ac d2 00 3e
       -0.035888437 0.39294773 0.3550135 0.12580365
0001d0 01 a8 9d 3e 1c 77 68 3e 5b aa 26 3e 4e fd b8 3e
       0.3079224 0.22701687 0.16275923 0.36130756
0001e0 ee 4c 99 3e
       0.29941505

layers.0.fc_r.weight f4 [32, 121]
000000 08 2c e3 3e 36 f6 3f 40 ec 4b aa 3f 5b 98 b7 3f
       0.4436953 2.9994025 1.330442 1.434337
000010 f8 26 2d 3f b4 10 9f bf 4e 21 0d 3f 86 39 8a 3f
       0.67637587 -1.2426972 0.55128944 1.0798805
000020 5b 5d 94 bd 9f 40 0d bf dd b3 85 3f 5e 9c 7b 3f
       -0.07244369 -0.5517673 1.0445515 0.9828547
000030 a7 b4 f6 3f 24 e1 82 be fc ef 2d bf 30 a2 19 bf
       1.9273881 -0.25562394 -0.6794431 -0.60013103
000040 57 15 e8 be a3 98 95 3f bd 96 ec 3e 4c d4 9b bd
       -0.4532878 1.1687206 0.46208754 -0.07608852
000050 38 10 21 bf 2c 36 fb be 36 63 9f 3e 91 b4 c2 bd
       -0.6291537 -0.49064767 0.3113038 -0.095070966
000060 90 2e e6 3f a5 2b 0e 40 12 3b 18 bf ef 72 dc 3d
       1.798296 2.2214139 -0.59465134 0.10764109
000070 7b b1 28 bd 8d 62 82 3e 53 7f 27 bf c4 c8 c8 3d
       -0.041184884 0.25465813 -0.65428656 0.09803918
000080 39 5b f0 bc ac f8 b9 be eb ad 27 be 35 12 90 3d
       -0.029340373 -0.36322534 -0.16374938 0.07034723
000090 d8 37 d4 bd e9 bf 8f 3d bb 26 1e bf e7 63 fa 3e
       -0.10362214 0.07019026 -0.6177785 0.48904344
0000a0 3e f9 32 3f 99 9e c0 3e 60 21 1d 3f d5 2b 3f bf
       0.69911563 0.37621 0.6137905 -0.7467626
0000b0 eb 72 c5 3e bd 50 3e bf 63 fc 07 3e 5e 70 d2 3e
       0.38564238 -0.74341947 0.13279872 0.41101354
0000c0 82 7a 07 bd 96 a5 4d bf 80 63 d2 be ae 2d 1f 3f
       -0.033075817 -0.8033079 -0.41091537 0.62179077
0000d0 58 01 37 be 13 1f ff 3e 00 32 c2 3e df 29 a4 bd
       -0.17871606 0.49828395 0.37928772 -0.08015799
0000e0 10 77 22 3e 8e ab d8 3e 46 38 2a be e4 c9 4c bf
       0.15865731 0.42318386 -0.16623029 -0.7999556
0000f0 66 c0 fd 3d 3b e8 dd bd b2 a1 cd bd a9 e8 34 bc
       0.12390213 -0.1083531 -0.100406066 -0.011041799
000100 67 c1 a7 b9 18 e5 03 bf 5f ff 40 bf 30 89 c1 3d
       -0.00031996818 -0.51521444 -0.75389665 0.094499946
000110 28 87 fe 3d 0a ae 89 3c 0d 25 de 3c 67 1b df be
       0.12428123 0.016806621 0.027117277 -0.43575594
000120 dd 9d cf 3d 75 5c 7e bd 63 c7 17 3f eb ac 9f be
       0.10137532 -0.062099893 0.59288615 -0.31186613
000130 94 6e ed bd 04 81 9e bd a3 cd 6d 3e 1f e2 69 bf
       -0.11593357 -0.077394515 0.23222975 -0.9136066
000140 ae 88 9f bd ac 0b 92 be 18 f5 5d 3e ea 9a d7 3e
       -0.077897415 -0.2852453 0.21675527 0.42110378
000150 af 92 ab bd 36 65 d3 bd a2 1c 29 3f 49 22 79 3c
       -0.08377587 -0.10322039 0.66059315 0.015205928
000160 09 f9 34 3d 7d dc 9f be 94 7d 91 3d 48 97 15 3f
       0.04418281 -0.31222907 0.0710403 0.5843396
000170 f3 3f 40 bd 95 b5 39 3e 92 06 9e bd 5b 9e 22 bd
       -0.046935987 0.18135674 -0.07716097 -0.0397018
000180 c4 a0 46 3e 76 b3 dc 3d 46 9e f8 bd 3e 6f 29 bd
       0.19397265 0.10776417 -0.12139563 -0.041365854
000190 8e 08 67 3e 6d f1 8b 3e 40 63 b8 3e ce 59 2d be
       0.22561857 0.2733263 0.36013222 -0.16928789
0001a0 af 4a b0 be 9b 9e ab 3e be fc 84 3d 7d 8e e2 3d
       -0.3443198 0.33519444 0.06493519 0.11062334
0001b0 ba 4a 20 3e 62 b2 ce 3b f1 5e 26 be b1 33 9a be
       0.15653506 0.006307886 -0.16247155 -0.30117562
0001c0 82 80 5f 3d 8c 38 b6 bd 97 d4 99 be 23 0d 0a 3d
       0.054565914 -0.08897504 -0.30045006 0.033703934
0001d0 9e aa aa be 69 f1 63 be d2 6a f6 bd 0d 71 0b be
       -0.33333296 -0.2226006 -0.12032093 -0.13617344
0001e0 bf 3b 46 3e 15 f1 16 bf 6f 22 e8 bf 3d 47 ac bf
       0.19358729 -0.5896161 -1.8135508 -1.345924
0001f0 85 ef 46 bb 6a 59 99 be 23 e9 96 be 46 77 b0 3f
       -0.0030355167 -0.2995103 -0.29474744 1.3786399
000200 d1 dc 5e 3f 94 ac 31 40 2a 0d 85 3f 53 ff bb 3f
       0.8705569 2.7761583 1.0394642 1.4687294
000210 38 d9 88 3f a1 36 c6 3d f6 de c4 3e 31 7f ea be
       1.069129 0.096783884 0.38451356 -0.45800164
000220 6a 74 4d be 69 cd 89 be 9e 8b cd 3e 3d e7 23 3f
       -0.2006394 -0.26914528 0.40145582 0.64024717
000230 28 0d 4d 3d 23 8d 06 3f 3d ff 66 3d 2e 18 36 bf
       0.050061375 0.5255911 0.056395758 -0.71130645
000240 5a 74 61 bf d7 f8 ba be 9f 60 91 bd 8b 85 84 be
       -0.88068163 -0.36517975 -0.07098507 -0.25883135
000250 d5 38 83 3e 92 74 93 be 25 d9 57 bd 77 9e 29 3f
       0.25629297 -0.28799874 -0.05269732 0.66257423
000260 62 0e a8 be 0c d4 6e bd 72 b4 0f bf 5f a4 a8 be
       -0.32823473 -0.058307692 -0.5613471 -0.32937905
000270 5f b4 ca be 93 cb 23 be 70 ac 08 bf 1c 65 2a be
       -0.39590737 -0.15995626 -0.5338812 -0.16640133
000280 ba ac d5 bd 38 87 53 3d 73 97 a8 bd 3d dc 8c 3c
       -0.104333356 0.051642627 -0.08232012 0.017194862
000290 cb 3b 1c 3d e8 52 97 3e a0 7a 47 3f 7d ac 33 3f
       0.03814296 0.2955544 0.77921486 0.7018507
0002a0 15 45 44 3f 8a 0f b4 3e e5 5a 97 3e df 37 1c bf
       0.7666791 0.35168105 0.29561535 -0.6102275
0002b0 f1 a3 a4 be cd e5 79 3e d6 1c 96 3e 07 61 8b be
       -0.32156327 0.24404068 0.29318875 -0.27222463
0002c0 dd 78 51 3e 2f b5 27 bd 54 be ef bc 4e 3a ab 3d
       0.20456262 -0.040944275 -0.02926556 0.0836073
0002d0 51 b5 06 be b6 80 6e 3d ac cd df 3d 6d 05 6b 3e
       -0.13155104 0.058228217 0.10927901 0.22951289
0002e0 2f 28 44 be 9d 67 b3 be 16 fb 0d 3f 12 42 26 be
       -0.19155954 -0.35039988 0.5546125 -0.16236141
0002f0 2c 27 2a be 61 bb b9 3e fe e7 fb 3e 3e 06 a4 3e
       -0.16616505 0.3627577 0.49200433 0.32036012
000300 cd 96 89 3e 9f 36 87 3e 54 6d 90 3e 2a 6f 1a 3e
       0.26872864 0.2640886 0.2820841 0.15081468
000310 d7 45 71 be 3e de 0d be 47 87 15 3d e9 57 3b bf
       -0.23561798 -0.1385431 0.036505964 -0.73181015
000320 67 6f 81 be 50 5b 8e 3e 8d 1c 0b 3f a5 86 05 3e
       -0.25280306 0.2780404 0.5434044 0.13039644
000330 b4 b8 48 be 94 d5 08 be bf c4 bd be 24 8a b3 be
       -0.19601709 -0.13362724 -0.37064168 -0.3506633
000340 d2 f7 94 3c ba 72 91 3d 11 54 40 bd da 3f 0c 3f
       0.018184576 0.071019605 -0.046955172 0.5478493
000350 22 5e 89 3e 39 02 04 3f 92 3d 8e 3d 1d cc ae 3e
       0.2682963 0.5156589 0.06945337 0.341401
000360 70 b5 cf bc 93 c7 09 3e ca 62 68 3e 33 5c f3 3a
       -0.02535507 0.13455038 0.22693935 0.0018566906
000370 2f f9 c7 bd b4 77 a2 3e 80 33 a3 bd 77 e3 7c bd
       -0.09764325 0.3173195 -0.07968807 -0.061740365
000380 65 29 54 be 2f 81 6e 3e 74 f6 6e bd c5 40 83 3e
       -0.20718916 0.23291467 -0.058340505 0.25635353
000390 a5 55 0c 3e 24 7c 2b 3e 5b cc f1 3d 16 13 9b bd
       0.13704546 0.16746575 0.11806556 -0.07572
0003a0 79 5b e7 bb 2f dc 4e bc 63 11 ea 3d e1 07 33 3e
       -0.007060465 -0.012625738 0.114290975 0.17483474
0003b0 b0 e9 5b bd 19 89 97 3d eb 58 11 3d d0 0b 03 3d
       -0.05368966 0.07399196 0.03548519 0.031993687
0003c0 82 e5 ad bd f8 cf 44 3d a7 8d b5 bf 29 fc 12 c0
       -0.08491041 0.048049897 -1.4183854 -2.2966406
0003d0 f4 9e 55 c0 4c f6 08 c0 9a 4f b8 bf 4c 18 b3 bd
       -3.3378267 -2.1400328 -1.4399292 -0.08744869
0003e0 8e 35 05 bf 10 6f 2b 3f 84 5c 4a 3f 97 11 7b 3d
       -0.5203484 0.6696634 0.7904742 0.06129607
0003f0 8f 76 22 3f 71 9e 2c be ac 28 bd be 82 08 61 bf
       0.63462156 -0.16857316 -0.36945093 -0.87903607

layers.0.fc_r.bias f4 [32]
000000 c3 aa 7d be 6a fe 1e be 22 3a ba bc e9 47 40 3f
       -0.24772172 -0.15526739 -0.022732798 0.75109726
000010 b3 79 eb 3c 8f df 31 bf b8 c2 18 bf 4c d6 91 be
       0.028744554 -0.6948175 -0.5967212 -0.28483808
000020 77 00 a5 be 2e 07 12 bf 77 8b fd be 6e 2c 14 3f
       -0.32226917 -0.57042205 -0.49520466 0.57880294
000030 60 24 84 3e 13 48 f1 be a0 85 07 bf ee 74 85 bc
       0.25809002 -0.471253 -0.5293827 -0.016291108
000040 05 01 90 be 39 b5 f6 3d 9e 00 c5 3e 8d 2b 2f be
       -0.28125778 0.12046284 0.38477033 -0.17106457
000050 90 86 a5 be 30 85 1f be c4 48 7e 3e b6 6c 41 bf
       -0.32329226 -0.15578151 0.24832445 -0.75556505
000060 80 db ec 3e 64 e9 6d be d8 c1 1c bf e9 92 b6 be
       0.46261215 -0.23233563 -0.6123328 -0.3565896
000070 cf 59 f4 3e 20 de aa bd a1 26 92 3e 76 17 c0 be
       0.4772477 -0.08343148 0.28545097 -0.375179

layers.0.fc_i.weight f4 [32, 121]
000000 61 cb 14 3d bd 97 93 bf 3a 03 03 40 c2 e1 f4 3f
       0.03632677 -1.1530682 2.047072 1.9131396
000010 dc 55 ae 3f e2 91 08 3f f9 10 55 3f e8 b9 10 3f
       1.3619952 0.533476 0.83229023 0.5653367
000020 9a 48 27 bd 6c 75 d4 bd 24 4f 98 3e b8 c7 c4 be
       -0.040840723 -0.10373959 0.2974788 -0.38433623
000030 c0 85 b6 3f 06 b3 be 3f 03 d0 ab bf 15 15 6e 3e
       1.4259567 1.4898384 -1.3422855 0.2325023
000040 ec 75 8c bb d9 1e 67 bf 39 70 32 bf 83 f8 93 3f
       -0.0042865183 -0.90281445 -0.6970249 1.1560215
000050 09 49 10 3d ce 75 7a 3e ef e3 e1 3c de 75 12 c0
       0.0352259 0.24459001 0.027574508 -2.288444
000060 a9 2c fd be c0 8f 90 3e 1e f0 0c 3f b4 a1 87 bd
       -0.49448135 0.28234673 0.5505389 -0.06622639
000070 11 ed 02 3f 98 81 5e bf cd 27 cb be 11 f6 69 3e
       0.51142985 -0.86916494 -0.39678803 0.22847773
000080 b6 31 35 3f 0e 6f be 3e f2 35 40 bf 9f 2f 1a bf
       0.7077898 0.37194103 -0.75082314 -0.60228914
000090 ef 04 71 3e cd 03 b2 be 06 0c 76 bf 2f 80 97 be
       0.23537038 -0.34768525 -0.96112096 -0.29589984
0000a0 ed 59 a0 be 24 d5 a5 bd 55 dd d5 bb 87 b4 f5 3e
       -0.31318608 -0.08097294 -0.006526629 0.47989294
0000b0 9c 70 b5 3e ca df 18 bf 6e 4d c9 3e 97 53 df 3e
       0.35437477 -0.59716475 0.39316887 0.4361846
0000c0 be 69 03 3f 4f f7 7b be 18 e9 44 bf 1a b1 a9 be
       0.51333225 -0.2460606 -0.7691817 -0.3314293
0000d0 06 d9 6c bd 50 22 dd be 9f 03 46 3f e9 7b d2 bd
       -0.057824157 -0.4319024 0.77349275 -0.1027754
0000e0 5e 6c 89 3e f1 c4 d4 3e 28 d1 7e bc 8a 2a e1 3d
       0.2684049 0.41556504 -0.015552796 0.10994442
0000f0 6d c4 c1 3e 32 60 24 3f 4e fc ef 3d cb 4e b1 be
       0.37845173 0.6420928 0.11718045 -0.34630427
000100 aa 6c b0 3e ee cb 31 be 4c be b0 bd 7c de 70 3d
       0.34457904 -0.17362949 -0.08630046 0.058805928
000110 b8 8e 40 be bc 9a 06 be a6 9e e9 3e 43 e4 c8 3d
       -0.18804443 -0.13144964 0.45628852 0.098091625
000120 25 98 41 3f 21 5a ea 3d 52 70 2c 3f c5 22 29 3f
       0.7562278 0.11442972 0.6735889 0.6606868
000130 67 6b ad be 9a 13 a5 bd af fc 0c 3f 06 1f 67 be
       -0.33871004 -0.08060379 0.55073065 -0.22570428
000140 71 0d 7a 3c 13 a9 fc bd 37 d4 2e 3e 46 d4 12 bd
       0.015261994 -0.12336936 0.17073141 -0.03584697
000150 e2 27 94 3e 57 8a 96 be 85 09 f9 3d ca 26 3c 3e
       0.28936678 -0.2940242 0.12160019 0.18374172
000160 3a 4f a3 3e 75 49 f7 bd ac ef 41 3f f2 1d c3 3d
       0.31896383 -0.12074558 0.75756335 0.09527196
000170 36 4b 40 3f 1c 30 b2 bc 8c 7a fd bd 2f c6 14 be
       0.7511476 -0.021751456 -0.123768896 -0.14528726
000180 77 43 35 bd 1b bd 4c bc 4d c7 2d 3f ca 2b 22 be
       -0.044253793 -0.012496258 0.67882234 -0.15837017
000190 a4 0f aa 3e 69 6a bd be 26 07 42 3d e0 d9 82 3e
       0.33215058 -0.36995247 0.0473701 0.2555685
0001a0 82 75 ef be 47 31 39 3d bd 8c dc 3e b1 13 95 3e
       -0.4676934 0.04521301 0.43076125 0.29116586
0001b0 6e a8 00 3c ca de f8 bd 25 fc 17 3e f6 0c 79 3e
       0.007852657 -0.12151869 0.1484228 0.2432135
0001c0 0c f3 53 3c 4b 0a 5c be 92 73 72 be d8 6c 9f 3d
       0.012936365 -0.21488301 -0.23676899 0.07784432
0001d0 ac cf 9d be 0e 03 2f 3e ff f1 85 be 50 bb 16 bd
       -0.30822504 0.17091009 -0.2616119 -0.03679973
0001e0 82 c6 bd bd fb 90 3b 3f 6f ee 70 3e dc cc 33 bf
       -0.09266378 0.732681 0.23528455 -0.70234466
0001f0 37 4a e4 bf 86 a2 65 bf f4 f4 11 c0 a0 2a e5 be
       -1.7835149 -0.89701116 -2.2805758 -0.44759083
000200 cf 06 42 bf 1a 71 4c 3e 53 bf 78 3e ab 94 4f bf
       -0.7579164 0.1996502 0.24291734 -0.81086224
000210 86 c9 90 3f dd 89 33 3f b2 c7 27 3f b6 f6 fd 3e
       1.13115 0.7013224 0.65539086 0.49602288
000220 de f5 1d 3f 5a 05 14 be c6 b9 84 3b 5f cd 00 3e
       0.6170329 -0.14455166 0.004050466 0.12578343
000230 b1 e7 0c bf af 98 f0 be ac 6d 19 3f 7d fa 17 bd
       -0.55041033 -0.46991488 0.5993297 -0.03710412
000240 38 5d f8 3e f7 ec 1d bf 9c 47 c2 be 3a 69 30 bf
       0.4850862 -0.61689705 -0.3794526 -0.68910563
000250 8d c3 9b 3e 48 95 77 be 57 17 9e 3e 87 74 87 3e
       0.3042263 -0.2417804 0.30877182 0.2645609
000260 fc c9 56 3d 1c 73 90 3e 88 32 7e be 47 92 7d be
       0.05243872 0.2821282 -0.24823964 -0.24762832
000270 08 b0 f4 bc 4e 5b cb 3d fb 3b b1 3d 04 28 ca be
       -0.029869094 0.09929524 0.086540185 -0.39483654
000280 80 95 5e be 27 e1 ff be 33 6d 8f be 7f 1c bf be
       -0.21736717 -0.49976465 -0.28013 -0.37326428
000290 ec 03 4e be 6f 72 52 bf 8e 45 43 bf ab f2 5e 3d
       -0.20118684 -0.8220586 -0.7627801 0.054430645
0002a0 23 42 78 3e c7 e3 3f 3f 10 3d 19 3f 91 26 21 3c
       0.24243979 0.74956936 0.598588 0.009835855
0002b0 f7 6b ca bd 17 9b 08 bf a0 0a 07 3e 32 ca 99 be
       -0.09883874 -0.5336165 0.13187647 -0.30037075
0002c0 53 7e 07 be 26 91 81 3e 6c 4e 82 bc 18 59 13 bd
       -0.13231783 0.25306052 -0.015906535 -0.03597364
0002d0 e1 20 28 3d 15 a9 f8 3c 57 17 71 be a0 c7 36 3e
       0.04104698 0.030354062 -0.2354406 0.17849588
0002e0 af 63 4c 3f c2 05 a6 be 02 35 a9 bd 58 be 3d 3e
       0.79839605 -0.32426268 -0.082620636 0.18529642
0002f0 53 bb e9 3c 2b ab 6f be 6a 65 20 3c 9e 24 a1 3e
       0.028531706 -0.23405139 0.009789804 0.3147325
000300 47 ee 1b be c9 ce 5f 3e ac dd eb 3e 73 e6 27 3f
       -0.15227614 0.21856226 0.4606756 0.6558601
000310 55 3d 0d 3d 70 26 67 be 95 2b 04 3c b0 a1 94 3c
       0.03448232 -0.22573256 0.008067031 0.018143505
000320 68 49 a7 be 62 77 af 3d 39 88 0c 3f 6b 13 2d 3f
       -0.32673192 0.08567692 0.5489536 0.67607754
000330 77 56 f6 bc 71 d1 64 3e cb e8 91 bd 4f 45 30 be
       -0.030070527 0.2234552 -0.0712448 -0.17213939
000340 fe e8 96 be 8b 2b 2d 3e af db 4f be b4 c6 93 be
       -0.29474634 0.16911142 -0.20298646 -0.28862536
000350 60 fe 1c bd 84 c2 0d be 8f 76 52 bd df 0f bb bd
       -0.03832853 -0.13843733 -0.051382598 -0.091338865
000360 b9 24 a4 3c ad 45 a9 3d 4d 14 e6 3d a2 e8 39 3e
       0.020037042 0.08265243 0.11234341 0.18155149
000370 a9 9d 1b bd 01 a2 38 3e 69 44 77 bd 18 e8 d5 3d
       -0.037992153 0.1803055 -0.060367975 0.10444659
000380 9d 27 81 ba 35 50 58 3e a0 36 50 3e ce d3 81 3d
       -0.0009853725 0.21124347 0.20333338 0.06339227
000390 02 e8 78 3d e8 1f d0 bc a4 dd ea bc 95 77 3a 3c
       0.060768135 -0.02540584 -0.02867014 0.01138105
0003a0 ca 6a 9f 3d 00 0b bf bd ac af 0d bd e2 a7 31 be
       0.0778404 -0.0932827 -0.034591362 -0.17349198
0003b0 0f 16 99 bd 0d d4 3f bd bf 55 e3 bd 89 b0 97 3d
       -0.074749105 -0.046833087 -0.11100339 0.07406718
0003c0 58 8e 80 bd 09 3c 2b 3e 4e eb 9c 3f dd c5 11 3f
       -0.0627715 0.1672212 1.2259309 0.5694254
0003d0 c4 25 ca be 3b 31 39 bf 14 cc d2 bf f5 95 c3 bf
       -0.39481938 -0.72340745 -1.646853 -1.5280138
0003e0 bc 71 0d 3d 7d 43 a5 bf c0 c8 6d 3f 38 b4 95 3c
       0.034532294 -1.2911221 0.92884445 0.018274412
0003f0 bf 3c 8c 3f 6b d8 9d 3f e8 89 a3 3f 11 61 b9 3f
       1.0956038 1.233167 1.2776461 1.4482747

layers.0.fc_i.bias f4 [32]
000000 1e 6a d7 be 8d e4 a2 be 3e a8 90 3e fd e0 d9 be
       -0.42073148 -0.31814995 0.2825336 -0.42554465
000010 2c bf a6 be 99 aa df 3e c7 1d bf 3e af 10 12 bf
       -0.32567728 0.43684843 0.37327406 -0.5705671
000020 05 13 de be 98 9c 8c 3e ef a9 16 bf d7 7d d8 be
       -0.43373886 0.27463222 -0.5885305 -0.42283508
000030 b3 c5 96 bc d4 40 2d 3e 56 b3 0c bf c3 28 9a bd
       -0.018404817 0.16919261 -0.54961145 -0.07527306
000040 27 06 b4 bd 74 d0 cb 3d ec 6f 29 3f 51 f1 cd be
       -0.08790236 0.09951869 0.66186404 -0.40223172
000050 31 3d 8e be 7c 79 76 be d2 d0 a3 bd db 2c c8 3e
       -0.2778106 -0.2406978 -0.07998814 0.39096722
000060 3b 98 a8 be 9f 29 69 3e 5c b0 db 3e de 2e 8c 3d
       -0.32928643 0.22769783 0.4290799 0.06844877
000070 25 da 72 3e ff 33 ba 3c e5 fb 51 be c6 9b 33 bd
       0.23716028 0.022729872 -0.20506246 -0.04384973

layers.2.fc_r.weight f4 [16, 32]
000000 43 87 b5 be f0 8e 31 be 3c b7 b9 bf 08 e7 88 be
       -0.3545476 -0.17339683 -1.4509044 -0.26738763
000010 94 59 3e 3f 1b ad 65 be 0d b8 59 be 65 82 15 3d
       0.74355435 -0.22429316 -0.21261616 0.036501307
000020 93 61 cd 3f bd 4a 70 3e aa b4 97 bf b1 c8 2c 3f
       1.6045402 0.2346601 -1.1852009 0.6749373
000030 d9 68 f0 3e c0 51 cc be ef bf 77 bf 9d 93 24 3e
       0.46954992 -0.3990612 -0.9677724 0.16071935
000040 57 04 1f be 1a 88 05 3f 1f ed ef bf 06 5f ff 3d
       -0.15529 0.521608 -1.8744239 0.12469296
000050 91 f9 05 c0 d4 4d 21 3f b9 6d 3d 3f 12 6c b4 3f
       -2.0933573 0.6300938 0.7399555 1.409548
000060 80 ff 52 be 16 ef aa be 5f da a2 3f 9f b9 e9 3d
       -0.20605278 -0.33385533 1.2722892 0.114123575
000070 6d bc 8b 3f 61 87 17 be ac 90 3c 40 e3 17 09 40
       1.0916878 -0.14797737 2.94633 2.142083
000080 73 b1 99 3f 5d 50 e9 be 22 ed 89 bf 96 3b 0e 3f
       1.2007278 -0.45569125 -1.0775492 0.5555967
000090 3c 76 8e bf 1f c1 85 bf 6a 2d 49 bf a9 27 0c 3f
       -1.1129832 -1.0449561 -0.7858492 0.54748017
0000a0 62 54 b0 3f 0f 21 da bf c5 0e 91 3f e7 08 47 3e
       1.3775752 -1.7041339 1.1332632 0.1943699
0000b0 b8 f5 00 40 ce 8b 95 be c2 6c 1a be 56 0a 32 3f
       2.0149975 -0.29208225 -0.1508055 0.6954702
0000c0 93 fd d7 be 6d 88 34 be 7e d9 cc 3e a4 f8 a3 3d
       -0.4218565 -0.17630167 0.40009683 0.08006409
0000d0 00 1a 3a c0 50 32 55 bf 70 cf 70 3f 98 8b 1d c0
       -2.907837 -0.83279896 0.94066525 -2.4616451
0000e0 f0 31 cd bc 97 6a 6a bf b0 64 1d c0 f1 29 19 c0
       -0.025048226 -0.91568893 -2.4592705 -2.393185
0000f0 08 a2 34 bf f7 70 90 bf 60 6d 6f 40 38 90 7d bf
       -0.7055974 -1.1284474 3.7410507 -0.99048185
000100 cd 4d a0 3f 26 9f 3b c0 45 44 35 c0 a2 95 23 3f
       1.2523743 -2.9315886 -2.8322918 0.63900197
000110 09 36 ab bf 79 33 83 c0 41 89 74 c0 01 28 1d 40
       -1.3375865 -4.1000333 -3.8208773 2.4555666
000120 20 88 f6 3f bf a5 12 c0 d2 ec 86 40 97 af 28 be
       1.9260292 -2.2913663 4.2164087 -0.16473232
000130 81 51 15 3f a6 a6 cf bf 28 91 85 3f fe a6 1e 3f
       0.5832749 -1.6222732 1.0434923 0.6197356
000140 6f e7 06 c0 67 37 c1 bf 95 74 4e c0 9c 08 4a c0
       -2.1078756 -1.5095032 -3.2258656 -3.1567755
000150 c6 94 90 bf b6 f8 31 c0 a1 4e 19 40 8e 50 29 40
       -1.1295402 -2.780805 2.3954241 2.6455417
000160 45 d8 4c 3e 50 39 45 c0 44 63 43 3f 36 a0 72 c0
       0.20004375 -3.081623 0.7632334 -3.7910285
000170 26 87 25 bf 2f bd 81 c0 f4 97 3e 40 06 8e 11 41
       -0.64659345 -4.0543437 2.9780245 9.097174
000180 46 b0 31 3e 83 d6 2a bf 67 8e 00 bf e7 71 10 c0
       0.17352399 -0.6673357 -0.5021729 -2.256952
000190 3d e9 e0 3d 48 79 70 3e 99 95 91 3f 12 81 d9 3f
       0.10981987 0.23483765 1.1373779 1.6992514
0001a0 e8 59 2a bf 9a 15 b6 c0 ac 0d 8f 3f bb 84 0e c0
       -0.66543436 -5.690137 1.1176047 -2.2268512
0001b0 62 00 bd 3f 66 ff 82 c0 4d 73 ce 3f 52 bf 80 bd
       1.4765742 -4.0936766 1.6128937 -0.062864915
0001c0 2e 04 a6 3e 86 16 a9 bf 00 3b 00 c0 22 26 be 3f
       0.32425064 -1.3209999 -2.003601 1.4855387
0001d0 dc c4 64 3e 20 9a a9 3f f7 e5 84 bf 0b 04 a0 3e
       0.22340721 1.325016 -1.038268 0.31253085
0001e0 89 c5 f1 bf 1d 7a 6d c0 56 f1 24 c1 94 9a 9d c0
       -1.8888408 -3.7105782 -10.30892 -4.9251194
0001f0 57 b0 56 3f e1 10 27 3f a9 34 03 3f eb f0 91 40
       0.83862823 0.6526013 0.5125223 4.560659
000200 b4 33 88 be fd d9 83 be 67 60 2b 40 b9 26 26 c0
       -0.26601946 -0.2575225 2.677759 -2.5961134
000210 ef 7f 6b 3e b6 19 ec 3f 4d f6 16 40 66 b3 07 bf
       0.22998022 1.8445346 2.358783 -0.53008115
000220 06 9e 8d bf 00 3a 8e bf 42 a9 dd bf 12 ae 03 3f
       -1.106385 -1.111145 -1.7317278 0.51437485
000230 cf 74 2f bf 4f 64 14 40 f2 87 a9 bf 10 d1 21 bf
       -0.6853761 2.3186224 -1.3244612 -0.6320963
000240 6c cf 07 be 17 63 e7 3f fe b5 2b 40 9a 91 83 be
       -0.13262719 1.8077115 2.682983 -0.25697023
000250 01 b3 d5 3e 8b 60 b9 bf c1 88 55 3f 6c c2 01 be
       0.41738132 -1.4482588 0.83411795 -0.12671822
000260 48 8e a5 bf 48 02 54 3f e2 b5 0e 40 45 51 1e 40
       -1.2934046 0.8281598 2.2298512 2.4737103
000270 a3 3f b4 bf 33 e7 9f 3e c6 b8 91 bf b9 d3 03 c0
       -1.408192 0.31231079 -1.1384513 -2.0597975
000280 d5 b2 13 3f 97 f5 fa bf 44 45 e1 bf ac 4d ae 3e
       0.5769475 -1.9606198 -1.7599263 0.34043634
000290 dc 92 3b bf c7 c9 6b c0 b8 fe 01 c0 54 ca af 3f
       -0.73270965 -3.6841905 -2.0311718 1.3733621
0002a0 d6 93 d9 3f 4d 23 de c0 da e3 f1 3f fc 6c 04 bf
       1.6998241 -6.941809 1.889766 -0.51728797
0002b0 78 5f 85 3f 4d c3 a9 bf 4f f9 e9 3e 8a b2 17 bd
       1.041976 -1.3262726 0.4569802 -0.037035502
0002c0 b5 ad 6f bf b7 c6 fd bf dc 9f e1 bf 94 90 7d 3f
       -0.9362443 -1.9826268 -1.762691 0.99048734
0002d0 4c fa ec bf 8c 5e 28 be 86 d8 ad 3e 1e 2a 8a c0
       -1.8513885 -0.16442317 0.33954257 -4.3176413
0002e0 c3 cc b0 bf 5f 1e 56 bf 61 d3 04 c0 78 f4 9b bf
       -1.3812488 -0.8364009 -2.0754015 -1.2183981
0002f0 e6 81 51 bf 7a 50 2b 3f 89 68 d5 3f 34 fb 60 bf
       -0.81838834 0.6691967 1.6672527 -0.87883306
000300 ae e7 de 3d 50 ed 04 3e 95 14 24 c0 6b c1 4a 3f
       0.10884033 0.12981153 -2.5637562 0.7920138
000310 21 f9 a0 3f f2 ed 52 3d d3 dd ad 3f 2b a5 59 be
       1.2576028 0.051496454 1.358332 -0.21254413
000320 bd d6 7c be 67 25 6a bf 84 07 4d 40 fb 19 0c bf
       -0.24691291 -0.9146332 3.2035837 -0.54727143
000330 16 38 ec 3f 3f 55 ca 3f 4c 9d f6 3f a9 35 d5 3e
       1.8454616 1.5807265 1.9266753 0.41642502
000340 f9 43 29 bf f1 c7 af bf a8 95 38 c0 d7 9d 32 3f
       -0.66119343 -1.3732892 -2.8841343 0.69772094
000350 43 bd e9 be 90 8a 53 bf 66 a7 6a 3f 48 9d 47 40
       -0.45652208 -0.82633305 0.9166168 3.1189747
000360 e0 8c f0 bf b4 db 43 c0 89 f8 01 c0 49 a0 84 c0
       -1.8792992 -3.0602846 -2.0307944 -4.144566
000370 94 14 1f bf 6d 53 9a bf e0 89 30 40 a3 4c 18 40
       -0.62140775 -1.205671 2.7584152 2.3796775
000380 fd 1e 2c 3e 12 8d 09 c0 9b 6b e3 bf 2e 12 35 be
       0.16808696 -2.1492352 -1.7767214 -0.17682716
000390 93 4f b6 bf b4 eb d2 c0 93 26 e8 c0 73 66 85 3f
       -1.4243034 -6.5912724 -7.254709 1.042189
0003a0 70 18 ab 3f 84 c9 7b c0 50 f4 5c 40 1e 5d a5 bf
       1.3366833 -3.9341745 3.4524117 -1.2919042
0003b0 b8 2d 0f 40 b8 1f d6 c0 a5 45 37 40 fc da 08 be
       2.2371655 -6.691372 2.8636258 -0.13364786
0003c0 e6 96 b7 bf c9 14 f7 3a 17 4c 50 c0 a7 d0 c2 bf
       -1.4342926 0.0018850799 -3.2546442 -1.5219926
0003d0 62 b9 39 c0 a4 06 d5 bf 08 0b 70 3f f4 66 21 3f
       -2.9019399 -1.6642652 0.9376683 0.6304772
0003e0 b9 91 9d bf 85 9f 77 c0 78 88 51 c1 79 85 a5 bf
       -1.2310096 -3.8691113 -13.095818 -1.2931358
0003f0 bc e6 f7 bf f1 4b 54 bf 08 5b 7e 3f 9f 93 51 40
       -1.936729 -0.8292838 0.9935765 3.274635

layers.2.fc_r.bias f4 [16]
000000 77 95 e0 be 98 dc 8d bf 35 33 ae bf 0e 46 ec bf
       -0.43864033 -1.1082945 -1.3609377 -1.8458879
000010 d5 83 70 3f 17 d1 9e bf 52 33 a3 bf 9f f2 27 c0
       0.9395116 -1.2407559 -1.2750037 -2.6241834
000020 ad be 30 bf c7 02 bf bf 96 9b f3 bf 5a e5 9e bf
       -0.6904095 -1.4922723 -1.9031856 -1.2413743
000030 0a f0 e4 bf ef a7 b5 bf 85 a3 b6 bf 6f 01 cd bf
       -1.7885754 -1.4191874 -1.4268652 -1.6016062

layers.2.fc_i.weight f4 [16, 32]
000000 db 43 39 be 07 ef 0e 40 fc ff bc 3e 89 f0 6a c0
       -0.18092291 2.233339 0.3691405 -3.670931
000010 c0 e9 33 3f 9e 8a f5 3f 05 26 28 bf cb c9 e3 bd
       0.7027855 1.9182928 -0.65683013 -0.11122473
000020 34 1b 4d 3c c6 ec a4 bf f1 61 0b 40 bf a0 5d bf
       0.012518693 -1.2884758 2.1778529 -0.86573404
000030 71 b2 d6 bf fb ba 1c 40 8c bf 64 bf f0 e9 c8 3f
       -1.6773206 2.4489124 -0.8935478 1.5696392
000040 56 51 24 be cd 49 89 bf cf 0e ac 3d 27 e0 af 3f
       -0.16046652 -1.0725647 0.08401262 1.3740281
000050 0d 33 0e 3e a1 78 2c 40 a2 ba 99 3f 80 11 2c c0
       0.13886662 2.6948626 1.2010081 -2.688568
000060 69 ce 0d c0 b6 68 b2 bf 7c 5d 18 40 a4 f8 53 3f
       -2.2157233 -1.3938205 2.3807058 0.8280127
000070 18 a9 45 3f 96 62 1b 40 04 6e d7 3d ee d6 df 3e
       0.7721114 2.4278922 0.10519031 0.43718666
000080 31 71 a5 bf 1b 1e 37 40 35 9a 40 bf 5c 1f 01 c0
       -1.2925168 2.8612125 -0.752353 -2.017539
000090 ce e6 61 3f 45 0d 53 40 73 88 09 40 f6 60 29 bf
       0.88242805 3.297685 2.1489532 -0.66163576
0000a0 05 46 94 3e 50 38 39 40 06 1f 59 3f 54 ab 5a bf
       0.2895967 2.894062 0.84812963 -0.85417676
0000b0 00 a5 d9 bf 52 54 2d 3f dd d3 42 bf 4a 02 b7 3f
       -1.7003479 0.6770679 -0.7610453 1.4297574
0000c0 c8 41 aa 3f 03 0d 3e bf e1 76 9c bf cf 0d 2c 40
       1.3301325 -0.74238604 -1.2223779 2.6883428
0000d0 13 1e ac be dc 92 e6 3f 50 97 23 bf bd 90 5f c0
       -0.33616695 1.8013568 -0.6390276 -3.4932091
0000e0 ef 4e 28 c0 5c 1c 7c bf f3 16 8a 3f cd d8 07 c0
       -2.6298177 -0.9848077 1.0788254 -2.1226075
0000f0 89 98 99 3f 81 73 36 40 d1 0a a5 3d 25 65 46 bf
       1.1999675 2.8507998 0.08058704 -0.77498084
000100 3d a1 10 40 f9 1b 32 40 2e 39 5e c0 9a 8d 27 c0
       2.2598412 2.7829573 -3.47224 -2.6180177
000110 22 bd 7d 3e 74 3d 8e 40 be 47 7a 40 41 1d 88 40
       0.2477918 4.4450016 3.9106288 4.253571
000120 4c 45 96 bf 16 00 3e c0 cb 79 3c 40 cc 35 4a c0
       -1.1739898 -2.9687552 2.9449337 -3.1595335
000130 83 1f 1c 40 be 5c 82 bf d5 69 d2 3e eb 41 71 bf
       2.4394233 -1.0184553 0.41096368 -0.9424121
000140 1f f1 de 3e cb 83 78 c0 25 35 33 c0 e8 22 9e 40
       0.43543336 -3.883044 -2.8001187 4.941761
000150 94 b9 e6 3f 4b 78 5e 40 9f 6f a8 bf 66 f1 92 3f
       1.8025384 3.476092 -1.3159064 1.1479919
000160 cb 71 29 c0 bf 4a 5d bf 0a 90 27 be bb 86 af 40
       -2.6475704 -0.8644218 -0.1636354 5.4851966
000170 77 c5 84 40 63 04 11 40 a7 c8 24 c0 cd 1b 38 40
       4.1491046 2.2658927 -2.5747468 2.8766968
000180 f8 5b fa bf 90 6d b7 40 39 3e f8 3d 54 29 03 c0
       -1.9559317 5.7321243 0.12121243 -2.0493975
000190 4e 1a 47 40 77 dd e9 3e 35 aa b6 3f cc 6d 3f c0
       3.1109805 0.45676777 1.4270693 -2.9910765
0001a0 23 a8 5d bf 6e 4e 35 40 df 56 1e c0 88 b6 9f bf
       -0.8658468 2.832912 -2.4740522 -1.2477579
0001b0 12 1a be be 12 54 f9 bf a8 f6 83 bf 24 a3 75 bf
       -0.37129265 -1.9478781 -1.0309649 -0.9595206
0001c0 6f bc 91 3f 1d e0 4c 3e 10 5f f3 3f b5 40 d7 40
       1.138563 0.20007367 1.9013386 6.726649
0001d0 ed a0 18 bf ba aa f6 3f 4c 4f a9 bf 60 d7 a6 3f
       -0.59620553 1.9270852 -1.3227324 1.3034477
0001e0 12 37 3e bf c4 88 45 40 83 02 b2 3f 80 6a a5 bf
       -0.7430278 3.0864725 1.3907017 -1.2923126
0001f0 b6 1f a2 3f f5 ee 3b 3f 73 ac 0c c0 64 3e aa c0
       1.2665927 0.73411494 -2.1980255 -5.320116
000200 30 b0 16 c0 a1 4f 16 40 08 c5 2a 40 bc 6d 41 40
       -2.3545036 2.3486102 2.6682758 3.0223227
000210 27 e1 20 c0 ab 09 9f bf ae 7c 7c bf 39 a6 9c bf
       -2.5137422 -1.2424825 -0.98627746 -1.2238227
000220 6e 0a dc bf 2f a0 13 bf b7 ab b5 bf 2c a8 4e 3f
       -1.7190683 -0.57666296 -1.4193028 0.8072536
000230 d6 19 e1 bf 9d 9e 3b c0 82 93 4b bf d8 f8 db 3f
       -1.758601 -2.931556 -0.79521954 1.7185316
000240 87 b1 c9 bf 02 98 04 bf fa 40 70 3f a1 95 b6 bf
       -1.5757302 -0.51794446 0.93849146 -1.4264413
000250 c8 6a ce bf a2 32 96 3e 65 52 dd bd 9a f0 87 bf
       -1.6126337 0.29335505 -0.10806731 -1.0620301
000260 68 6a e6 3f df c5 fe bf c1 b0 96 c0 45 d6 aa c0
       1.8001223 -1.9904135 -4.7090764 -5.338656
000270 36 c5 0e c0 83 63 28 be 1d b8 83 be 25 8a 04 40
       -2.2307868 -0.1644421 -0.25726405 2.0709317
000280 7b 07 39 40 36 3b df 3f 58 e2 ff bf c8 63 47 c0
       2.8910816 1.7439945 -1.999095 -3.1154652
000290 ed f7 b7 3f 5a c5 05 40 a7 ca 29 40 47 e0 46 40
       1.4372536 2.0901704 2.652994 3.1074388
0002a0 a2 f1 84 3f d1 23 be bd 1a 53 8d 3f 58 7d 07 c0
       1.038624 -0.09284175 1.1040986 -2.1170254
0002b0 55 e2 54 3f a7 24 7e 3b 34 97 58 3f dc 43 ce bf
       0.83157855 0.003877917 0.8460572 -1.6114459
0002c0 d4 b1 be 3f 95 fe 5b bf 7c 3c 78 be 0b a3 ab 3e
       1.4898019 -0.85935336 -0.24241823 0.3352283
0002d0 dc e6 cc 3f bd b0 88 3e 17 a8 44 bf 7f da a0 3f
       1.6007953 0.2669734 -0.76818985 1.256668
0002e0 9c 31 39 c0 80 c8 9a bf 0a 35 11 40 15 c8 b4 40
       -2.893653 -1.2092438 2.2688622 5.649424
0002f0 73 e6 ce 3f ef 3e f6 3f 11 8b 54 bf 58 ef 89 3f
       1.6164078 1.9237956 -0.830247 1.0776167
000300 fc c0 11 3e ef 4d 72 3f ee 46 fe bf 33 e2 0c c0
       0.14233774 0.9465017 -1.9865396 -2.201306
000310 71 e8 e7 3f b8 b6 cf bf 98 7a f1 3f af c4 53 40
       1.811781 -1.6227636 1.8865538 3.3088796
000320 5f 50 6c 3f ed b6 3c 3f 8a 02 ed bd 5e ba 13 c0
       0.92310137 0.7371662 -0.1157275 -2.30825
000330 b7 aa 34 bf 3b 36 11 40 b4 13 26 40 03 6b 1b bf
       -0.7057299 2.268935 2.5949526 -0.6071016
000340 83 eb 82 3f 43 ef fb 3e 0a 92 8f 3f c4 61 25 40
       1.0228122 0.4920598 1.1216443 2.5840921
000350 d8 4b 72 3f 74 d4 09 40 ea e1 97 bf e2 ab 02 40
       0.9464698 2.153592 -1.1865819 2.041741
000360 1c 61 29 c0 7d f0 1f bf 02 8a 40 40 28 a0 79 3f
       -2.646552 -0.6247633 3.0084233 0.97510004
000370 50 c3 31 3f b1 0f 5a 3f 27 87 90 bf bc 68 40 40
       0.6943865 0.85180193 -1.1291245 3.0063925
000380 57 e9 9f 40 24 9e dd 3f 98 2d 50 c0 2b c8 19 bf
       4.997234 1.7313886 -3.2527828 -0.6007106
000390 60 87 c0 3f b2 7c 6f 40 e9 41 60 40 1c 2f 98 3f
       1.5041313 3.7419858 3.5040228 1.1889377
0003a0 e2 75 43 40 37 06 af bf 96 fc 21 3f 54 ef 4d c0
       3.05407 -1.3673772 0.6327604 -3.2177324
0003b0 4b 2d 11 40 74 2b ce bf 55 25 f1 3f 49 d0 1f bf
       2.2683895 -1.6107011 1.8839518 -0.6242719
0003c0 ec bd d2 bf f5 78 61 bf ea 80 71 c0 62 e7 5f 40
       -1.646421 -0.8807519 -3.7734933 3.4984975
0003d0 a6 6e 9d bd 34 dd 4c 40 bb 95 c0 bf 97 0d f4 3e
       -0.0768712 3.2010012 -1.5045694 0.47666618
0003e0 97 aa 66 c0 27 ec a1 bf e0 f0 2e be 29 67 da 40
       -3.604162 -1.2650193 -0.17084074 6.825093
0003f0 55 d2 b7 3f bf 2c da 3f 3b c5 11 c0 3b e6 80 40
       1.4361063 1.7044905 -2.277663 4.0281043

layers.2.fc_i.bias f4 [16]
000000 3e 9c 95 be 40 83 e2 be 0c 47 87 bf 98 86 86 3f
       -0.29220766 -0.4424076 -1.0568557 1.0509825
000010 ce 80 d8 bf ca 5b c0 be 71 fc 8c be 51 0d 8f bf
       -1.6914308 -0.3757003 -0.27536348 -1.1175939
000020 84 fc c5 3f 2c 67 01 be 55 7c e4 be e9 7c 0a bf
       1.5467687 -0.12637013 -0.44626108 -0.5409685
000030 0e d6 74 bf 30 fc 9d 3f d3 ae 14 3f a4 c4 45 bf
       -0.9563912 1.2342587 0.5807926 -0.77253175

layers.4.fc_r.weight f4 [1, 16]
000000 ed fb 7e c2 ca 3d 80 c2 94 ff 7f c2 0c fe 8a c2
       -63.74602 -64.12068 -63.999588 -69.496185
000010 65 a3 72 42 aa ff 7f c2 08 7c 7d c2 af ff 7f c2
       60.659565 -63.999672 -63.371124 -63.99969
000020 7b 40 79 c2 de ff 7f c2 7b a5 80 c2 df 3a 7e c2
       -62.31297 -63.99987 -64.323204 -63.55749
000030 99 ff 7f c2 be ae 85 c2 0c 7f 84 c2 9e 39 82 c2
       -63.999607 -66.84129 -66.24814 -65.11253

layers.4.fc_i.weight f4 [1, 16]
000000 68 9f 79 42 30 00 80 42 eb 2d 84 42 22 91 98 c2
       62.40567 64.00037 66.08968 -76.28346
000010 08 f1 0f 3f e4 ac 84 42 51 eb 7c 42 c9 79 86 42
       0.5622716 66.33768 63.2298 67.23786
000020 84 ef 7f c2 a6 28 73 42 03 5f 7b 42 d6 b2 7a 42
       -63.983902 60.789696 62.842785 62.674644
000030 47 1a 85 42 72 6d 7f c2 47 90 9f c2 ed ff 7f 42
       66.55132 -63.85688 -79.78179 63.999928
