trained_models/CNN_complex_fe/cnn_baseline.pth (torch, 52768 bytes, 42 tensors)

weight f4 [1, 1, 121]
-3.7296746 3.43811 -2.5415337 -1.1252402 -3.3811226 -2.887441 -3.0307992 -2.6062655
0.17841373 1.4559647 0.3746979 0.86632806 1.9984697 -3.4291096 5.309626 5.8027635
-0.11030404 -0.9225711 1.3875424 1.5503628 0.75897986 0.820899 -0.096815236 0.011066873
2.010432 -1.4472578 -0.6528849 0.561794 2.4490652 0.57667094 -0.009706397 3.9934864
3.196756 1.3468139 0.18654089 -1.0468705 0.31298122 -3.1029224 1.7146606 -4.034148
0.30223134 -0.81425244 -2.0440688 -0.30172467 0.122371994 -0.10359191 -1.226338 0.60687923
-1.2669604 1.0375365 -0.4420121 0.2290199 0.24525191 0.21446328 0.5139567 -1.4403658
-1.0304391 0.6770691 -1.035185 1.4336009 -3.0142708 -1.3093266 2.8456414 -1.5987949
-0.47162494 2.1679385 0.5688246 -6.085811 2.3493037 0.54913354 0.29985777 2.437116
-1.9049867 1.1204699 -1.6140026 -2.965771 -1.8424163 -0.88089126 -2.6486855 1.5386934
-2.811751 -3.0129843 -0.96235895 -1.1551313 3.9955924 1.1574031 0.38409162 -0.15800193
1.6716603 3.117854 0.53185123 1.7293305 -2.6765645 4.028878 -2.8720171 -1.8236588
-1.7949305 -4.272777 -2.7630308 4.20232 -4.1945453 0.021743037 -3.3651388 -1.8788062
3.4754164 2.6868472 -2.7562296 -1.9710722 -0.76170737 -0.42789003 -3.1161292 0.13877986
0.25677142 2.0027165 1.5810652 0.674466 -2.391361 5.6141133 -2.2128787 3.951965
1.915279
00000000: fdb2 6ec0 ff09 5c40 7da8 22c0 df07 90bf
00000010: 5064 58c0 d5cb 38c0 9df8 41c0 0ecd 26c0
00000020: 17b2 363e 0d5d ba3f 67d8 bf3e adc7 5d3f
00000030: dbcd ff3f 8876 5bc0 75e8 a940 3db0 b940
00000040: 16e7 e1bd 9f2d 6cbf fd9a b13f 4a72 c63f
00000050: 814c 423f 7026 523f 1147 c6bd d451 353c
00000060: ebaa 0040 be3f b9bf 7723 27bf bbd1 0f3f
00000070: 7cbd 1c40 b5a0 133f 9407 1fbc 4895 7f40
00000080: a697 4c40 6664 ac3f 9304 3f3e daff 85bf
00000090: 133f a03e 4896 46c0 007a db3f be17 81c0
000000a0: 11be 9a3e d972 50bf 06d2 02c0 a87b 9abe
000000b0: 2b9e fa3d ff27 d4bd a5f8 9cbf 705c 1b3f
000000c0: c22b a2bf ffcd 843f 694f e2be 3184 6a3e
000000d0: 5123 7b3e 439c 5b3e ab92 033f e85d b8bf
000000e0: 6ee5 83bf 6754 2d3f f180 84bf 3c80 b73f
000000f0: d0e9 40c0 0498 a7bf fd1e 3640 50a5 ccbf
00000100: d378 f1be 81bf 0a40 7d9e 113f f7be c2c0
00000110: fe5a 1640 0494 0c3f f586 993e b5f9 1b40
00000120: 9bd6 f3bf 8f6b 8f3f a397 cebf 31cf 3dc0
00000130: 4cd4 ebbf 1782 61bf 1084 29c0 e8f3 c43f
00000140: baf3 33c0 bcd4 40c0 285d 76bf 58db 93bf
00000150: c9b7 7f40 c925 943f a8a7 c43e 42cb 21be
00000160: f7f8 d53f ec8a 4740 6727 083f b45a dd3f
00000170: d54c 2bc0 92ec 8040 21cf 37c0 a76d e9bf
00000180: 48c0 e5bf 97ba 88c0 7fd5 30c0 6879 8640
00000190: b739 86c0 741e b23c 6f5e 57c0 b97c f0bf
000001a0: 396d 5e40 4ef5 2b40 1166 30c0 184c fcbf
000001b0: 41ff 42bf 6714 dbbe a96e 47c0 4f1c 0e3e
000001c0: 8b77 833e 822c 0040 5860 ca3f cea9 2c3f
000001d0: 0f0c 19c0 d1a6 b340 ce9f 0dc0 ffec 7c40
000001e0: dd27 f53f

conv1.conv_r.weight f4 [4, 1, 11]
0.12653428 0.8138133 0.23928426 0.5820474 0.4061577 -0.09590708 -0.5367144 -0.40629855
-0.050871827 0.045287315 -0.25581947 -0.6138967 -1.29265 -0.9255473 -0.034686144 1.1266744
-0.48694733 0.4351541 0.47765687 0.37670138 -0.26640964 -0.030807022 0.07741453 0.7084329
0.8518708 1.3744099 1.5522012 -0.5615946 -1.1767857 -0.8158847 -0.8862653 -0.39505094
0.351212 -0.8441644 -0.41911024 -1.3550448 -0.06360873 1.76835 1.4572194 0.671414
-0.04883084 -0.3599739 -0.8363137 -0.52232116
00000000: 3492 013e 1256 503f ef06 753e 0f01 153f
00000010: e7f3 cf3e ee6a c4bd 1d66 09bf 5d06 d0be
00000020: fa5e 50bd 317f 393d c5fa 82be 5628 1dbf
00000030: 8e75 a5bf abf0 6cbf 0f13 0ebd de36 903f
00000040: 2951 f9be 85cc de3e 718f f43e 01df c03e
00000050: d866 88be 025f fcbc 828b 9e3d dc5b 353f
00000060: 3414 5a3f aaec af3f 87ae c63f aac4 0fbf
00000070: eaa0 96bf d2dd 50bf 48e2 62bf 1e44 cabe
00000080: 0fd2 b33e 281b 58bf 9e95 d6be 1c72 adbf
00000090: 4b45 82bd 4b59 e23f 2a86 ba3f cae1 2b3f
000000a0: d902 48bd 804e b8be a818 56bf d7b6 05bf

conv1.conv_r.bias f4 [4]
-0.37295812 -0.38449538 1.013372 0.18524398
00000000: 5ef4 bebe 94dc c4be 2cb6 813f 99b0 3d3e

conv1.conv_i.weight f4 [4, 1, 11]
0.32998544 0.34874585 0.32216057 0.64521265 0.49970323 0.22998023 -0.36380062 -0.059960652
-0.55123216 -0.5689776 -0.61482257 -0.70224404 -0.05463359 0.5708817 0.1681695 -1.8981193
-0.5176949 -0.43768293 -0.882907 -0.010480997 0.30430573 1.0093031 -0.85543585 -0.33579734
0.07761654 1.2529031 0.55143476 0.2617676 0.30493644 -0.74090457 -0.7192894 -0.8091168
-0.27227226 0.37403017 0.440213 -0.37364465 -0.069632165 -0.81852233 -1.0533681 -0.49929917
0.23851106 0.30042663 0.97488457 -0.10564543
00000000: daf3 a83e d18e b23e 3bf2 a43e a82c 253f
00000010: 1ad9 ff3e f07f 6b3e 1344 babe 4d99 75bd
00000020: 8d1d 0dbf 84a8 11bf 0365 1dbf 44c6 33bf
00000030: 79c7 5fbd 4e25 123f a034 2c3e 93f5 f2bf
00000040: a787 04bf fa17 e0be 3106 62bf 7db8 2bbc
00000050: f6cd 9b3e d830 813f d8fd 5abf a1ed abbe
00000060: 6cf5 9e3d 215f a03f d42a 0d3f 6706 863e
00000070: a120 9c3e ecab 3dbf 5a23 38bf 4722 4fbf
00000080: 4567 8bbe e280 bf3e 9963 e13e 5a4e bfbe
00000090: 4f9b 8ebd ae8a 51bf c4d4 86bf 24a4 ffbe
000000a0: 3e3c 743e 85d1 993e 0992 793f a25c d8bd

conv1.conv_i.bias f4 [4]
1.1023096 0.97469723 0.16931343 0.84888494
00000000: 7b18 8d3f c285 793f 8060 2d3e 8650 593f

conv2.conv_r.weight f4 [8, 4, 3]
0.49149057 1.9127574 -0.7134079 -1.1609824 0.6485673 0.06155857 -0.30193084 0.403511
-0.11617092 0.6823328 -2.810269 0.9728829 0.560425 0.7832984 -0.82795054 0.70089716
0.7523682 0.122402504 0.13226943 -1.5731424 -1.5020568 0.7769901 1.9098444 0.9966681
1.782924 1.5035357 1.2929956 1.835362 1.1825122 -0.7468753 0.18272221 0.4075771
-0.46050915 -0.06926217 -0.3629861 1.5418489 1.928521 -1.1135005 1.8088105 -0.094165
0.8111191 0.6446936 -0.20618694 -1.5086287 0.51885927 -0.91671383 0.49723363 0.56023973
-0.20953424 -0.14871198 1.8113859 1.5967747 1.5239891 -1.3468944 0.22189519 -0.65298975
0.99061286 -0.020664265 1.0115111 -0.75705725 0.35773197 0.31123886 2.5812426 -0.028140835
-0.004180499 0.67147774 -0.35797086 -1.1179293 0.44065127 0.31081814 1.267545 0.9898492
-1.2994605 -0.38186514 -0.24855909 0.5430728 2.5662973 0.8963002 -1.665105 -1.4503518
-0.9413262 0.6148654 2.2456927 0.66177374 -0.10544873 2.4618392 -0.83130306 0.1433042
-0.6160608 0.19178085 -1.5444041 1.3364855 -1.197461 1.0359215 -0.11389291 0.92725223
00000000: a7a4 fb3e 3cd5 f43f e6a1 36bf 129b 94bf
00000010: 8208 263f d724 7c3d ae96 9abe fe98 ce3e
00000020: 05eb edbd 5dad 2e3f 73db 33c0 db0e 793f
00000030: 0378 0f3f 3e86 483f 91f4 53bf ff6d 333f
00000040: 349b 403f 2aae fa3d a371 073e bb5c c9bf
00000050: 6643 c0bf d3e8 463f c875 f43f a425 7f3f
00000060: db36 e43f dc73 c03f e180 a53f 24ed ea3f
00000070: 8f5c 973f 3833 3fbf 881b 3b3e f2ad d03e
00000080: dbc7 ebbe 53d9 8dbd 50d9 b9be 4e5b c53f
00000090: c7d9 f63f 2f87 8ebf 1a87 e73f 94d9 c0bd
000000a0: 80a5 4f3f a40a 253f ab22 53be bf1a c1bf
000000b0: f6d3 043f c2ad 6abf 6895 fe3e df6b 0f3f
000000c0: 2590 56be f447 18be 7edb e73f 1d63 cc3f
000000d0: 1312 c33f 0967 acbf 7e38 633e 562a 27bf
000000e0: ce98 7d3f 1b48 a9bc 3279 813f 81ce 41bf
000000f0: a528 b73e b35a 9f3e 1433 2540 9c87 e6bc
00000100: 91fc 88bb f7e5 2b3f f547 b7be 4f18 8fbf
00000110: 0b9d e13e 8e23 9f3e ea3e a23f c266 7d3f
00000120: b954 a6bf d483 c3be 4686 7ebe d206 0b3f
00000130: 373e 2440 ee73 653f 2922 d5bf 21a5 b9bf
00000140: c1fa 70bf d267 1d3f 6eb9 0f40 016a 293f
00000150: 81f5 d7bd c68e 1d40 47d0 54bf 56be 123e
00000160: 29b6 1dbf 3362 443e 09af c5bf f511 ab3f
00000170: 6746 99bf 1399 843f b040 e9bd 6760 6d3f

conv2.conv_r.bias f4 [8]
-0.2085794 -0.3448684 0.16413258 -0.38263845 0.29329386 0.2698687 -0.1293129 -0.11586818
00000000: d795 55be 9792 b0be 5f12 283e 30e9 c3be
00000010: 9d2a 963e 3b2c 8a3e 9a6a 04be 4c4c edbd

conv2.conv_i.weight f4 [8, 4, 3]
-0.79630363 0.15184297 0.22348249 -0.33099887 -0.731736 0.4298675 0.34717077 1.7996999
-0.22452056 0.33960626 0.4435483 0.85543627 -0.3651182 -0.1320623 0.5580548 -0.4281448
0.14036308 -0.5846643 0.4976643 -1.413697 -0.021189434 1.2875421 1.5307958 -0.31736967
-0.46465304 -0.10801401 0.05127528 -0.99280095 0.08355404 -0.15255482 0.6167646 1.0254384
-0.06672401 0.6975995 2.148309 1.024453 0.9863251 -1.1759881 0.75799257 -1.2607676
0.31328896 1.545471 0.5644104 -0.12162455 0.7269267 -0.6672571 0.80230963 -0.32272196
0.18968813 -1.9097563 -1.1212683 -0.37994957 1.7358447 -1.8730093 0.006806098 -0.5113721
1.2509488 -0.62491715 -1.5523081 0.32526535 -0.26996735 -0.29133758 0.15306447 1.5490067
0.56947315 -0.0062360014 -0.23810388 1.3665556 1.3516178 0.76268506 -0.6347036 1.320556
-0.9317103 0.41910407 -0.3680659 -0.4503497 -0.3307711 -0.06067194 0.8443436 1.1458607
0.37390438 -0.090745404 0.09388142 0.40354076 -0.01352365 -0.36081415 1.1482913 0.60677904
0.319666 -0.13856761 -0.08727285 1.2393056 0.11463447 0.5600067 0.3165965 -0.18382044
00000000: 8eda 4bbf b97c 1b3e 98d8 643e af78 a9be
00000010: 0d53 3bbf 9817 dc3e 5ec0 b13e 915c e63f
00000020: b8e8 65be dfe0 ad3e c318 e33e dffd 5a3f
00000030: c6f0 babe 573b 07be aedc 0e3f cc35 dbbe
00000040: 57bb 0f3e 8fac 15bf dbcd fe3e 06f4 b4bf
00000050: 7795 adbc 2ece a43f 1ef1 c33f 477e a2be
00000060: 01e7 edbe 7336 ddbd 0706 523d 3428 7ebf
00000070: 611e ab3d 5537 1cbe 49e4 1d3f 9141 833f
00000080: 99a6 88bd e195 323f e57d 0940 4721 833f
00000090: cd7f 7c3f c786 96bf cd0b 423f d560 a1bf
000000a0: 6967 a03e fed1 c53f 337d 103f 4b16 f9bd
000000b0: de17 3a3f 5cd1 2abf 2a64 4d3f d03b a5be
000000c0: 9b3d 423e e572 f4bf b885 8fbf c088 c2be
000000d0: 2930 de3f c5be efbf b005 df3b 48e9 02bf
000000e0: 171f a03f 92fa 1fbf 08b2 c6bf 2e89 a63e
000000f0: 2939 8abe 332a 95be efbc 1c3e da45 c63f
00000100: fec8 113f 5f57 ccbb 81d1 73be 4beb ae3f
00000110: d001 ad3f 543f 433f ef7b 22bf fb07 a93f
00000120: 9184 6ebf cf94 d63e 2273 bcbe 3c94 e6be
00000130: d45a a9be 2483 78bd e726 583f 90ab 923f
00000140: 6570 bf3e bad8 b9bd e744 c03d e59c ce3e
00000150: 4d92 5dbc a2bc b8be 36fb 923f df55 1b3f
00000160: 43ab a33e abe4 0dbe 1cbc b2bd 91a1 9e3f
00000170: 7ac5 ea3d 995c 0f3f f018 a23e 6d3b 3cbe

conv2.conv_i.bias f4 [8]
-0.03338189 -0.6298126 -0.1774205 -0.09379281 0.41582432 0.056566004 -0.4394186 0.040006384
00000000: 73bb 08bd 663b 21bf b8ad 35be 7216 c0bd
00000010: ede6 d43e c1b1 673d 7afb e0be bcdd 233d

conv3.conv_r.weight f4 [16, 8, 3]
2.3655598 -0.51841 -0.34845623 3.1237392 1.8961347 2.1705766 0.6473705 0.7739961
0.56979394 -1.6212559 0.3420958 -2.065646 -0.85712314 0.8511359 -0.124503896 1.2017448
0.40058115 -0.7387919 1.5440881 0.33111554 1.7864124 2.2525282 3.750843 2.0019894
0.7484603 -1.1016542 -0.12627213 0.5398893 0.9235134 1.2089764 -0.110380225 0.49504787
0.4896477 2.1400316 2.6596625 0.9522253 -0.47368568 0.39227512 -0.021584235 1.5537723
2.368341 0.2776659 0.012896855 0.7554321 0.05485885 0.7868249 -0.5667207 -0.27077562
-1.0073519 0.02706169 -1.1695333 1.0853139 0.4970017 0.11399549 -0.29253596 -0.21216814
-0.2382933 -1.404876 -0.4013679 -0.07942503 -1.6786602 0.094756305 0.7339355 -0.25361076
-0.046337824 -0.20061734 -0.5808144 0.2598588 0.4877516 -0.62287915 -1.2244909 -0.37149784
2.2160618 2.2531629 -0.12397344 1.1395372 1.7033749 -0.3636638 1.533712 0.31274354
1.0763272 4.3500514 0.2163677 -1.8667777 0.7384247 -0.47355756 -0.057718374 -2.0664837
0.40366924 -1.694082 -0.90799284 1.9135247 1.7698792 -0.49287277 2.5471609 -0.1199166
0.7624008 2.1905913 1.2421403 4.0297294 -0.29820117 -1.6616584 1.4046061 0.63979155
0.53217953 2.3903406 -0.42506942 -0.2536037 -0.24091531 -0.2264916 -0.39494744 0.24827765
0.98389375 -1.1482893 1.3712411 0.5685476 0.2796653 -0.31408322 3.0088155 -0.84035033
2.5734975 0.8935947 0.14132616 -1.0139018 -0.99113184 0.9490279 -0.8608271 1.5381491
2.2261803 3.0685923 -0.7090483 -1.2042074 -0.006590093 0.10903976 -0.07582683 0.6228494
2.3584614 -1.5480661 2.0155995 2.0822718 -0.7051427 4.9921193 0.5254166 -0.05578464
-1.9211307 -0.087948404 -0.0060436553 1.3034302 1.3787469 -0.97834384 -0.6888086 1.3751725
-0.894452 2.871053 2.0713787 -1.2197593 -0.49910247 -0.98399997 -0.31697214 2.359324
2.3552122 -0.8712506 0.3492187 1.9121647 0.38367987 1.8364403 4.353609 0.9027536
0.28151664 0.64811975 -0.58427495 -0.066242866 -0.38585985 0.40253738 -0.05952931 -0.07894637
-0.12558419 -0.0804497 -1.1694317 -0.13599125 -1.7126831 -0.07652985 -1.2919844 0.115142904
-0.051789124 -0.07923831 -0.25794306 -0.39161775 0.051162463 -0.15923849 -0.0919213 0.8170806
0.69307667 -0.5659516 -0.33710462 4.2544265 -1.0219901 -0.35982665 -0.8200456 0.17478311
1.682485 1.4139949 3.814559 0.34908992 -0.14669415 0.58523315 -0.30601692 1.0529257
2.6232374 -0.8262693 1.978121 1.9907504 -0.058597066 -0.89500386 -0.67089266 0.21314685
2.099115 -1.4337792 0.13116549 1.9765867 0.974499 0.120158836 3.8031616 0.92181253
0.36950126 -0.45425716 0.4458492 0.40323117 -0.6287702 0.24803911 -0.012708953 0.7270051
0.7352389 1.421419 2.3320196 -0.07054027 0.51170534 -0.8053562 -0.016664522 -0.6824533
2.7954955 1.1526296 0.8527412 1.98308 0.4671574 1.2215164 1.3593792 0.13590573
1.2442012 1.5957832 0.7556316 -0.02235156 -0.5958195 -0.47972766 -0.05376877 1.1837848
00000000: 5565 1740 85b6 04bf db68 b2be 58eb 4740
00000010: 8bb4 f23f baea 0a40 13ba 253f 9c24 463f
00000020: 04de 113f 5085 cfbf 2e27 af3e 8b33 04c0
00000030: 6c6c 5bbf 0be4 593f e6fb febd c6d2 993f
00000040: f918 cd3e 7721 3dbf aea4 c53f fa87 a93e
00000050: 29a9 e43f 6c29 1040 d00d 7040 9820 0040
00000060: 189b 3f3f 0103 8dbf 7b4d 01be 2f36 0a3f
00000070: 606b 6c3f bdbf 9a3f 070f e2bd ea76 fd3e
00000080: 1ab3 fa3e 47f6 0840 e937 2a40 0ac5 733f
00000090: ee86 f2be 49d8 c83e 6cd1 b0bc 03e2 c63f
000000a0: e692 1740 3a2a 8e3e 554d 533c 0064 413f
000000b0: acb3 603d 5b6d 493f 9c14 11bf 1aa3 8abe
000000c0: e8f0 80bf 7ab0 dd3c 44b3 95bf 91eb 8a3f
000000d0: 0277 fe3e 7876 e93d 46c7 95be 9b42 59be
000000e0: 2903 74be fad2 b3bf 1880 cdbe 97a9 a2bd
000000f0: 56de d6bf 980f c23d 32e3 3b3f 45d9 81be
00000100: bbcc 3dbd a26e 4dbe 41b0 14bf 360c 853e
00000110: 94ba f93e 0275 1fbf 1ebc 9cbf f734 bebe
00000120: f5d3 0d40 d233 1040 c9e5 fdbd 5bdc 913f
00000130: 3008 da3f 2432 babe ad50 c43f ec1f a03e
00000140: 17c5 893f 9f33 8b40 7f8f 5d3e 92f2 eebf
00000150: 6709 3d3f 2376 f2be 1a6a 6cbd 4541 04c0
00000160: bcad ce3e aed7 d8bf 3872 68bf 61ee f43f
00000170: 678b e23f d259 fcbe af04 2340 d696 f5bd
00000180: b32c 433f a632 0c40 74fe 9e3f 8bf3 8040
00000190: d3ad 98be 39b1 d4bf 22ca b33f 61c9 233f
000001a0: eb3c 083f 57fb 1840 b3a2 d9be 58d8 81be
000001b0: 81b2 76be 6aed 67be 8d36 cabe 7f3c 7e3e
000001c0: 76e0 7b3f 25fb 92bf d484 af3f 568c 113f
000001d0: 4a30 8f3e 84cf a0be 6f90 4040 3321 57bf
000001e0: 2fb4 2440 9fc2 643f ceb7 103e 89c7 81bf
000001f0: d1ba 7dbf 7ef3 723f 2a5f 5cbf 12e2 c43f
00000200: bd79 0e40 d163 4440 3084 35bf 7823 9abf
00000210: b5f1 d7bb 3d50 df3d 194b 9bbd 0f73 1f3f
00000220: 08f1 1640 0827 c6bf 95ff 0040 f143 0540
00000230: 3b84 34bf 71bf 9f40 b481 063f 6f7e 64bd
00000240: 9ce7 f5bf 4b1e b4bd db09 c6bb cdd6 a63f
00000250: c77a b03f be74 7abf c355 30bf a705 b03f
00000260: cefa 64bf 55bf 3740 7891 0440 1321 9cbf
00000270: 5c8a ffbe 6ce7 7bbf 2c4a a2be 2aff 1640
00000280: ccbb 1640 480a 5fbf cbcc b23e d0c1 f43f
00000290: b071 c43e 7a10 eb3f c450 8b40 dc1a 673f
000002a0: f322 903e 2deb 253f 0b93 15bf 57aa 87bd
000002b0: 6c8f c5be 6119 ce3e 01d5 73bd a2ae a1bd
000002c0: 2499 00be d0c2 a4bd f0af 95bf 4a41 0bbe
000002d0: 3339 dbbf afbb 9cbd bf5f a5bf 0bd0 eb3d
000002e0: d520 54bd b247 a2bd 1d11 84be 1f82 c8be
000002f0: bb8f 513d 6a0f 23be 3c41 bcbd 322c 513f
00000300: 796d 313f 34e2 10bf fa98 acbe 4324 8840
00000310: 92d0 82bf 333b b8be 82ee 51bf 58fa 323e
00000320: ab5b d73f c9fd b43f bc21 7440 eabb b23e
00000330: fe36 16be d7d1 153f 40ae 9cbe 45c6 863f
00000340: 1fe3 2740 6386 53bf 1233 fd3f e9d0 fe3f
00000350: 7a03 70bd f91e 65bf 9fbf 2bbf 2b43 5a3e
00000360: e657 0640 1486 b7bf 3f50 063e cb00 fd3f
00000370: c478 793f d615 f63d 0067 7340 e8fb 6b3f
00000380: 452f bd3e 6594 e8be 5946 e43e 5174 ce3e
00000390: 15f7 20bf f7fd 7d3e 3639 50bc 021d 3a3f
000003a0: 9e38 3c3f 0ff1 b53f cf3f 1540 6b77 90bd
000003b0: 1fff 023f d32b 4ebf 0984 88bc 42b5 2ebf
000003c0: 66e9 3240 5e89 933f 3f4d 5a3f 91d5 fd3f
000003d0: 412f ef3e a65a 9c3f 2300 ae3f df2a 0b3e
000003e0: fc41 9f3f a042 cc3f 1371 413f 9e1a b7bc
000003f0: a087 18bf dd9e f5be a43c 5cbd 4386 973f

conv3.conv_r.bias f4 [16]
0.19055198 0.13092338 -0.0467698 -0.13529058 0.11682021 0.27526456 0.04701967 -0.18089417
0.14993277 -0.08820482 0.16780914 0.07700559 0.23700798 0.162997 -0.1972307 0.1531216
00000000: 0f20 433e c710 063e b191 3fbd 9d89 0abe
00000010: 6f3f ef3d 7aef 8c3e b397 403d 523c 39be
00000020: fa87 193e bba4 b4bd 29d6 2b3e 1bb5 9d3d
00000030: 38b2 723e b0e8 263e d8f6 49be e9cb 1c3e

conv3.conv_i.weight f4 [16, 8, 3]
0.0008422053 -0.9632295 -0.7200868 0.7975326 1.2710037 0.6231155 0.02751969 -0.031255163
-0.111934215 0.46668857 1.0083532 -0.63282716 1.1703876 1.1895223 1.1425642 0.18178384
0.08528765 -0.110349216 1.0569553 1.3223581 -0.42685074 -0.36341974 -0.4507524 0.7873306
1.6408433 0.479963 -0.25706244 0.012462808 0.18530436 0.13272986 -0.033612233 0.2706329
0.06843652 -0.23257099 0.6842959 -0.13733613 0.70933396 0.91864604 1.6774203 0.07628897
0.13336413 0.22770393 0.10176649 -0.30394 0.39463684 0.9786191 -0.19363905 -0.3197457
1.9373599 0.5722796 0.8332192 0.10544973 0.5523196 -0.11177758 2.4231606 0.082763724
0.8379124 3.913031 0.4581176 -1.6770648 -0.2637852 -0.5019013 0.21286479 2.872373
0.12476583 -1.2150791 0.19291453 -0.027793871 0.03667079 3.2245696 -0.08002417 -0.26488423
2.2462935 -1.2176276 2.1236434 -0.18187049 -0.8493608 0.24911791 0.19368136 0.1378973
-0.0019782777 -0.3487689 1.1919335 -0.7605001 1.5860518 2.2239535 0.30666175 0.13045947
0.21478587 0.17501517 0.026614359 0.666511 0.22154014 1.41877 0.8239412 0.5530252
-0.19630982 1.181848 0.7936445 -0.31290412 0.009791404 1.0272306 0.23470944 -0.006193975
0.099491924 0.23400788 0.66945606 -1.0008626 1.1613373 0.78904897 -0.3738417 0.23618467
-0.092984274 0.22293518 -0.5221352 0.115227655 0.102847554 -0.4232106 1.0610564 0.8924117
-0.49819022 0.5894837 1.1096205 -1.0676113 0.5138997 0.150172 0.25573033 0.16928598
0.15598509 0.41535583 -0.4396513 -0.7156399 1.748125 0.92660713 0.42971626 0.18842049
0.07831184 0.22856927 -0.3915092 -1.0593965 1.8729047 -0.39619052 0.45200562 1.6754609
0.63325346 0.089983284 0.65397894 -0.061482843 -0.2221364 -0.85793394 0.25076464 0.036430474
0.18342468 0.21815722 0.5093931 -1.632032 2.0407898 2.800813 0.529003 0.17103904
0.3418553 0.10650127 1.4890541 0.45360118 -0.5886941 -0.34336263 0.20149003 -0.72144854
1.0081005 -0.04694046 0.039320957 1.4311346 0.8966431 0.9997994 0.6290859 -0.471111
0.9440659 -4.464065 0.4991841 1.965529 0.048281666 -0.09280838 0.33877367 -0.28886542
1.0920588 -0.06750441 -0.9401116 1.0325648 -0.09492869 0.9852514 0.35737848 0.821954
-0.1637904 1.1608503 0.6256031 0.66062826 -0.13625047 0.91567415 0.35278574 0.3299233
0.3063216 0.4334346 0.069825694 -0.6794725 0.47125104 0.6943512 0.95907104 0.21993382
0.1828934 0.18590763 0.55118304 -0.2068107 -0.5334008 -1.723164 0.038181618 0.7104137
0.9777074 -0.9464484 0.411024 0.85018146 0.7244758 -0.34712854 0.22765158 0.012068744
0.3325844 0.46505353 0.56287557 -1.0505493 0.31195885 0.66969186 0.6383423 0.25467122
0.2693677 0.027443241 1.5152088 0.96294737 0.86846495 -0.23969068 -0.72981936 1.5419317
0.58101076 1.0316038 -1.5655594 0.0143994605 1.1918824 0.66535056 0.062986866 0.105157636
0.0071033966 0.22326234 0.44781455 -0.4641656 1.6034756 -0.31315613 1.9271804 0.17408463
00000000: 71c7 5c3a 3596 76bf 9c57 38bf 192b 4c3f
00000010: 40b0 a23f 7f84 1f3f f970 e13c 6a05 00bd
00000020: c43d e5bd cef1 ee3e b811 813f f600 22bf
00000030: 43cf 953f 4442 983f 8b3f 923f 8b25 3a3e
00000040: 4bab ae3d c5fe e1bd 504a 873f 0843 a93f
00000050: 2e8c dabe 2712 babe 05c9 e6be 808e 493f
00000060: 2707 d23f b6bd f53e b09d 83be ce30 4c3c
00000070: 6dc0 3d3e 56ea 073e fbac 09bd 6590 8a3e
00000080: 7228 8c3d 1727 6ebe 042e 2f3f d8a1 0cbe
00000090: e996 353f 632c 6b3f b5b5 d63f 643d 9c3d
000000a0: 9b90 083e 382b 693e f36a d03d 069e 9bbe
000000b0: d70d ca3e c886 7a3f 5149 46be b5b5 a3be
000000c0: 69fb f73f ea80 123f da4d 553f 07f6 d73d
000000d0: d164 0d3f a5eb e4bd 1015 1b40 0780 a93d
000000e0: 6d81 563f 1a6f 7a40 648e ea3e 0faa d6bf
000000f0: db0e 87be 9b7c 00bf 3af9 593e f6d4 3740
00000100: 3a85 ff3d b687 9bbf 638b 453e f9af e3bc
00000110: 1c34 163d 595f 4e40 b6e3 a3bd e89e 87be
00000120: 46c3 0f40 39db 9bbf c6e9 0740 423c 3abe
00000130: b66f 59bf c418 7f3e 6854 463e f334 0d3e
00000140: fea5 01bb d691 b2be 4791 983f 22b0 42bf
00000150: bf03 cb3f 4155 0e40 c502 9d3e 2b97 053e
00000160: d4f0 5b3e 2d37 333e 5b06 da3c 77a0 2a3f
00000170: 6bdb 623e 419a b53f cfed 523f 0f93 0d3f
00000180: 7105 49be cc46 973f 492c 4b3f f834 a0be
00000190: 206c 203c 4b7c 833f ac57 703e d4f6 cabb
000001a0: 6cc2 cb3d c39f 6f3e 7961 2b3f 441c 80bf
000001b0: b3a6 943f 1dff 493f 2e68 bfbe 65da 713e
000001c0: 8a6e bebd 1f49 643e a7aa 05bf 7afc eb3d
000001d0: bda1 d23d 0faf d8be b2d0 873f 1875 643f
000001e0: ca12 ffbe 67e8 163f 0b08 8e3f 7da7 88bf
000001f0: ee8e 033f b0c6 193e 16ef 823e 4e59 2d3e
00000200: 8eba 1f3e 85a9 d43e fa19 e1be 2d34 37bf
00000210: 8fc2 df3f 2036 6d3f c503 dc3e 4df1 403e
00000220: f561 a03d 100e 6a3e e573 c8be 4e9a 87bf
00000230: 57bb ef3f 7cd9 cabe 486d e73e 8175 d63f
00000240: e61c 223f 2849 b83d 2a6b 273f 6fd5 7bbd
00000250: b977 63be 8fa1 5bbf 3964 803e 1f38 153d
00000260: aed3 3b3e 9b64 5f3e 9667 023f 6de6 d0bf
00000270: 4d9c 0240 8540 3340 be6c 073f dc24 2f3e
00000280: a807 af3e 561d da3d 5399 be3f 6a3e e83e
00000290: a8b4 16bf 3acd afbe 6753 4e3e dab0 38bf
000002a0: 7009 813f a444 40bd 030f 213d 6b2f b73f
000002b0: 678a 653f daf2 7f3f c60b 213f 7635 f1be
000002c0: 4eae 713f 9fd9 8ec0 0f95 ff3e 7496 fb3f
000002d0: ffc2 453d 5212 bebd be73 ad3e 2be6 93be
000002e0: 95c8 8b3f c13f 8abd 27ab 70bf 152b 843f
000002f0: f969 c2bd 7039 7c3f 50fa b63e 946b 523f
00000300: acb8 27be be96 943f 8627 203f ef1e 293f
00000310: 3e85 0bbe 9f69 6a3f 55a0 b43e b5eb a83e
00000320: 2fd6 9c3e 24eb dd3e c600 8f3d e9f1 2dbf
00000330: d147 f13e 00c1 313f ae85 753f 5536 613e
00000340: 6848 3b3e 925e 3e3e 551a 0d3f 2fc6 53be
00000350: f48c 08bf a390 dcbf 5464 1c3d acdd 353f
00000360: 084b 7a3f 714a 72bf bd71 d23e 7ea5 593f
00000370: 3f77 393f d5ba b1be 7f1d 693e fbbb 453c
00000380: 8148 aa3e 7f1b ee3e 9d18 103f 6678 86bf
00000390: 12b9 9f3e ed70 2b3f 676a 233f 4464 823e
000003a0: 90ea 893e a6d0 e03c 5df2 c13f b883 763f
000003b0: b853 5e3f 7971 75be 71d5 3abf 055e c53f
000003c0: 1fbd 143f 980b 843f 4064 c8bf b7eb 6b3c
000003d0: 9a8f 983f 6a54 2a3f 42ff 803d e35c d73d
000003e0: 9cc3 e83b e29e 643e f347 e53e 1da7 edbe
000003f0: b03e cd3f 0056 a0be d9ad f63f 3e43 323e

conv3.conv_i.bias f4 [16]
0.049500413 0.0010283077 -0.014722997 0.27104372 0.08130024 0.26758343 0.14879687 0.18467334
0.18003295 -0.015948936 0.109717265 0.13890553 -0.19713277 0.052920066 0.26176503 0.20306335
00000000: f2c0 4a3d 48c8 863a ba38 71bc 3ec6 8a3e
00000010: bd80 a63d b200 893e 355e 183e 021b 3d3e
00000020: 8f5a 383e 58a7 82bc 72b3 e03d 403d 0e3e
00000030: 2cdd 49be b6c2 583d 1106 863e d7ef 4f3e

conv4.conv_r.weight f4 [32, 16, 3]
4.8114634 2.7287405 -1.9642099 2.5233462 0.60702306 1.2885625 -2.3081508 -10.659006
-0.43427366 0.881858 -1.8228426 -0.26227733 6.395412 1.031719 0.02982944 0.32162938
0.44638258 0.041761495 5.637058 1.5183673 2.342171 3.460392 0.0028775963 -3.5606468
1.4921995 1.3113637 0.49578735 5.6306853 0.46713176 -1.7268114 2.8163898 2.3501844
1.4533349 6.651075 0.96534014 -0.7891747 3.544666 -0.73800623 -0.9872212 -0.11766953
0.6621993 0.5256049 2.5773864 -0.9932673 -3.94272 2.3051455 2.7922409 -0.033084895
0.41960075 -0.38401031 -0.26446548 -2.9540524 0.44789577 -0.37760943 -0.08734753 1.7628328
0.95087874 -0.19170225 -0.8047591 -0.074128784 0.0012957504 -0.27321655 -0.22111717 -0.697683
0.7564859 -0.58489275 -1.1418264 -0.61977404 0.17681307 7.263714 0.9026971 -0.19183183
-0.4920154 0.07074322 -0.14586145 0.27193344 -0.2580416 -0.572114 -0.43821374 -0.081744604
-1.0306644 0.3385435 -0.7745146 -0.012732362 0.7232845 -0.24628422 0.32453358 -1.1055657
-0.13605715 -0.69146794 4.0615273 2.0099998 1.7800568 -0.6956287 -0.8401769 0.06345577
3.1715891 0.0920943 -0.16934684 0.1515879 3.220554 -2.2110116 1.3134687 17.100563
0.22182481 1.6077129 -3.1171994 1.9735739 4.1315 0.19158198 0.27366158 1.7464763
-0.36269894 0.32366648 3.9708333 0.19841108 1.0026855 2.6677444 7.340036 0.39922503
2.7785983 -0.2189986 0.23318742 3.3657084 2.3759918 -2.2082098 3.1178815 1.6874704
0.32039744 3.0536423 1.2066004 0.085812494 4.2841663 0.67106503 -0.54000217 0.36563697
0.6902013 -0.06444182 -8.822962 5.3709407 0.32580507 -0.37143376 0.38447803 0.7271825
1.4745495 0.5566866 0.47115517 1.4704604 0.6848833 0.27502272 -0.103325255 0.20330638
0.3155122 1.4285523 0.75890267 0.5468325 1.3953671 0.7380453 0.58017915 1.2431918
0.6387516 0.45708078 1.4343396 0.70673263 0.40727422 -0.17350118 -0.028112687 0.11489615
1.2820284 0.5668555 0.35083327 1.4543085 0.82699054 0.49924096 1.5588436 0.7587854
0.33912092 1.4628042 0.7616107 0.51749027 1.5919518 0.6956342 0.3476337 1.4456943
0.56057537 0.24693745 -0.13503902 0.16176175 0.0040309927 1.3402611 0.4962221 0.30350298
-0.4549337 1.1368103 -0.7213372 -0.6306075 0.08796976 -1.1331953 -0.21300375 3.275616
2.984123 -0.6914032 0.19180481 0.09509013 -1.2958214 0.5100131 -0.51793075 0.0033895718
0.7477425 -0.83803004 -0.37936532 0.52028 -1.639112 5.559606 5.5882382 -1.4082489
-0.40740904 0.24787477 -1.2415663 -1.59053 1.0944831 -1.1023024 0.1293406 0.49135286
-0.64674646 -0.59546274 0.91618574 -0.5724158 -1.2663803 1.524831 -0.25138113 0.03465129
0.6823678 -1.1438183 1.4078335 3.1316397 -1.250705 -0.788358 0.027965551 0.1591693
0.26119533 1.0407649 1.4397782 3.1684198 3.091274 2.462216 12.043829 -11.971008
-1.3982441 -2.7278614 0.60421693 3.5451503 2.8942704 -0.50739336 0.73219246 0.8990836
00000000: 82f7 9940 afa3 2e40 3b6b fbbf 817e 2140
00000010: dd65 1b3f 9eef a43f beb8 13c0 4a8b 2ac1
00000020: 1e59 debe 72c1 613f e852 e9bf 3749 86be
00000030: 37a7 cc40 5e0f 843f df5c f43c 9bac a43e
00000040: 428c e43e 1a0e 2b3d c762 b440 dc59 c23f
00000050: 21e6 1540 1077 5d40 0e96 3c3b a3e1 63c0
00000060: 6500 bf3f c4da a73f d7d7 fd3e 932e b440
00000070: e52b ef3e 2808 ddbf bb3f 3440 6c69 1640
00000080: e106 ba3f 9bd5 d440 8820 773f 5a07 4abf
00000090: cfdb 6240 faed 3cbf 87ba 7cbf b9fc f0bd
000000a0: e585 293f 0b8e 063f e6f3 2440 c446 7ebf
000000b0: 8655 7cc0 8187 1340 13b4 3240 0784 07bd
000000c0: e9d5 d63e 009d c4be 0568 87be 320f 3dc0
000000d0: 9852 e53e 0656 c1be 43e3 b2bd 81a4 e13f
000000e0: ca6c 733f 984d 44be b104 4ebf d5d0 97bd
000000f0: 2bd6 a93a 0ae3 8bbe 8a6c 62be 5a9b 32bf
00000100: 0fa9 413f 88bb 15bf 5e27 92bf 83a9 1ebf
00000110: 7c0e 353e 5870 e840 2817 673f 906f 44be
00000120: 71e9 fbbe d2e1 903d b45c 15be dc3a 8b3e
00000130: 071e 84be 1076 12bf 8d5d e0be b769 a7bd
00000140: d0ec 83bf 9355 ad3e 9746 46bf 669b 50bc
00000150: 2c29 393f ee31 7cbe 4429 a63e 2d83 8dbf
00000160: 9152 0bbe 0b04 31bf 08f8 8140 d6a3 0040
00000170: e7d8 e33f b914 32bf d515 57bf 19f5 813d
00000180: 51fb 4a40 f09b bc3d 4269 2dbe dc39 1b3e
00000190: 8f1d 4e40 3781 0dc0 be1f a83f f4cd 8841
000001a0: 0b26 633e 89c9 cd3f 3280 47c0 129e fc3f
000001b0: 3f35 8440 112e 443e 5f1d 8c3e 898c df3f
000001c0: adb3 b9be 9db7 a53e 2222 7e40 462c 4b3e
000001d0: 0058 803f 53bc 2a40 93e1 ea40 3967 cc3e
000001e0: 8ed4 3140 2b41 60be afc8 6e3e c467 5740
000001f0: 4010 1840 4f53 0dc0 5f8b 4740 08ff d73f
00000200: 220b a43e e06e 4340 e271 9a3f 76be af3d
00000210: e417 8940 ebca 2b3f 953d 0abf c534 bb3e
00000220: 08b1 303f 13fa 83bd da2a 0dc1 bfde ab40
00000230: eccf a63e 912c bebe 4eda c43e a228 3a3f
00000240: 0abe bc3f 0383 0e3f 403b f13e 0c38 bc3f
00000250: 8354 2f3f c7cf 8c3e 319c d3bd 8c2f 503e
00000260: d18a a13e cdda b63f 7247 423f 37fd 0b3f
00000270: 649b b23f 89f0 3c3f 9f86 143f e920 9f3f
00000280: 3a85 233f 7e06 ea3e 7198 b73f 6eec 343f
00000290: 3f86 d03e 4baa 31be 944c e6bc ac4e eb3d
000002a0: 8219 a43f 711d 113f 6ba0 b33e c826 ba3f
000002b0: a7b5 533f 839c ff3e 3088 c73f c33f 423f
000002c0: 42a1 ad3e 2b3d bb3f ebf8 423f 3e7a 043f
000002d0: 14c5 cb3f 1515 323f 0bfd b13e 830c b93f
000002e0: de81 0f3f 2cdd 7c3e ab47 0abe dfa4 253e
000002f0: 6b16 843b ad8d ab3f d310 fe3e be64 9b3e
00000300: 12ed e8be 0083 913f 8ea9 38bf 7e6f 21bf
00000310: 7d29 b43d 8b0c 91bf a81d 5abe b1a3 5140
00000320: dffb 3e40 cdff 30bf 7b68 443e 9dbe c23d
00000330: 7add a5bf 3890 023f 1c97 04bf 9423 5e3b
00000340: 0d6c 3f3f 2389 56bf 2c3c c2be 1231 053f
00000350: 6cce d1bf 4be8 b140 d9d2 b240 8041 b4bf
00000360: eb97 d0be e2d2 7d3e a5eb 9ebf 7d96 cbbf
00000370: 0618 8c3f 3f18 8dbf dd71 043e 9a92 fb3e
00000380: 2d91 25bf 3f70 18bf 268b 6a3f d889 12bf
00000390: c018 a2bf aa2d c33f 07b5 80be 83ee 0d3d
000003a0: a8af 2e3f a368 92bf e333 b43f c96c 4840
000003b0: 1a17 a0bf d4d1 49bf 0318 e53c 47fd 223e
000003c0: 65bb 853e c937 853f a74a b83f 64c7 4a40
000003d0: 6fd7 4540 f294 1d40 86b3 4041 4089 3fc1
000003e0: aaf9 b2bf 4895 2ec0 f6ad 1a3f bee3 6240
000003f0: ba3b 3940 88e4 01bf f770 3b3f 582a 663f

conv4.conv_r.bias f4 [32]
-0.08353141 0.4904665 -0.28041458 0.40610498 0.4813235 -0.37956816 1.1411896 -0.40723425
-0.40925387 0.39256468 0.13249414 -0.0038048725 -0.14919525 -0.8080762 -0.031172564 0.18843858
-0.32142892 -0.29474756 -0.08058717 0.76213855 -0.09394413 0.26117674 0.21790008 0.0034431105
-0.011353909 -0.050072417 -0.09543899 -0.110124014 0.0077331983 0.13636589 0.51908416 -0.0110795535
00000000: 8412 abbd 6d1e fb3e 8092 8fbe feec cf3e
00000010: 0970 f63e c256 c2be 8012 923f 0281 d0be
00000020: b989 d1be 3dfe c83e 8bac 073e 2b5b 79bb
00000030: a4c6 18be 15de 4ebf 9b5d ffbc 0bf6 403e
00000040: 5592 a4be 27e9 96be e30a a5bd 831b 433f
00000050: c865 c0bd f5b8 853e 3321 5f3e cfa5 613b
00000060: bf05 3abc bc18 4dbd 8475 c3bd b388 e1bd
00000070: c566 fd3b 80a3 0b3e b3e2 043f 0487 35bc

conv4.conv_i.weight f4 [32, 16, 3]
0.257092 0.25230977 0.11694115 0.24710032 0.2906886 0.22783913 -0.3093173 1.8565966
0.6653134 0.14127253 0.14422959 0.31280097 0.09794147 0.23400737 0.099441014 0.20470764
0.25592312 0.18415375 0.34275863 0.21845956 0.15137789 -4.2315817 -3.960187 -0.17191996
0.34015962 0.14970385 0.28370696 0.26954892 0.26403853 0.2068308 0.23671782 0.10369511
0.10484352 0.2207571 0.21663003 0.32660538 0.2915517 0.28527415 0.14158946 0.11304612
0.09332855 0.25809464 -1.7572258 -0.9865971 1.0133959 0.1182398 0.17674136 0.14335772
-0.04781378 -0.21092737 -0.5437439 0.049565844 0.2545867 0.19822969 -0.84116775 -0.6484362
-0.0041791457 0.17908761 0.9174228 -0.27138808 0.20220008 0.09405995 -0.22340208 0.032143075
0.06390674 -0.3895275 1.1399283 -0.00221035 -0.09468235 -2.0414364 0.86420465 -3.1229107
0.17319426 0.13700932 -0.34071127 0.26705658 -0.776891 -0.22802305 0.3122747 0.121229075
-0.20983322 0.15591338 -0.7004379 0.18765469 -0.08812115 0.08595723 -0.7336 0.6773673
-0.38156807 -0.49630973 0.12373476 -1.3439461 0.55755305 0.46657747 0.36193597 -0.45005816
0.42569584 0.39717957 0.33884057 0.44731373 0.34126115 0.45454028 -3.6994996 -0.48891786
-1.8396944 0.5030619 0.4284345 0.48724917 0.27992073 0.50088143 0.36988455 0.40684816
0.3406813 0.31999284 0.31719795 0.4600294 0.3102356 -2.4056764 1.7231445 -1.1231539
0.2719258 0.25465456 0.32134554 0.7320597 0.4931252 0.6717175 0.699583 0.54395413
0.55426455 0.29253656 0.40684533 0.37409848 0.4675193 0.5160408 0.51286244 0.3662401
0.41189343 0.43358472 -3.9064798 -1.0209429 1.2171264 0.49454874 0.3839877 0.3834349
-0.44513476 -0.41999796 -0.33437893 -0.35707134 -0.38969105 -0.25996345 -1.6748743 -0.6206107
-0.2184566 -0.38892934 -0.39142045 -0.36595383 -0.34598374 -0.38806748 -0.36359614 -0.37912536
-0.30678135 -0.2392289 -0.2648337 -0.35014898 -0.3719369 -1.6387268 -0.73433244 -0.59943056
-0.28881577 -0.42397946 -0.42525652 -0.3350853 -0.37639248 -0.38841283 -0.43360364 -0.23186727
-0.32788023 -0.3869454 -0.37591448 -0.28256118 -0.4171697 -0.3257009 -0.33540422 -0.29643205
-0.286294 -0.41156533 -1.6725233 -0.62200063 -0.5889015 -0.2575952 -0.37905204 -0.30058077
-0.52524644 -0.2271338 -1.2151906 -0.21724513 -0.025675628 -0.52740514 -0.791403 -3.6425762
4.0830035 1.1217884 -0.008927498 -0.36443985 0.164627 0.48205298 0.4188382 -0.26161298
-0.15890539 0.2735979 1.0155557 0.53829074 0.24585615 0.89760786 -0.9251297 1.7345015
0.34242755 -0.32770398 -0.5580939 -1.102739 -0.080186546 -0.5813122 -0.2148555 -0.21610455
-0.16886644 -0.8921907 -0.4022728 -0.66306573 0.18299566 0.1288381 -0.17588389 -0.7666725
-0.1488366 -0.9828361 0.6071943 -2.4081073 2.917504 -0.31157157 0.14847587 -0.6864852
0.6377849 0.4319894 0.6147321 0.65889335 0.44724256 0.69625604 -4.6585426 0.33072856
-0.32803082 0.64899546 0.7863908 0.6406231 0.5318175 0.46675658 0.49531147 0.627188
00000000: 90a1 833e bf2e 813e d77e ef3d de07 7d3e
00000010: 23d5 943e a94e 693e d65e 9ebe f5a4 ed3f
00000020: fb51 2a3f bfa9 103e ecb0 133e 7327 a03e
00000030: 8a95 c83d a19f 6f3e bba7 cb3d e19e 513e
00000040: 5b08 833e cd92 3c3e 0f7e af3e ddb3 5f3e
00000050: ce02 1b3e 1e69 87c0 b473 7dc0 c90b 30be
00000060: 6729 ae3e f74b 193e 0a42 913e 5102 8a3e
00000070: 0f30 873e 74cb 533e 2866 723e 1a5e d43d
00000080: 33b8 d63d 260e 623e 43d4 5d3e d238 a73e
00000090: 4446 953e 740f 923e d4fc 103e b984 e73d
000000a0: 0a23 bf3d fb24 843e c6ec e0bf a191 7cbf
000000b0: f5b6 813f b527 f23d b0fb 343e 5ecc 123e
000000c0: 62d8 43bd 58fd 57be cd32 0bbf 8e05 4b3d
000000d0: 3059 823e b9fc 4a3e c556 57bf eaff 25bf
000000e0: 37f1 88bb be62 373e 38dc 6a3f 61f3 8abe
000000f0: 8a0d 4f3e 81a2 c03d 84c3 64be 75a8 033d
00000100: 89e1 823d 2670 c7be 2ce9 913f 85db 10bb
00000110: d2e8 c1bd e5a6 02c0 843c 5d3f c5dd 47c0
00000120: d659 313e 2c4c 0c3e b571 aebe a4bb 883e
00000130: 54e2 46bf e07e 69be 78e2 9f3e f346 f83d
00000140: 85de 56be c2a7 1f3e e64f 33bf 8d28 403e
00000150: dd78 b4bd 580a b03d 36cd 3bbf f267 2d3f
00000160: e45c c3be 4f1c febe a668 fd3d 6d06 acbf
00000170: ccbb 0e3f 3ee3 ee3e ac4f b93e 066e e6be
00000180: cef4 d93e 1f5b cb3e 837c ad3e 4e06 e53e
00000190: c8b9 ae3e 81b9 e83e 9ac4 6cc0 7153 fabe
000001a0: 1b7b ebbf aac8 003f c45b db3e b978 f93e
000001b0: c551 8f3e c439 003f 8261 bd3e 674e d03e
000001c0: c86d ae3e 1ad6 a33e c567 a23e f988 eb3e
000001d0: 33d7 9e3e 9af6 19c0 0090 dc3f 82c3 8fbf
000001e0: dc39 8b3e 1562 823e 6787 a43e 4468 3b3f
000001f0: e87a fc3e aef5 2b3f df17 333f 9440 0b3f
00000200: 48e4 0d3f 5ac7 953e 084e d03e d689 bf3e
00000210: b15e ef3e 401b 043f f44a 033f d383 bb3e
00000220: b2e3 d23e d1fe dd3e c403 7ac0 42ae 82bf
00000230: ccca 9b3f 7e35 fd3e 099a c43e 9451 c43e
00000240: b4e8 e3be f909 d7be b733 abbe 0ed2 b6be
00000250: 9685 c7be ee19 85be 4862 d6bf 58e0 1ebf
00000260: 16b3 5fbe bf21 c7be 4368 c8be 4d5e bbbe
00000270: c824 b1be c8b0 c6be 4629 babe b81c c2be
00000280: 7212 9dbe 6cf8 74be 4898 87be ba46 b3be
00000290: 836e bebe cdc1 d1bf 36fd 3bbf 4874 19bf
000002a0: a9df 93be d613 d9be 39bb d9be 4d90 abbe
000002b0: 84b6 c0be 0cde c6be 4c01 debe 9d6e 6dbe
000002c0: ebdf a7be b51d c6be dd77 c0be dcab 90be
000002d0: 4497 d5be 45c2 a6be 1aba abbe f1c5 97be
000002e0: 2195 92be b1b8 d2be 3e15 d6bf 6f3b 1fbf
000002f0: 40c2 16bf 85e3 83be 1c13 c2be b9e5 99be
00000300: 8d76 06bf c395 68be 5e8b 9bbf 8275 5ebe
00000310: b255 d2bc 0604 07bf 6399 4abf f81f 69c0
00000320: f7a7 8240 c396 8f3f a444 12bc dc97 babe
00000330: fb93 283e a6cf f63e f671 d63e 23f2 85be
00000340: 18b8 22be 0615 8c3e bbfd 813f 6ccd 093f
00000350: b7c1 7b3e a1c9 653f 4dd5 6cbf 2504 de3f
00000360: aa52 af3e d1c8 a7be 3edf 0ebf 8d26 8dbf
00000370: d838 a4bd e0d0 14bf 1503 5cbe 834a 5dbe
00000380: 53eb 2cbe 9c66 64bf b3f6 cdbe adbe 29bf
00000390: 3763 3b3e 23ee 033e e81a 34be a644 44bf
000003a0: 9f68 18be 269b 7bbf 1671 1b3f 6e1e 1ac0
000003b0: 63b8 3a40 4f86 9fbe 0f0a 183e 7ebd 2fbf
000003c0: df45 233f b72d dd3e 155f 1d3f 3cad 283f
000003d0: fafc e43e d63d 323f c812 95c0 4155 a93e
000003e0: a8f3 a7be 9124 263f e850 493f e0ff 233f
000003f0: 3125 083f b8fa ee3e 7799 fd3e 658f 203f

conv4.conv_i.bias f4 [32]
0.23634398 -0.38791314 0.34635353 -0.35428318 -0.8328505 0.5009519 -0.81418055 0.052212697
-0.15408213 0.031832054 0.18927485 0.21325542 0.32871535 0.9432055 -0.3498358 -0.07660673
-0.39501414 0.45985848 0.42159837 -0.19835663 0.018595474 -0.35861897 -0.45668098 0.17936188
0.2483065 0.29051566 0.13559356 -0.42103684 -0.6011304 0.102494836 0.1582433 0.079501174
00000000: 2804 723e 8d9c c6be 4055 b13e 9b64 b5be
00000010: b135 55bf 623e 003f 236e 50bf fbdc 553d
00000020: b5c7 1dbe 5462 023d 44d1 413e a15f 5a3e
00000030: 614d a83e ea75 713f ae1d b3be fde3 9cbd
00000040: 4b3f cabe 9272 eb3e bedb d73e 001e 4bbe
00000050: 8955 983c e89c b7be 17d2 e9be a4aa 373e
00000060: 0f44 7e3e 78be 943e 0ad9 0a3e 2492 d7be
00000070: afe3 19bf d0e8 d13d 880a 223e 83d1 a23d

conv5.conv_r.weight f4 [32, 32, 3]
0.11811306 0.1803771 0.15983467 -0.5219069 -0.4123263 2.8048115 0.07073869 0.10614226
0.097573675 0.27317783 0.2326692 0.14898828 -15.529238 1.1399367 -3.2882705 0.11589035
0.18337552 0.09383341 0.05008872 -4.362974 2.1110883 0.6233026 0.04443079 0.49610272
-2.6081493 1.504018 2.9439979 0.46662492 0.34881446 -0.17348304 0.14191896 0.18819323
0.13291626 0.1658377 0.009051856 0.036602203 0.09156908 0.08776019 0.2371228 0.08135319
0.023304602 0.11762839 0.11014761 -0.56982017 0.29092222 0.13433053 0.19661565 0.17657375
-1.0799707 -0.042225443 0.67218786 0.10847492 0.14029315 0.14886636 0.1070842 0.1221973
0.016225815 0.22034003 0.18741888 0.16714828 0.12499556 0.026138974 0.0807748 1.1971812
0.022823622 0.5542544 -1.1593091 -0.6625093 0.3688559 0.05212147 0.13990994 0.19223589
0.0019424704 0.068858296 0.11659401 0.115559205 0.08387076 0.112487495 0.092173435 0.2329198
0.16452998 2.1002762 -4.2552285 2.5818765 0.02432296 0.08653375 0.124969006 0.020602433
0.099637866 0.030534659 -1.6625493 -0.102468714 -0.18680996 0.15444492 0.22018845 0.21855329
0.45042723 0.5899139 0.50629115 -7.6793466 -0.9014259 0.5729284 0.47010458 0.3531893
0.3507377 0.4419471 0.5612061 0.42726436 -1.4724438 -0.6314423 -3.9652543 0.39129123
0.34495613 0.39375204 -0.8533777 1.8202394 -1.8039848 -0.011021771 -0.60398465 -4.6436114
-1.8176254 -0.3235627 -0.56837606 0.1581807 0.11259682 -1.69352 0.45058483 0.49019566
0.43712735 0.35181952 0.29617998 0.3744923 0.50460434 0.34378332 0.38864625 0.32915682
0.3527559 0.46075997 0.08095045 -0.16729432 0.10341165 0.48214534 0.50191444 0.37369806
-3.1791847 -0.3488803 1.1830288 0.40154555 0.42942318 0.35727483 0.3703455 0.3839747
0.34834313 0.50211257 0.55661285 0.45917374 0.37872732 0.35411024 0.3680191 -0.12021427
0.28526983 -1.7226384 0.28036436 0.55891865 -0.7877628 0.55414414 0.42358133 0.42535564
0.4154933 0.34437904 0.45863295 0.37437153 0.3336722 0.3417109 0.3931272 0.4925073
0.5417662 -0.650166 -1.8421142 2.0514956 -1.7246909 1.0583051 1.0360519 0.34500363
0.467833 0.34157756 0.7598236 -0.76775515 -0.66495246 0.5016771 0.55140436 0.5780424
-0.55046177 -0.6303516 -0.54719687 -3.5878618 -4.0269513 -1.3676672 -0.47483808 -0.43057874
-0.45512882 -0.455809 -0.4890384 -0.50626665 0.46074194 -2.6396394 1.9481455 -0.43559983
-0.49675876 -0.5010391 -0.8535217 -0.025655232 -1.271463 -3.807049 1.2367711 6.4506607
-0.3405089 -3.2803853 -0.15531228 4.3384366 -6.564408 -5.1993003 -0.4430679 -0.50618285
-0.49316052 -0.37091213 -0.3909275 -0.44345737 -0.4008364 -0.3820873 -0.46927017 -0.54577935
-0.45252842 -0.4939229 1.2770561 -0.7550759 -1.4435232 -0.46531805 -0.45626196 -0.397088
-1.0105819 -0.7707796 1.3036965 -0.5215283 -0.4761032 -0.44872975 -0.48306617 -0.4992734
-0.4209136 -0.57717484 -0.41343123 -0.49651915 -0.44027764 -0.45346996 -0.4981332 2.2756596
00000000: 43e5 f13d c6b4 383e b3ab 233e b19b 05bf
00000010: 6f1c d3be 0882 3340 72df 903d 1d61 d93d
00000020: b5d4 c73d f7dd 8b3e d640 6e3e 6290 183e
00000030: c277 78c1 72e9 913f 0673 52c0 eb57 ed3d
00000040: cbc6 3b3e bb2b c03d d429 4d3d 7c9d 8bc0
00000050: 121c 0740 c290 1f3f 0ffd 353d 2d01 fe3e
00000060: ebeb 26c0 a983 c03f 766a 3c40 76e9 ee3e
00000070: cf97 b23e 8aa5 31be 3453 113e bab5 403e
00000080: 331b 083e 5cd1 293e 3c4e 143c 31ec 153d
00000090: 9288 bb3d 9dbb b33d 52d0 723e 809c a63d
000000a0: 4be9 be3c 27e7 f03d 1295 e13d bcdf 11bf
000000b0: c2f3 943e f18d 093e 9d55 493e c0cf 343e
000000c0: 7b3c 8abf 96f4 2cbd 8114 2c3f 1928 de3d
000000d0: 02a9 0f3e 6c70 183e f64e db3d 9442 fa3d
000000e0: 00ec 843c d1a0 613e bcea 3f3e eb28 2b3e
000000f0: acfd ff3d 6721 d63c 426d a53d 3c3d 993f
00000100: 9bf8 ba3c 9ee3 0d3f 3e64 94bf 369a 29bf
00000110: aeda bc3e 537d 553d 8d44 0f3e 7cd9 443e
00000120: 7e9a fe3a 9405 8d3d d7c8 ee3d 4eaa ec3d
00000130: 6fc4 ab3d d85f e63d 6dc5 bc3d 8782 6e3e
00000140: 8c7a 283e ed6a 0640 d52a 88c0 773d 2540
00000150: f240 c73c 9b38 b13d c0ef ff3d 6fc6 a83c
00000160: f00e cc3d d223 fa3c 6ace d4bf 1edb d1bd
00000170: 1c4b 3fbe cf26 1e3e 1579 613e 6fcc 5f3e
00000180: 669e e63e 9904 173f 4c9c 013f 35bd f5c0
00000190: d9c3 66bf 70ab 123f 8cb1 f03e 3ad5 b43e
000001a0: e493 b33e e446 e23e 34ab 0f3f 65c2 da3e
000001b0: 0a79 bcbf 34a6 21bf bac6 7dc0 5357 c83e
000001c0: 179e b03e de99 c93e f676 5abf 9bfd e83f
000001d0: f9e8 e6bf a894 34bc bd9e 1abf 7798 94c0
000001e0: f3a7 e8bf 03aa a5be 1881 11bf 1ffa 213e
000001f0: 2999 e63d 43c5 d8bf 0eb3 e63e edfa fa3e
00000200: 28cf df3e b021 b43e e7a4 973e 74bd bf3e
00000210: c02d 013f 5e04 b03e a4fc c63e 3e87 a83e
00000220: 6c9c b43e bbe8 eb3e 59c9 a53d 344f 2bbe
00000230: 7dc9 d33d c1db f63e 777d 003f 5a55 bf3e
00000240: c377 4bc0 70a0 b2be 7d6d 973f 6197 cd3e
00000250: 5bdd db3e baec b63e ed9d bd3e 5598 c43e
00000260: 085a b23e 738a 003f 2e7e 0e3f d218 eb3e
00000270: 8ce8 c13e f04d b53e 006d bc3e e632 f6bd
00000280: e30e 923e 6a7f dcbf eb8b 8f3e 4b15 0f3f
00000290: d3aa 49bf 64dc 0d3f a7df d83e 37c8 d93e
000002a0: 8abb d43e 7352 b03e f0d1 ea3e a0ad bf3e
000002b0: 15d7 aa3e bbf4 ae3e f847 c93e eb29 fc3e
000002c0: 31b1 0a3f 4771 26bf 66ca ebbf b44b 0340
000002d0: acc2 dcbf 8b76 873f 599d 843f 51a4 b03e
000002e0: cf87 ef3e 41e3 ae3e cd83 423f 9a8b 44bf
000002f0: 533a 2abf e96d 003f d628 0d3f 96fa 133f
00000300: 10eb 0cbf b95e 21bf 1815 0cbf 879f 65c0
00000310: c9dc 80c0 b80f afbf fa1d f3be d174 dcbe
00000320: a506 e9be cc5f e9be 3e63 fabe b19a 01bf
00000330: 5ee6 eb3e daef 28c0 d55c f93f f106 dfbe
00000340: 2a57 febe 1944 00bf 6680 5abf ec2a d2bc
00000350: 4dbf a2bf b1a6 73c0 844e 9e3f d06b ce40
00000360: 2f57 aebe d5f1 51c0 2f0a 1fbe 79d4 8a40
00000370: a10f d2c0 ab60 a6c0 ccd9 e2be 3395 01bf
00000380: 897f fcbe 32e8 bdbe a627 c8be d80c e3be
00000390: 6e3a cdbe f2a0 c3be 2e44 f0be 32b8 0bbf
000003a0: ceb1 e7be 76e3 fcbe 9376 a33f a74c 41bf
000003b0: 5ec5 b8bf 2b3e eebe 2b9b e9be 1e4f cbbe
000003c0: bf5a 81bf d051 45bf 87df a63f e182 05bf
000003d0: ccc3 f3be e8bf e5be 7354 f7be c3a0 ffbe
000003e0: fd81 d7be bbc1 13bf 42ad d3be c237 febe
000003f0: 126c e1be 372d e8be 510b ffbe 68a4 1140

conv5.conv_r.bias f4 [32]
0.3065068 0.51587456 -0.51084477 0.26580408 0.54194957 0.45380893 0.31747106 0.23527634
0.07546553 0.49259663 0.2512907 0.3223516 0.34842172 -0.09561042 0.2460952 0.29750448
0.49551067 0.559094 -0.034416206 0.5385465 0.30130488 0.6034528 -0.07086212 0.4347124
0.45219308 0.5186648 0.09583865 0.29379904 0.34498236 0.45084977 0.45097136 0.4347557
00000000: 76ee 9c3e 5b10 043f b9c6 02bf 7917 883e
00000010: 35bd 0a3f a559 e83e 918b a23e 48ec 703e
00000020: ac8d 9a3d a035 fc3e 2da9 803e 450b a53e
00000030: 5564 b23e 65cf c3bd 6100 7c3e 8252 983e
00000040: 93b3 fd3e c920 0f3f 02f8 0cbd 2fde 093f
00000050: a244 9a3e e27b 1a3f 2920 91bd a092 de3e
00000060: da85 e73e 37c7 043f 0e47 c43d d46c 963e
00000070: 87a1 b03e c8d5 e63e b8e5 e63e 4d98 de3e

conv5.conv_i.weight f4 [32, 32, 3]
-1.4423766 -0.7566732 -0.6271987 1.0188138 -0.23608308 -0.13205153 -1.6098015 1.2521372
0.6654411 -1.5832125 -0.5443194 -0.7202806 0.32192343 -0.34878072 0.1424537 1.507343
-6.715715 0.8071451 1.6095783 0.5906821 -0.14660604 -0.51745516 0.15399042 -0.4781968
0.42598706 0.50779384 -0.3120042 -0.35682267 -0.37325862 -0.26393434 -1.5784715 -0.33476624
-0.64432406 -1.9902636 0.8755353 -0.27588758 -4.391505 1.0658374 -0.03379461 -1.0164123
3.1191232 -1.6325319 0.37458763 -0.23205832 0.26455802 -1.5119238 -0.7836548 -0.3759365
0.8720748 0.23700012 0.62355876 -4.8595605 0.3813341 1.674482 0.14523499 0.3673822
0.048245925 -1.6143048 -0.3254565 -0.73088616 -0.7019125 1.3717687 0.6798208 1.4676082
0.39015195 0.49229544 1.1484375 0.38608876 -0.025216246 -1.2661701 0.794875 -0.6000281
0.10807306 0.8768142 0.27793628 0.033315875 -1.041627 0.15293887 -0.048791997 1.4720705
0.6413805 0.7457967 0.13622746 -0.28421947 0.82245845 0.21994376 0.2035787 -1.5966244
0.570939 -0.17282328 1.0847629 0.32791314 0.23301321 -1.429594 -0.48273945 -0.79271334
-0.1200464 0.028298281 -0.17225137 -0.40992257 -1.1976192 -1.3365301 -0.23943496 -0.15943742
-0.15348276 -0.3015042 -0.18170908 -0.11271915 0.8242963 -1.0918965 1.0150274 -1.1336687
-5.5256586 -1.539563 -0.29647234 0.91166115 0.19860077 0.0035878 -0.6660916 0.00693241
-0.10797365 0.29997972 -0.8991237 -0.037136544 -0.10546305 -0.15466379 -0.29798183 -0.07777516
-0.2528508 -0.10236102 0.32357457 -1.3912109 -0.3717311 0.28270411 -0.85283613 -0.7480821
-1.9732584 -1.5901562 1.2983227 -0.040401004 -0.4374894 -0.24438271 -0.0065189404 -0.25046542
-0.53876704 0.099332236 1.4401406 -0.36815938 -0.034161482 -0.20910236 0.26484722 -0.4437135
-1.0325902 -0.22757904 -0.13311103 -0.14457637 -0.17262714 -0.34251153 -0.1690276 -0.80194134
0.25688624 0.04326348 0.33550102 -0.14679675 0.4454155 -0.26852176 -0.081632964 -0.305622
-0.17981938 -1.0826861 -1.5288403 -0.86972195 -2.8113892 -1.1060513 -0.05811114 -0.04636153
-0.32833418 0.6581188 -0.13585727 0.14182752 0.54531634 -0.07312185 0.5223695 -0.45005438
0.49782553 -0.7858221 0.20772289 -0.50354636 0.47600958 -0.24845703 -0.12683947 -0.23023975
0.040351894 0.20927751 -0.043020397 1.588424 -0.29170808 0.7831006 0.46965984 0.7507375
0.5241807 0.12642765 0.20177753 -0.003895954 -0.5979662 -4.5413647 2.9070103 0.10913996
3.2167034 1.8084847 0.1039185 0.016756944 0.8397305 1.2613778 1.2478462 3.3571117
-1.6990918 1.3702914 -1.5941612 0.06399999 -0.015615629 -0.00043228938 -0.032836337 0.19999468
-0.001046398 0.6721704 2.2074182 1.1483876 0.6029051 1.8406913 1.0856482 0.41538784
2.9537272 1.5867788 0.7422868 -2.8498087 0.79824966 -0.010499937 0.3986809 0.07856409
-0.4044398 -2.8219633 0.5599424 0.4962914 1.0154297 0.6690062 0.5659722 1.92599
0.8962057 0.061041214 0.42951587 0.08659176 0.43199173 1.1008459 0.7724692 -0.5046408
00000000: cc9f b8bf 56b5 41bf 1890 20bf 7e68 823f
00000010: c3bf 71be 8438 07be fa0d cebf 0846 a03f
00000020: 595a 2a3f b5a6 cabf 8458 0bbf 4f64 38bf
00000030: 26d3 a43e 6393 b2be 62df 113e 9ef0 c03f
00000040: 23e7 d6c0 10a1 4e3f a906 ce3f f136 173f
00000050: e51f 16be f177 04bf aaaf 1d3e 36d6 f4be
00000060: fa1a da3e c7fe 013f 04bf 9fbe 76b1 b6be
00000070: c11b bfbe 6722 87be 5b0b cabf 7b66 abbe
00000080: 6cf2 24bf f5c0 febf 1523 603f 2341 8dbe
00000090: 3587 8cc0 5c6d 883f 386c 0abd cc19 82bf
000000a0: b79f 4740 cef6 d0bf f3c9 bf3e b2a0 6dbe
000000b0: 2674 873e b886 c1bf 9a9d 48bf c07a c0be
000000c0: 4b40 5f3f 29b0 723e 8ca1 1f3f 8581 9bc0
000000d0: 393e c33e 6d55 d63f 7bb8 143e 8519 bc3e
000000e0: 859d 453d 8aa1 cebf 3ca2 a6be 5b1b 3bbf
000000f0: 8ab0 33bf 1e96 af3f bc08 2e3f 96da bb3f
00000100: ffc1 c73e 260e fc3e 0000 933f 6dad c53e
00000110: 4d92 cebc dd11 a2bf ee7c 4b3f 719b 19bf
00000120: 6955 dd3d e576 603f aa4d 8e3e 3a76 083d
00000130: 0954 85bf 029c 1c3e 1eda 47bd ce6c bc3f
00000140: 8331 243f 88ec 3e3f 367f 0b3e 3785 91be
00000150: a38c 523f f038 613e ef76 503e 305e ccbf
00000160: 0f29 123f 96f8 30be 83d9 8a3f 3be4 a73e
00000170: 049b 6e3e f0fc b6bf a029 f7be 43ef 4abf
00000180: e3da f5bd ccd1 e73c aa62 30be 5fe1 d1be
00000190: 964b 99bf 6b13 abbf 702e 75be 9043 23be
000001a0: 962a 1dbe c25e 9abe f211 3abe 4cd9 e6bd
000001b0: 1505 533f 44c3 8bbf 6bec 813f 0e1c 91bf
000001c0: 32d2 b0c0 6610 c5bf 39cb 97be a062 693f
000001d0: 005e 4b3e 4c21 6b3b fb84 2abf 4529 e33b
000001e0: 4a21 ddbd f196 993e f92c 66bf 7d1c 18bd
000001f0: 03fd d7bd 2f60 1ebe 1391 98be 9548 9fbd
00000200: a975 81be a8a2 d1bd 91ab a53e 3313 b2bf
00000210: 8a53 bebe 98be 903e 7853 5abf 4f82 3fbf
00000220: bb93 fcbf 3d8a cbbf 702f a63f 867b 25bd
00000230: 9cfe dfbe 763f 7abe d69c d5bb 013d 80be
00000240: a3ec 09bf b36e cb3d 8756 b83f 637f bcbe
00000250: e9ec 0bbd ee1e 56be 0e9a 873e 6a2e e3be
00000260: ea2b 84bf 7b0a 69be 424e 08be d40b 14be
00000270: 2bc5 30be ac5d afbe 9215 2dbe 074c 4dbf
00000280: 9886 833e 0c35 313d cac6 ab3e e351 16be
00000290: 800d e43e af7b 89be 2f2f a7bd 7d7a 9cbe
000002a0: 9222 38be 7595 8abf 0ab1 c3bf 19a6 5ebf
000002b0: cded 33c0 1793 8dbf f205 6ebd 96e5 3dbd
000002c0: 6b1b a8be 797a 283f 2b1e 0bbe 3c3b 113e
000002d0: da99 0b3f e9c0 95bd 02ba 053f 876d e6be
000002e0: fde2 fe3e a32b 49bf 4fb5 543e 6ae8 00bf
000002f0: 87b7 f33e 856b 7ebe 35e2 01be f8c3 6bbe
00000300: 0748 253d d84c 563e 2836 30bd 7a51 cb3f
00000310: c35a 95be 4879 483f 4177 f03e 5530 403f
00000320: b530 063f 4076 013e c59e 4e3e 4353 7fbb
00000330: 5014 19bf dc52 91c0 750c 3a40 c584 df3d
00000340: 78de 4d40 6d7c e73f 39d3 d43d dc45 893c
00000350: 94f8 563f d474 a13f 6db9 9f3f ebda 5640
00000360: d77b d9bf b565 af3f 790d ccbf 6d12 833d
00000370: b2d8 7fbc e6a4 e2b9 657f 06bd 68cb 4c3e
00000380: 4a27 89ba 5c13 2c3f 5746 0d40 5dfe 923f
00000390: fd57 1a3f c69b eb3f 85f6 8a3f b7ad d43e
000003a0: de09 3d40 911b cb3f 8206 3e3f 4463 36c0
000003b0: 175a 4c3f ee07 2cbc e71f cc3e 36e6 a03d
000003c0: bc12 cfbe 0c9b 34c0 6358 0f3f e819 fe3e
000003d0: 9af9 813f fe43 2b3f 8ee3 103f d786 f63f
000003e0: bd6d 653f 5a06 7a3d 81e9 db3e 0557 b13d
000003f0: 052e dd3e 85e8 8c3f 8bc0 453f 2430 01bf

conv5.conv_i.bias f4 [32]
-0.42794302 -0.05982408 0.02620556 0.1752942 -0.13263892 -0.12303701 0.09513134 -0.041593395
0.6633631 -0.1267586 0.1784196 0.25000763 -0.25387964 -0.36431617 0.34752962 0.17304166
-0.16419636 -0.12628995 -0.43753988 -0.18506603 -0.22722672 0.08577135 -0.06511173 0.2600272
0.0928928 -0.05804361 0.7388823 0.18373519 -0.22189824 -0.3527005 0.21105884 -0.32034954
00000000: 591b dbbe 180a 75bd 0bad d63c 5380 333e
00000010: 7fd2 07be d4fa fbbd 38d4 c23d d65d 2abd
00000020: 2ad2 293f 02cd 01be a1b3 363e 0001 803e
00000030: 83fc 81be a687 babe 67ef b13e d531 313e
00000040: 1723 28be 2752 01be 3a05 e0be f381 3dbe
00000050: 1fae 68be e4a8 af3d 4c59 85bd 4922 853e
00000060: 953e be3d 23bf 6dbd 6427 3d3f 1425 3c3e
00000070: 4b39 63be 2995 b4be cf1f 583e db04 a4be
