trained_models/NN_tuned_fe/NN_32-16.pth (torch, 36499 bytes, 6 tensors)

weight f4 [1, 242]
0.8386602 0.75164455 0.3256251 0.28656298 1.7793359 1.0503705 1.6698421 -1.4392093
-0.21162643 0.41736495 1.9978405 0.9395928 0.08714114 0.988563 -0.7891493 -0.08892685
0.06390355 0.41585323 -0.4998307 -0.5027327 -0.11045587 -0.44136587 0.36489835 -2.018583
1.525413 0.6184954 0.45511702 1.208746 0.94644094 0.7599959 1.0831672 0.3512037
0.7855243 0.5368156 0.9173406 -0.71745646 0.85221165 -1.2759204 1.3284634 -0.21869129
0.8646445 -0.57468706 -0.41746357 0.015788186 1.0989627 -0.23613144 1.1648501 -0.62710506
1.0134625 -0.07584058 0.95868075 -0.6474073 0.6349121 -1.1571852 -0.0016351193 -0.1569492
0.53712744 -0.7929697 -0.44263026 -0.4486998 1.2608044 -0.9520529 0.07069565 -1.6426588
0.8629209 0.21166508 0.09324915 0.6760495 0.12625304 -0.54580253 0.6539902 -0.8339096
0.31001416 -0.8725242 -1.0215034 -0.2878451 -1.1465393 0.49325794 -0.36828947 -0.15593456
-0.07680671 -0.2002978 -1.0293163 -0.2500171 0.09779705 -0.55563337 -0.34342882 -0.6974026
-0.42220587 0.086923726 -1.1114637 -0.17639317 -0.07403028 -0.5359415 -0.39476934 0.24397916
-0.62354714 0.14613569 -0.6779508 0.86343485 0.20889376 -0.14325914 0.4051254 1.091699
-0.19874173 0.46267828 -0.053379305 0.98018503 -0.18468614 0.08382841 0.33405516 0.353015
0.09042786 -0.43333423 -0.6824844 -0.113695726 -0.19763757 -0.0987801 0.29663396 0.8895249
0.1874825 -0.1660848 0.17110705 -0.011432638 0.030781453 -0.35584798 -0.6446761 -0.4417116
0.0323535 0.010825698 0.015453123 -0.26114807 0.48219788 -0.023566756 0.15312693 0.19541045
0.20088905 -0.016309494 0.7068171 0.15616246 0.20625493 -0.12993154 0.19829911 -0.09007512
-0.2737245 -0.059399746 -0.034903266 -0.13840157 0.026528716 -0.17385937 -0.29608482 -0.22189961
-0.124429196 -0.08275863 -0.34998298 -0.16226892 0.3459672 -0.2044655 -0.22612709 -0.52860856
-0.24056667 -0.024634944 -0.22396591 -0.1617395 0.106885634 -0.33057266 -0.03468717 0.15586999
-0.07671171 0.43887416 -0.48523894 0.6236889 -0.4445574 0.28276578 -0.6905529 -0.10841102
-0.989557 -0.29902187 -0.29974848 0.34624395 0.18778178 0.41491917 0.45312896 0.1337314
-0.07151305 0.3288214 -0.2889879 0.25306392 -0.013691615 -0.026371008 0.551354 0.05817093
0.40443373 -0.17456242 0.15177275 -0.15067765 0.3911252 -0.22388233 -0.18160564 0.30262706
-0.09861212 0.11096283 0.048056893 0.21030861 0.25041103 0.173652 -0.10035767 0.17209266
-0.0004190504 0.056177408 -0.030892171 0.025018968 1.2086995 0.18932244 0.33828038 0.55079937
-0.08693177 0.30086064 -0.22920765 0.25028032 -0.11180159 -0.027798036 0.17348675 0.07999839
0.7275513 0.15203828 0.12714496 0.043284148 0.12637475 0.089465246 0.06227897 0.057729285
0.14732182 0.116545714 0.3804156 0.08432624 0.27406168 0.34061226 -0.8813268 -0.2560661
-0.0360929 -0.18323927
00000000: 6fb2 563f c76b 403f 55b8 a63e 62b8 923e
00000010: 47c1 e33f 8a72 863f 63bd d53f 0338 b8bf
00000020: 99b4 58be dcb0 d53e 3db9 ff3f 2789 703f
00000030: 0e77 b23d 7712 7d3f b005 4abf 481f b6bd
00000040: dddf 823d b7ea d43e cfe9 ffbe 17b3 00bf
00000050: b036 e2bd b5fa e1be f5d3 ba3e 7730 01c0
00000060: bc40 c33f b755 1e3f 1905 e93e 30b8 9a3f
00000070: f449 723f 178f 423f 39a5 8a3f f9d0 b33e
00000080: 1f18 493f bf6c 093f d5d6 6a3f 3aab 37bf
00000090: 8b2a 5a3f 5c51 a3bf 170b aa3f 9cf0 5fbe
000000a0: 5859 5d3f b11e 13bf c9bd d5be 3a56 813c
000000b0: cfaa 8c3f 71cc 71be cf19 953f f589 20bf
000000c0: 24b9 813f 4e52 9bbd 1a6c 753f 7cbc 25bf
000000d0: 9989 223f a51e 94bf 8051 d6ba 4bb7 20be
000000e0: 2f81 093f 1000 4bbf 6fa0 e2be fbbb e5be
000000f0: 0a62 a13f bdb9 73bf e2c8 903d a542 d2bf
00000100: 62e8 5c3f bbbe 583e 69f9 be3d 9411 2d3f
00000110: 7a48 013e b7b9 0bbf e76b 273f 197b 55bf
00000120: 2dba 9e3e bf5d 5fbf a0c0 82bf 6f60 93be
00000130: cdc1 92bf 4e8c fc3e 7090 bcbe 4fad 1fbe
00000140: d64c 9dbd de1a 4dbe a3c0 83bf 3e02 80be
00000150: d249 c83d fd3d 0ebf e7d5 afbe fa88 32bf
00000160: 5e2b d8be 1105 b23d 7144 8ebf 69a0 34be
00000170: 309d 97bd 7633 09bf 351f cabe acd5 793e
00000180: c9a0 1fbf 98a4 153e 2f8e 2dbf 110a 5d3f
00000190: 3fe8 553e 86b2 12be 996c cf3e cbbc 8b3f
000001a0: f482 4bbe 2be4 ec3e 42a4 5abd 68ed 7a3f
000001b0: 5d1e 3dbe 3bae ab3d 4709 ab3e 62be b43e
000001c0: 3e32 b93d fcdd ddbe 4cb7 2ebf 4ed9 e8bd
000001d0: 8161 4abe 394d cabd 68e0 973e e7b7 633f
000001e0: 6afb 3f3e 2212 2abe b036 2f3e f64f 3bbc
000001f0: 6329 fc3c b531 b6be 7e09 25bf 0628 e2be
00000200: 1b85 043d 455e 313c 182f 7d3c 33b5 85be
00000210: a4e2 f63e 120f c1bc 4ecd 1c3e ad19 483e
00000220: dcb5 4d3e 7d9b 85bc f7f1 343f 0de9 1f3e
00000230: 7e34 533e c60c 05be ec0e 4b3e 4e79 b8bd
00000240: 9e25 8cbe 264d 73bd baf6 0ebd 24b9 0dbe
00000250: c052 d93c 3108 32be 6e98 97be a739 63be
00000260: bcd4 febd 5b7d a9bd f830 b3be d329 26be
00000270: 9d22 b13e 675f 51be dc8d 67be e452 07bf
00000280: 1c57 76be 39cf c9bc 5257 65be 0a9f 25be
00000290: dbe6 da3d d240 a9be 2214 0ebd 629c 1f3e
000002a0: 071b 9dbd 1db4 e03e 3d71 f8be 13aa 1f3f
000002b0: 079d e3be adc6 903e 13c8 30bf 9906 debd
000002c0: 9c53 7dbf 6519 99be a278 99be e346 b13e
000002d0: de49 403e 4970 d43e 8500 e83e e2f0 083e
000002e0: 6f75 92bd 475b a83e 39f6 93be 9891 813e
000002f0: cc52 60bc 0308 d8bc 8925 0d3f a444 6e3d
00000300: f011 cf3e 7ec0 32be 516a 1b3e 3e4b 1abe
00000310: 9041 c83e 6941 65be d4f6 39be eff1 9a3e
00000320: 27f5 c9bd 7b40 e33d 4ed7 443d 245b 573e
00000330: e035 803e d4d1 313e 5288 cdbd 0f39 303e
00000340: feb3 dbb9 481a 663d 9411 fdbc 94f4 cc3c
00000350: aab6 9a3f bedd 413e 1633 ad3e 3001 0d3f
00000360: 4909 b2bd 680a 9a3e 69b5 6abe be24 803e
00000370: 3bf8 e4bd b5b8 e3bc 83a6 313e 32d6 a33d
00000380: cd40 3a3f ecaf 1b3e 4a32 023e b84a 313d
00000390: 6268 013e 8e39 b73d 3c18 7f3d 8b75 6c3d
000003a0: 88db 163e 85af ee3d d5c5 c23e 3cb3 ac3d
000003b0: d051 8c3e bb64 ae3e a29e 61bf 191b 83be
000003c0: 26d6 13bd 13a3 3bbe

layers.0.weight f4 [32, 242]
0.42013887 -0.7511304 0.35764876 1.6538314 1.791781 -0.4038371 0.35925364 -0.6164604
-0.13080378 0.9285111 -1.0942445 -0.7551952 1.1172526 0.49674898 -0.3188365 -0.28230098
-0.47034246 -0.4027538 -0.2700613 0.11702335 0.8804882 0.17452247 -0.7745998 -1.317294
-0.65083593 0.7825464 0.61069953 -0.47043964 0.012741647 0.20405562 0.20330372 0.17239259
0.62330645 0.3451106 0.5237046 -0.40681395 1.0078534 -0.8010092 0.47510302 -0.6329502
0.11117718 -0.0791504 -0.25742656 0.20649113 0.12524627 0.32503095 -0.3375911 0.60141677
-0.09688312 0.18253201 0.3808252 0.06784551 0.15605381 -0.78807306 -0.7339594 0.20700504
1.0239043 0.71323854 0.3747813 0.32446352 -0.15685505 -1.0168324 0.8346799 -0.53877753
0.20449965 0.9906396 0.015920198 0.122780845 0.44626513 -0.53689885 -0.36955196 -0.55612063
-0.22959358 -0.24976872 -1.0307467 0.4723132 0.018539593 0.36829555 -0.23595321 -0.8473257
-0.8264507 0.5464246 -0.08269138 -0.041258648 -0.18190195 0.0982457 0.97079283 -0.85200197
-0.44312343 0.6970325 0.34418127 -0.65314853 0.2357645 0.12911613 -0.1531606 -0.5834574
-0.5665971 -0.003608647 -0.44132203 -0.0152244335 -0.18618442 0.043387007 0.54685014 0.1333059
0.1925472 -0.09592566 -0.2894785 -0.0262827 -0.09693559 0.108281806 0.19096562 -0.17594375
-0.49634027 -0.05709865 -0.19263272 0.044124987 -0.16333742 -0.3491168 -0.63776046 0.07363398
0.11596801 0.4245099 0.01651542 -0.23185559 -0.77014416 -0.08890346 -0.3307273 0.7041086
-0.34874013 0.14643675 -0.2816915 0.032376725 1.007983 -0.49986896 -0.11884953 -0.020105809
-0.44928387 -0.17768042 -0.097425394 0.11918756 -0.14656457 -0.12517841 -0.30840808 0.014437937
-0.21681906 -0.025540844 0.20864215 0.020388404 -0.1307309 0.23580767 -0.0517654 0.071746945
0.0326921 -0.39329854 0.928492 -0.5571278 0.10367365 0.25925148 0.6217551 -0.6818207
-0.05010473 0.06859347 0.20344137 0.26473537 -0.34971222 -0.44479576 0.5985399 0.045392513
-0.27061832 -0.20648782 -0.15838523 0.42626157 -0.17351158 -0.032096583 -0.41246176 -0.24163103
-0.54478705 0.35920206 0.49210212 -0.049012605 -0.5216713 0.10356836 -0.21011022 0.22192842
0.3445174 0.3904699 0.059689924 -0.06293167 0.18008739 -0.068608396 0.39633015 -0.22877015
0.19007352 0.24156134 -0.015238034 -0.6115435 -0.09510688 0.57028496 0.13684079 -0.39851114
-0.38328207 0.16108735 0.34027156 -0.24073738 0.17247663 -0.049205054 0.3368821 -0.08458658
-0.014507495 0.42567116 -0.026655763 -0.4041405 0.15626507 0.12587838 0.22737727 0.13380662
0.02370942 -0.08953314 0.0018800134 0.11594077 -0.23651074 0.17035487 0.002135664 -0.22848988
0.26814058 0.27540395 -0.02735206 -0.11498239 -0.053441335 0.12974417 0.009490558 -0.16189727
-0.007661069 -0.015765654 0.008000267 0.13741885 0.36635312 0.30527687 -0.47052863 0.042599525
-0.28805208 0.025985243 -0.2709376 0.50526595 -0.48610765 -0.28874508 0.72128075 0.14054191
0.38607195 0.09926806 0.25379893 -0.7092429 -0.3312138 -0.24987535 -0.38177314 0.17787938
00000000: 711c d73e 154a 40bf bd1d b73e bfb0 d33f
00000010: 1459 e53f bdc3 cebe 18f0 b73e 59d0 1dbf
00000020: 6df1 05be e7b2 6d3f 3410 8cbf 7954 41bf
00000030: 2202 8f3f e255 fe3e 8a3e a3be c189 90be
00000040: bad0 f0be bf35 cebe 7a45 8abe f0a9 ef3d
00000050: ad67 613f 05b6 323e 2c4c 46bf 179d a8bf
00000060: 2f9d 26bf f654 483f ce56 1c3f 77dd f0be
00000070: 57c2 503c f5f3 503e da2e 503e af87 303e
00000080: 0391 1f3f 56b2 b03e 8111 063f eb49 d0be
00000090: 5701 813f f00e 4dbf b440 f33e 0609 22bf
000000a0: ddb0 e33d 9b19 a2bd 6acd 83be 6972 533e
000000b0: 8f40 003e 756a a63e bed8 acbe 73f6 193f
000000c0: a86a c6bd ace9 3a3e 85fb c23e 96f2 8a3d
000000d0: 92cc 1f3e 28bf 49bf c3e4 3bbf 21f9 533e
000000e0: 4c0f 833f cd96 363f 56e3 bf3e 1520 a63e
000000f0: 9c9e 20be 9027 82bf 95ad 553f 53ed 09bf
00000100: 5b68 513e 8f9a 7d3f 136b 823c 8674 fb3d
00000110: dd7c e43e 3472 09bf ea35 bdbe ec5d 0ebf
00000120: 941a 6bbe 5fc3 7fbe 82ef 83bf 09d3 f13e
00000130: 58e0 973c 3c91 bc3e b89d 71be 56ea 58bf
00000140: 4692 53bf 7ce2 0b3f 195a a9bd d4fe 28bd
00000150: 8144 3abe 0b35 c93d e185 783f cd1c 5abf
00000160: 13e1 e2be b970 323f 8738 b03e be34 27bf
00000170: 406c 713e 0537 043e 22d6 1cbe 775d 15bf
00000180: 820c 11bf 0d7f 6cbb f6f4 e1be e76f 79bc
00000190: 21a7 3ebe 93b6 313d 5ffe 0b3f 5881 083e
000001a0: 182b 453e ac74 c4bd 8736 94be d14e d7bc
000001b0: 2b86 c6bd dac2 dd3d 7e8c 433e 992a 34be
000001c0: 5020 febe 46e0 69bd 8341 45be 67bc 343d
000001d0: ed41 27be 70bf b2be 4544 23bf 69cd 963d
000001e0: a380 ed3d 5d59 d93e 594b 873c 8d6b 6dbe
000001f0: 2b28 45bf 0413 b6bd 1755 a9be 7640 343f
00000200: 118e b2be 84f3 153e de39 90be 759d 043d
00000210: 9605 813f d3ee ffbe 6267 f3bd f0b4 a4bc
00000220: 8908 e6be dbf1 35be f786 c7bd 9c18 f43d
00000230: 0615 16be c52e 00be aae7 9dbe 198d 6c3c
00000240: d105 5ebe 083b d1bc 4aa6 553e 9505 a73c
00000250: 52de 05be 9177 713e f507 54bd 10f0 923d
00000260: 27e8 053d 6d5e c9be a7b1 6d3f ed9f 0ebf
00000270: da52 d43d 9cbc 843e 582b 1f3f cd8b 2ebf
00000280: 9e3a 4dbd bc7a 8c3d ef52 503e 658b 873e
00000290: 7b0d b3be 45bc e3be e939 193f 80ed 393d
000002a0: 7c8e 8abe 8b71 53be bd2f 22be f53e da3e
000002b0: 05ad 31be b577 03bd 302e d3be 206e 77be
000002c0: 2a77 0bbf 55e9 b73e cff4 fb3e 71c1 48bd
000002d0: 408c 05bf a61b d43d 2227 57be 3441 633e
000002e0: 9664 b03e aceb c73e 6c7d 743d 52e2 80bd
000002f0: d468 383e 8f82 8cbd c9eb ca3e b942 6abe
00000300: a2a2 423e db5b 773e f2a8 79bc 1d8e 1cbf
00000310: 65c7 c2bd 32fe 113f fe1f 0c3e a709 ccbe
00000320: 8c3d c4be 15f4 243e 1338 ae3e dc83 76be
00000330: b79d 303e 3d8b 49bd d07b ac3e bb3b adbd
00000340: d8b0 6dbc 92f1 d93e 305d dabc 81eb cebe
00000350: f303 203e 43e6 003e 96d5 683e 9a04 093e
00000360: 423a c23c 275d b7bd c86a f63a 5b72 ed3d
00000370: df2f 72be 8271 2e3e 7ff6 0b3b 40f9 69be
00000380: b949 893e bf01 8d3e 6d11 e0bc e37b ebbd
00000390: 4de5 5abd a8db 043e 497e 1b3c 66c8 25be
000003a0: b409 fbbb f926 81bc 8d13 033c 87b7 0c3e
000003b0: a392 bb3e 404d 9c3e 21e9 f0be d77c 2e3d
000003c0: 907b 93be 01df d43c 55b8 8abe 1c59 013f
000003d0: 1ae3 f8be 65d6 93be dba5 383f 38ea 0f3e
000003e0: 39ab c53e 0d4d cb3d eff1 813e f190 35bf
000003f0: db94 a9be 53df 7fbe c577 c3be 0326 363e

layers.0.bias f4 [32]
0.6885874 -0.28169447 -0.43822023 -0.4250057 -0.4428796 -0.59281725 0.016166516 0.55072534
-0.30477497 -0.055377737 0.72818774 -0.64966065 0.07165636 0.1551747 0.4796451 -0.9779867
0.4373378 0.49720785 -0.81588924 0.52133816 -0.9902953 -0.1731748 -0.57856107 -0.5757191
-0.6403953 0.31093952 0.07572458 -0.65401375 -0.618302 -0.8219842 -0.30559745 0.54966366
00000000: 4447 303f 423a 90be 675e e0be 599a d9be
00000010: 1dc1 e2be dfc2 17bf a46f 843c 56fc 0c3f
00000020: 770b 9cbe c4d3 62bd 836a 3a3f 2950 26bf
00000030: 92c0 923d 1ee6 1e3e 0b94 f53e 565d 7abf
00000040: bdea df3e 0792 fe3e 1ede 50bf 6b76 053f
00000050: fe83 7dbf bc54 31be 941c 14bf 5462 13bf
00000060: f2f0 23bf 7733 9f3e 7d15 9b3d 726d 27bf
00000070: 0a49 1ebf 8e6d 52bf 4577 9cbe c2b6 0c3f

layers.2.weight f4 [16, 32]
2.1074393 0.9777223 -1.2901043 1.3065934 6.740655 0.3106222 -3.7810988 1.7998228
1.904036 -0.6999587 -2.3969789 0.60689586 1.2842879 -0.54891485 -1.31393 3.4520109
0.050386917 -3.100302 0.046805207 0.06195926 0.92931515 -4.9750066 0.30682147 20.952656
0.30971754 1.224186 1.8535812 6.398463 -2.552081 1.7106006 -2.0616827 -2.5368938
0.28962678 3.7059796 -0.36152375 2.5805635 0.25303903 -1.1607748 1.3606424 0.48164123
-2.2109249 -0.29704815 -2.9776757 -1.2464031 1.2078187 3.2172801 -0.3711917 -2.6756394
-1.1119671 -0.56830233 -1.3405186 0.60904306 -2.1889708 1.6600095 -0.36095062 0.4061297
-1.1495206 -0.33190143 0.5411447 0.9835353 -1.2519461 -3.0741115 -2.4537454 2.8754973
-2.067711 0.46705705 -0.6334719 -2.8164465 1.9390844 0.89164543 -0.59659684 0.015442769
-0.74126065 0.86319923 -2.6802855 -0.7687287 -0.37419987 1.5920918 -1.0225043 -2.538852
0.9407287 0.46456304 -3.7102935 1.2276696 -2.0887988 -1.2139019 -0.5649445 11.0936365
-2.816977 2.8840768 0.17702423 8.652248 -3.3765864 -1.0294197 0.5614553 0.1827833
1.1372775 -3.1673548 9.860414 4.9071693 -5.9054465 -6.9247756 -1.7378733 0.92456204
1.0915899 0.8986201 5.359983 2.730262 -2.4483361 0.5448883 1.8976915 4.8157125
1.9888237 -0.45265085 6.826596 -0.10246115 -0.08474906 7.4402285 1.2554907 -16.87726
-3.6322174 -0.5774675 -3.080059 -11.537559 2.873209 1.3886626 0.111266114 -1.5049645
1.6336685 -4.0763636 7.9347143 -0.7307379 -1.2070053 -5.3394494 8.212965 -0.2607167
0.34087414 -3.813479 4.66701 0.10996883 2.055672 1.0342584 3.3942163 3.253532
-4.009482 2.0287123 4.7061663 -2.2078984 -2.2350037 8.992447 2.0760882 -14.366541
-1.7963591 -2.2448332 -1.4572229 -11.0388155 1.7435149 -1.0709194 -0.5588408 1.820152
-1.0102345 -3.0552711 -1.1504177 -3.555754 11.5027685 10.857401 -2.7161765 -1.5568835
2.9438522 1.2499384 -2.4822924 1.4804459 0.053465046 1.0409571 -1.6752365 -3.3125756
0.24180906 0.6736296 -1.2474351 -0.42606848 3.4791646 0.7656676 3.2470932 15.086404
3.9964657 -0.7870294 3.862271 26.284418 1.4525073 -0.040888663 1.5472242 -1.4121817
-1.8289964 -0.34829107 -6.494181 -1.2395513 5.0562873 4.273364 3.1903265 -1.837297
0.94970685 3.6220706 -3.8856716 1.8190165 -1.7755271 -2.574181 -1.4247898 -4.997664
1.8738271 -0.18771091 -0.8838854 1.06222 -0.1009756 -2.49466 -1.9401495 11.701385
1.8271742 2.2426305 -0.8258656 10.61821 1.0935408 0.9564605 -0.54817843 -1.7272778
0.3299886 -0.84814197 -0.5686846 3.230385 1.6857046 10.09477 0.5742587 -0.0630219
3.880246 0.41201633 -0.08892725 2.2867017 0.11116624 0.34141082 -0.40689227 -0.36517575
0.25211948 -2.2984521 6.8586674 1.2026812 5.8955936 -1.6359093 3.5495646 9.132583
6.9531107 -0.7825211 -0.35197142 0.9068694 1.1568849 2.3916557 1.8060328 -0.18398018
00000000: 49e0 0640 024c 7a3f 2322 a5bf 743e a73f
00000010: 72b3 d740 df09 9f3e 86fd 71c0 9860 e63f
00000020: 74b7 f33f 7e30 33bf 1a68 19c0 875d 1b3f
00000030: 8c63 a43f af85 0cbf dc2e a8bf bfed 5c40
00000040: 8362 4e3d 596b 46c0 d1b6 3f3d fec8 7d3d
00000050: 99e7 6d3f 4133 9fc0 b417 9d3e 0a9f a741
00000060: 4c93 9e3e 20b2 9c3f 2642 ed3f 35c0 cc40
00000070: 4c55 23c0 f6f4 da3f 9cf2 03c0 785c 22c0
00000080: f649 943e c52e 6d40 a419 b9be f427 2540
00000090: 558e 813e 4594 94bf 8829 ae3f ae99 f63e
000000a0: cb7f 0dc0 b216 98be 3d92 3ec0 238a 9fbf
000000b0: ce99 9a3f ebe7 4d40 d70c bebe ad3d 2bc0
000000c0: f054 8ebf 437c 11bf 1d96 abbf 3fea 1b3f
000000d0: 1918 0cc0 317b d43f 85ce b8be 3bf0 cf3e
000000e0: 7e23 93bf fcee a9be 7688 0a3f f8c8 7b3f
000000f0: c53f a0bf 3ebe 44c0 2a0a 1dc0 2608 3840
00000100: 6155 04c0 1a22 ef3e 372b 22bf a940 34c0
00000110: eb33 f83f e042 643f 92ba 18bf ab03 7d3c
00000120: 42c3 3dbf a0fa 5c3f cc89 2bc0 67cb 44bf
00000130: 2097 bfbe aac9 cb3f 6ce1 82bf 8d7c 22c0
00000140: 99d3 703f 35db ed3e 7375 6dc0 4724 9d3f
00000150: e1ae 05c0 2361 9bbf 34a0 10bf 897f 3141
00000160: 5a49 34c0 b794 3840 d745 353e 9c6f 0a41
00000170: fe19 58c0 06c4 83bf 89bb 0f3f 8c2b 3b3e
00000180: 4f92 913f f1b5 4ac0 41c4 1d41 8807 9d40
00000190: 6bf9 bcc0 c397 ddc0 a272 debf 19b0 6c3f
000001a0: 38b9 8b3f f80b 663f fb84 ab40 9dbc 2e40
000001b0: 8ab1 1cc0 cd7d 0b3f 8ee7 f23f 511a 9a40
000001c0: c691 fe3f dac1 e7be 7973 da40 27d7 d1bd
000001d0: ea90 adbd 5a16 ee40 ebb3 a03f a104 87c1
000001e0: 4076 68c0 e9d4 13bf b01f 45c0 d799 38c1
000001f0: a8e2 3740 b2bf b13f 7ddf e33d ada2 c0bf
00000200: 0d1c d13f 9271 82c0 2ee9 fd40 a411 3bbf
00000210: 267f 9abf c5dc aac0 4e68 0341 a97c 85be
00000220: 0e87 ae3e 0a10 74c0 2558 9540 5737 e13d
00000230: 2190 0340 9462 843f d73a 5940 de39 5040
00000240: ad4d 80c0 6cd6 0140 ea98 9640 354e 0dc0
00000250: 4d0a 0fc0 10e1 0f41 a1de 0440 5add 65c1
00000260: 18ef e5bf 59ab 0fc0 4886 babf fd9e 30c1
00000270: 7f2b df3f e313 89bf 3110 0fbf befa e83f
00000280: 5d4f 81bf 9089 43c0 e340 93bf 7991 63c0
00000290: 570b 3841 eab7 2d41 d6d5 2dc0 f547 c7bf
000002a0: 1368 3c40 fbfd 9f3f e1dd 1ec0 407f bd3f
000002b0: 2afe 5a3d 153e 853f 266e d6bf 3d01 54c0
000002c0: cb9c 773e fd72 2c3f f4ab 9fbf a625 dabe
000002d0: a2aa 5e40 cb02 443f 60d0 4f40 e961 7141
000002e0: 18c6 7f40 c27a 49bf 732f 7740 7d46 d241
000002f0: c2eb b93f df7a 27bd 710b c63f 5fc2 b4bf
00000300: 8e1c eabf 3553 b2be 55d0 cfc0 9ea9 9ebf
00000310: 1bcd a140 66bf 8840 4f2e 4c40 8c2c ebbf
00000320: fd1f 733f 01d0 6740 d8ae 78c0 88d5 e83f
00000330: 7944 e3bf 62bf 24c0 835f b6bf ddec 9fc0
00000340: 91d9 ef3f 4a37 40be 5046 62bf d3f6 873f
00000350: 4ccc cebd 82a8 1fc0 d256 f8bf df38 3b41
00000360: d8e0 e93f 4287 0f40 ee6b 53bf 30e4 2941
00000370: 25f9 8b3f 98da 743f 6c55 0cbf 7017 ddbf
00000380: 44f4 a83e d51f 59bf 5095 11bf a1be 4e40
00000390: 2bc5 d73f 2e84 2141 9e02 133f a011 81bd
000003a0: f355 7840 cef3 d23e 7d1f b6bd 5259 1240
000003b0: 20ab e33d 66cd ae3e 2f54 d0be 51f8 babe
000003c0: ce15 813e d719 13c0 347a db40 75f1 993f
000003d0: b4a8 bc40 7a65 d1bf 112c 6340 0f1f 1241
000003e0: e27f de40 4e53 48bf 9935 b4be 9828 683f
000003f0: ce14 943f e310 1940 152c e73f 4d65 3cbe

layers.2.bias f4 [16]
-2.3278127 -1.2985615 -0.3018652 3.624014 3.347016 -1.2946929 -2.8407552 -0.8677001
4.082301 -1.4433476 -0.49018124 -1.4954771 -0.8340699 -2.4513788 0.20592625 -0.1416949
00000000: e2fa 14c0 4337 a6bf 138e 9abe d8ef 6740
00000010: 8335 5640 7fb8 a5bf efce 35c0 9821 5ebf
00000020: 36a2 8240 9dbf b8bf 09f9 fabe cb6b bfbf
00000030: 9b85 55bf 64e3 1cc0 55de 523e 7818 11be

layers.4.weight f4 [1, 16]
154.00146 148.35199 130.37148 -68.5743 -65.4638 138.00966 147.86615 136.18694
-54.96095 134.92375 135.50932 136.24152 140.87181 142.42674 -51.82322 139.39604
00000000: 6000 1a43 1c5a 1443 195f 0243 0b26 89c2
00000010: 77ed 82c2 7902 0a43 bcdd 1343 db2f 0843
00000020: 03d8 5bc2 7bec 0643 6382 0743 d43d 0843
00000030: 2fdf 0c43 3f6d 0e43 fa4a 4fc2 6365 0b43
