trained_models/CNN_fe/cnn_baseline.pth (torch, 39108 bytes, 18 tensors)

weight f4 [1, 242]
00000000: 7eec 7cbf 6a98 343d 394c 3c40 92c3 fb3f
00000010: 6b4f a33f f676 ef3f 2376 d93f c4c2 86bf
00000020: 7818 e13e d2cb 713e 9ff3 a03f e5f3 9f3f
00000030: f1cc 19be df89 90bf 57fe eebf 10c9 34c0
00000040: 0a35 ad3e 6b0b 30c0 625e 553f ba26 2bc0
00000050: 65d8 73be c511 e4bf 787c 633f 473e f73f
00000060: c561 0e40 90a1 c93f 53f8 0c40 9fa0 aa3f
00000070: fce8 ca3f b112 1340 faee 943f b66d 8d3f
00000080: 129f 8a3e 2e83 2ebf 4f8b 8fbf f2f6 f3bd
00000090: 0c58 9cbe bd63 8a3f 606a 0abf 6ccc 14bf
000000a0: 7da1 413c c7e1 e9bf 43fa bfbf 627d ccbf
000000b0: 3389 7bbd 0394 8ebf 7f3a ae3e c2d8 483f
000000c0: d825 58bf bc69 af3f 9f25 e7bf b94e 753f
000000d0: 990d a53f 4fd1 08bf d713 adbf 4a4a 9e3f
000000e0: d329 edbf aefc 67c0 2195 01c0 9fa1 00c0
000000f0: fc25 92bf 5ebe 48c0 f1d8 0d40 9cca 01c0
00000100: 0fd4 23c0 b786 8cbf 0f2e 86bf 4b41 96be
00000110: 9e00 2e40 2fd9 42c0 c652 3340 c3eb 163f
00000120: 04e9 2abf d868 45bf ec5c 0b40 b848 ad3e
00000130: 55c1 2840 2254 adbc 9eb6 4e3f c64c e7bf
00000140: c9a4 2bbf 85e4 42c0 6562 f73e e7c7 c3bf
00000150: c736 1b3f 18b0 c1bf fdcf f0bf c54e 85bf
00000160: ba48 debf e1b1 bd3f 1a98 e73f 7203 b1bf
00000170: b40d f53f a9d5 183f a269 103f 9f32 4d3f
00000180: cb4b d03f 7f80 5b3e d50e da3e b43d 8f3e
00000190: d46e fe3f b356 f5bf 29d4 1dbf e789 abbf
000001a0: 4d1b 443f c5c0 923f 092b f73f c030 a5bf
000001b0: 9f41 a3bf 0b9d f2be 46d5 0940 1b6a 34bf
000001c0: 3c4f 0240 857e a8be d6ca 2740 0416 923f
000001d0: 5e06 1340 8398 ab3e 1ffc e53f 9e92 f13f
000001e0: b221 76bf 2c6a 7ebf df43 943f a6ac bdbf
000001f0: 3529 b8bf 9c7f c93e c511 01c0 a34f a9be
00000200: f49b 1ac0 691d 91be 2a57 8dbf 4aa5 153f
00000210: ae31 60c0 142c 8240 4e89 0740 6b89 e9c0
00000220: 14e6 0d40 e348 24c0 c088 0abf ba56 c7bf
00000230: 607d 2ac0 8f61 0cc0 91a7 d940 ae02 a8c0
00000240: 9e40 35c0 6076 03c0 a49b d6c0 a001 bac0
00000250: 43b8 4ec0 bb43 00c1 74dd 00c0 48cf 9ec0
00000260: 41bb 21c0 f662 03c1 826d f2bf 5fda e3bf
00000270: 0c73 2740 1396 c2bf 3561 f23f eb96 973e
00000280: e202 c3be 6747 0e40 0807 fc3f 6664 973e
00000290: 7983 c33f 54ee 763e 96b2 cd3e 9b01 14bf
000002a0: d6b3 9c3f 7108 b5bf 40b6 023f 052e 2ebf
000002b0: ae28 6c3e 8e50 d5bf 31ef febf 3fb9 69bf
000002c0: 5a64 843f 0a5c 64bf afba e63f ccdc 0ac0
000002d0: b206 5a40 6105 40bf 1ba4 8e3e 429a 0940
000002e0: d458 0640 0888 813e 1190 e03d 941c 4b3f
000002f0: 190e be3f 46fa 7fc0 38f7 673f 6502 02c0
00000300: 2a1e 0540 3fed b53f e5d7 f13f 6417 f0bf
00000310: d907 70bd 4993 143f e8aa 503f cc3c ff3f
00000320: 2831 b6be 7ca9 203f 42c2 2540 f5c3 c4bb
00000330: 34a2 883f f2df 043f 5221 e93f 2546 403f
00000340: f44d 07c0 1f7a 863f a027 b040 1cae 3bbf
00000350: 9c8c af3b 8505 b340 91d2 41c0 2707 6840
00000360: 7b18 4ebe 72f2 0fc0 6d4a 0040 002b 1541
00000370: 39c1 f53e b217 453f 006e 603e be4f 1dbf
00000380: 715d fb3c 0840 dc3e 01d3 ffbe 1faa 83bf
00000390: 31b7 1f3f 8a0e 0b3f 7d97 8abf 78ca fcbe
000003a0: c6cd 003d 83ff a83f 0e62 a43f 88c9 a4be
000003b0: 9177 e7be f664 e53e d56b 18bf bfaa 27bd
000003c0: 72e7 173f e0d1 77bf
-0.9879836 0.044090666 2.9421523 1.9669058 1.2758611 1.8708179 1.6989177 -1.0528188
0.4396398 0.23612908 1.2574347 1.2496306 -0.15019585 -1.1292075 -1.8671368 -2.824772
0.33829528 -2.750697 0.8334714 -2.6742387 -0.23813017 -1.7817923 0.888618 1.931588
2.2247174 1.575243 2.2026565 1.3330268 1.5852351 2.2980158 1.163543 1.1049106
0.27074486 -0.68168914 -1.1214389 -0.119123355 -0.30535924 1.0811688 -0.54068565 -0.58124423
0.011818287 -1.8272027 -1.4998249 -1.5975764 -0.06141014 -1.113892 0.34029004 0.78455746
-0.84432745 1.3704143 -1.8058356 0.95823246 1.2894775 -0.5344438 -1.352168 1.2366421
-1.8528389 -3.6247973 -2.024727 -2.0098646 -1.1417842 -3.136619 2.216366 -2.0279913
-2.559818 -1.0978612 -1.0482806 -0.2934669 2.7187877 -3.0445058 2.801927 0.58953494
-0.66761804 -0.77113104 2.1775465 0.33844543 2.6368 -0.021158282 0.807474 -1.8070304
-0.6704832 -3.0451977 0.48317257 -1.529538 0.6063046 -1.5131865 -1.8813473 -1.0414664
-1.7365944 1.4819909 1.8093293 -1.3829176 1.9144807 0.5970102 0.5641118 0.80155367
1.627313 0.21435736 0.4258944 0.27976763 1.9877572 -1.9167084 -0.61651856 -1.340146
0.7660416 1.1465079 1.9310008 -1.2905502 -1.2754401 -0.4738544 2.1536422 -0.70474404
2.036086 -0.32909027 2.6217551 1.1412969 2.2972636 0.33514795 1.7967566 1.8872869
-0.96145165 -0.99380755 1.1583213 -1.4818313 -1.4387575 0.3935517 -2.0167096 -0.3306857
-2.4157686 -0.2834275 -1.1042225 0.58455336 -3.5030322 4.0678806 2.1177554 -7.2980247
2.2171679 -2.5669487 -0.54114914 -1.5573342 -2.6639023 -2.1934545 6.801705 -5.250327
-2.832069 -2.0541 -6.706499 -5.8126984 -3.2299964 -8.016536 -2.0135164 -4.962803
-2.527054 -8.21166 -1.8939669 -1.7801017 2.616397 -1.5202049 1.8935915 0.2960733
-0.38088137 2.223108 1.9689646 0.29568785 1.5274497 0.24114352 0.40175313 -0.5781495
1.2242382 -1.4143201 0.5105934 -0.6803897 0.23062393 -1.6665208 -1.9916745 -0.9129829
1.0343125 -0.8920294 1.8025721 -2.1697264 3.4066586 -0.7500821 0.27859578 2.1500401
2.0991716 0.25299096 0.109649785 0.7934048 1.4848052 -3.9996505 0.906116 -2.0313962
2.079966 1.4213027 1.8894011 -1.8757138 -0.058601234 0.5803724 0.8151078 1.9940429
-0.35584378 0.6275861 2.5899816 -0.006004805 1.06745 0.51904213 1.8213294 0.7510703
-2.114133 1.0506018 5.504837 -0.73312545 0.005357338 5.594424 -3.028477 3.6254365
-0.20126526 -2.2491727 2.0045426 9.322998 0.4799898 0.7698928 0.21916962 -0.614498
0.030684205 0.43017602 -0.4996567 -1.0286292 0.623889 0.5431906 -1.082748 -0.4937322
0.03144624 1.3202976 1.2842424 -0.32185006 -0.4520841 0.4480359 -0.5953954 -0.04093432
0.5933753 -0.9680462

conv1.weight f4 [8, 1, 22]
00000000: bccb b93e 03b4 e5be 593d 9e3f 89b0 82be
00000010: 517a 663f da25 6c3e edf9 453e 1a59 8a3e
00000020: d24e 2bbf 4f66 1a3e 8bc9 d3be 23ac 1dbf
00000030: 40f4 1cbf 86f3 bdbe 3065 59be 6d61 14bf
00000040: 3fa6 32be de03 6ebe 7be7 2abc d346 243e
00000050: ce30 24bf 7b79 bfbe 1e43 27bf 691c 773f
00000060: 6b1c abbe de41 533f e1ca 203d 60c9 1c3f
00000070: 2d3e 1d3e 21cd fd3d ea66 17bd 3606 91be
00000080: eaec ad3e 3476 13bf b1f3 0f3e cb56 48bf
00000090: 7f1b 04be 16c6 e2be 8619 e9be e0c0 b2be
000000a0: f594 9dbc 7b0b 0ebf 99dc 20be 60b2 b63b
000000b0: b123 36bf 6ab1 a43e 1b6a 34bf e5ef 1e3f
000000c0: a3e1 a3be 59ca 543f b12a b73e bcc0 e03c
000000d0: 8c3d d53f df89 7fbe 92ab 7b3f d3ab 7a3e
000000e0: 418b fc3e cf2f 1dbf a7ef 40bd 759d 2cbf
000000f0: aa11 24bf a153 26bf aa53 75bf 9bda adbd
00000100: d2e3 a1be b197 f8be 21ac 43bf e1bd ba3d
00000110: 829d 813b a4c4 393e 973a 2dbf 3b80 083f
00000120: 2e30 333e 14d5 f73e cd7a 943e fcfb 8c3f
00000130: b001 343f 19a9 90be e0f6 a03e 84c1 dfbe
00000140: 9c83 023f 463c b1bf 7c79 ccbd 3e2d 76bf
00000150: 6dd8 0cbf 2cbb 91bf d49b 15bf 36e0 3dbf
00000160: ca3e 61be bb55 1d3f f046 163f d2e0 dc3e
00000170: 68d1 c63e a001 5b3e 136a 4bbe 4efd ba3e
00000180: eee7 503d 7373 96be 66f3 a8be baaf 6cbf
00000190: fe27 13bf 4df8 a4bf 58be 983e 1438 cfbe
000001a0: 6c24 0e3e 8d52 8abe bfb7 453e da0f b0be
000001b0: bf31 febd d9bc fc3e 1c41 9a3d ee5b b7bd
000001c0: 80cf 533d eb58 853e 13a3 813e cd64 9f3d
000001d0: 3e88 803f d85c 863e dc90 213e b530 ce3e
000001e0: 6f87 2c39 f9ea c03e 311a e9be 8c44 e53e
000001f0: 0f86 2bbe eff1 dfbe 091d aebe 73cf 06bf
00000200: 2b7f 6bbf fcbb a8be 0d3b d1bd c57e 3ebe
00000210: 7025 bf3e 0df4 0f37 9757 0d3f 76c3 56be
00000220: 659a 20be 5a70 523f d21d ebbe 7058 553f
00000230: 3827 3f3e c2b8 f63d 7afc 14be 49f9 debe
00000240: 3c52 18bf 79d2 76be bd92 00bf 92a8 c03d
00000250: 89d0 bcbe ef69 c6bd f3a5 b53e 4a39 a5be
00000260: a054 333f 9d32 04bf 079d 003d 93b9 1abf
00000270: cedc b03e 5488 3bbf 26c1 0c3f efaf 3f3d
00000280: 77fb 41be 8093 133f 7bb5 ddbe 0d12 94bf
00000290: 0720 63bd 41c6 78bf 4c5d 98be b018 ba3e
000002a0: 1396 30be bc87 dcbc 97ce 87bd b877 023f
000002b0: b394 52bf dc9f d43e 080c 983d 265c 563e
0.3628825 -0.448639 1.2362472 -0.2552531 0.9003039 0.23061314 0.1933362 0.27021104
-0.66917145 0.1507809 -0.41364703 -0.61590785 -0.61310196 -0.37099856 -0.21230006 -0.5796116
-0.1744623 -0.23243663 -0.010431166 0.16042642 -0.6413697 -0.3739737 -0.6533679 0.96527725
-0.3342012 0.8252238 0.03925598 0.61244774 0.1535575 0.12392641 -0.03696338 -0.2832505
0.33969814 -0.5760224 0.14057805 -0.78257436 -0.12901114 -0.44291753 -0.45527285 -0.34912777
-0.019236067 -0.5548627 -0.15709151 0.005575463 -0.7114821 0.32166606 -0.70474404 0.620848
-0.32008085 0.8312126 0.35774758 0.027435653 1.6659408 -0.24954937 0.9830867 0.24479608
0.49324992 -0.61401075 -0.04710355 -0.6742776 -0.64089453 -0.6497136 -0.95830786 -0.08488961
-0.31619126 -0.4855323 -0.7643452 0.09118248 0.003955544 0.18141419 -0.67667526 0.53320664
0.17498848 0.48404753 0.2899994 1.10144 0.70315075 -0.2825401 0.3143835 -0.43702328
0.5098207 -1.3846519 -0.09984109 -0.96162784 -0.5501774 -1.1385245 -0.584409 -0.74170244
-0.21996608 0.6145894 0.5870199 0.43140274 0.3883164 0.21387339 -0.19864683 0.3652138
0.051002435 -0.29384956 -0.32998198 -0.9245564 -0.574829 -1.2888275 0.2983272 -0.40472472
0.13881081 -0.27016106 0.19308375 -0.34387094 -0.12411832 0.4936283 0.0753195 -0.08953081
0.05171156 0.26044402 0.25319728 0.07782898 1.0041578 0.2624271 0.15777916 0.40271536
0.00016453651 0.3767927 -0.45527795 0.4477886 -0.16750358 -0.43739268 -0.34006527 -0.5266029
-0.9199092 -0.3295592 -0.10216341 -0.18603046 0.3733325 8.580287e-06 0.55211776 -0.20973
-0.15683897 0.82202685 -0.4592119 0.8333807 0.18667305 0.120469585 -0.14549437 -0.43549564
-0.5950048 -0.24103726 -0.50223905 0.09407152 -0.3687785 -0.09688174 0.35478172 -0.3227027
0.70051 -0.5163973 0.031399753 -0.60439414 0.3454346 -0.73254895 0.5498222 0.046798643
-0.18943582 0.5764694 -0.4330252 -1.1568009 -0.055450466 -0.9717751 -0.2975868 0.3634696
-0.17244749 -0.026920192 -0.06631201 0.50963926 -0.82258147 0.41528213 0.0742417 0.2093359

conv1.bias f4 [8]
00000000: ab56 833f 16aa 8cbf 5b61 123f 2a08 bb3e
00000010: 76c5 d53e 8ceb b6bf 6894 ba3f 81c9 2040
1.0260824 -1.0989406 0.571798 0.36529666 0.41752213 -1.4290633 1.457654 2.5122988

conv2.weight f4 [16, 8, 3]
00000000: 3b5f 733f a2d0 44bf dea5 8c3f 3664 883f
00000010: 7f5c 37c0 90a8 dd3e c470 b03f 1e9a 4ebf
00000020: ba77 413e 77b0 1e3f deea 44bf 7a55 11bf
00000030: daf8 483f 7398 4bbf 4a99 993f 84a8 c93e
00000040: 1f9c 113f 9fed 05be 9685 75bf 37eb d6bf
00000050: 9215 91bf f29b ef3e 0e8e 89bf ae67 fa3e
00000060: 7605 81bf caf0 303e c0e0 b8be b6c9 02bf
00000070: b06c 733f 14bd ddbf 90ad a2bf 9bc8 6e3f
00000080: f014 6cbf 2fe5 61bf 7fab 0640 2aab d0be
00000090: 9cb0 c3be 78ec 7d3f 7ae0 51be 422a 3d3f
000000a0: 8409 d63f 4abe 0dbf bbc5 413f 8042 09bf
000000b0: c9cd c13f d939 82bb e059 a73f 3b0c 3fbf
000000c0: 97dc 02bf 1307 78bf 6328 5ebf 14a4 bbbf
000000d0: 5354 ff40 24e1 5cbf 7c50 14bf 13c7 3f3f
000000e0: 9fc0 ecbe 53d1 583e eeb2 ce40 5ee0 233f
000000f0: dbfe 553e f770 913e b711 b03f 23e1 0d3f
00000100: 102a 623f c04f ee3f 114d 03be d18d 80bf
00000110: bc88 033f f42e cc3e 2ef0 0940 8c75 b4bf
00000120: c6fb 95bf ce46 93bf a0e5 c4be 2885 c5bd
00000130: 9fc1 933f bb71 bb3f bdac 81be 3c3b 6ebf
00000140: f0fd 113f 2786 6fbe 095d 07bf 4760 373f
00000150: ce2b 03bf 513a 053e 37b1 ec3d 31e2 e83e
00000160: 7554 72c0 7cbc 123f d89b cc3d d39f 1bc0
00000170: 9d85 4c3f af6d 8abe 3a0f 823f 6422 8abf
00000180: 9c1e 46bf 2bc1 00c0 b16e 47bf 9ff7 b73f
00000190: f549 8140 d385 81bf 2f27 853e b714 a53f
000001a0: e6da 6cbf 81ef 00bf ba02 ef3e 0129 02bf
000001b0: 54d7 9f3e 7f8b 30bf 1a6a d5be 8bd0 cf3f
000001c0: 8f46 9cbf 611d 8c3e 7e62 d43f b2d8 e6bf
000001d0: 85a4 fcbd 58a5 bdbd a94c 6e3f 6cdb 49bf
000001e0: 0292 f33f 9eb5 c4bf 61a4 9b3f 6af2 ecbe
000001f0: 41d1 29bf f477 d6bd 345e 12bf 61c7 9a3f
00000200: 4c2a ad3e fd67 9d3f 3f00 44be 0e66 bc3f
00000210: 0641 903e a9c6 0ebf 8439 833f 8d90 303f
00000220: fce9 2bbf 734a a6bf 608c 2ec0 bc6d a2be
00000230: e621 91bf c7e0 b83e d193 2bc0 e6ed 86be
00000240: 8834 50be c2ab 1bbf 5820 e43e 1583 40bf
00000250: de42 9a3f 5dd7 30bf 620f bebe 47e6 eabc
00000260: f58f f53e eb66 bc3f 5c83 f33e 4d0b 083e
00000270: 8631 383f bfc6 72c0 5253 7a3e d425 68bd
00000280: acd9 80c0 1c7b b63f 5629 63bf b406 5140
00000290: 8d02 3cc0 ef17 f4bd 38e6 cbbf a065 7f3f
000002a0: 7ca4 263f 3dea d83f a035 14bf cf8b b73f
000002b0: 9dde 07c0 8c7a bd3f c5a8 b13e 7064 59bf
000002c0: 0a80 f93b 7b39 953e fd45 a6bf 0122 203e
000002d0: 5cc6 ad3e 87ac ff3f 9394 3e3f cc4e 85be
000002e0: 4a93 cfbf 6b52 e93e c762 e7bf 056d 0b40
000002f0: e51e a0bf 84c2 7cbf 1881 a3bf 47f6 aebf
00000300: 3e89 013f d31a 6c3e 246f b93e affd 2d3f
00000310: 1758 54bf 2d44 9f3e 1e12 ea3f 4f75 66bf
00000320: 1fac 0abe d2f7 363f 49cf f23f 0e1c 57be
00000330: 1da6 7a3f 2968 603f 52c8 37be 29ac 1bc0
00000340: 6f20 47c0 4945 f9bf 6214 01c0 cda4 1840
00000350: 6029 d1bf e675 393f 5b5e e2bf acd1 cd3f
00000360: 65d4 103f 7e9b 99be 5442 123f a92c 0e3e
00000370: 8a5c 63c0 35c5 01c0 a04e 013f cd8d 1f40
00000380: 0129 56bf e0e3 b93f 24a9 05c0 3200 683e
00000390: 5105 393f b274 103e 216d a3be 31f3 56bf
000003a0: 2f03 37c0 955e cbbf ea72 23bf f9f7 1040
000003b0: 3aec d1bd 9c13 f13e 2c94 a6bf d301 cc3e
000003c0: ac06 ea3e ace2 8e3d 5247 a83f 7faf 4bbf
000003d0: 5d0c 86c0 3e23 4c3f 5c57 333f d060 79bf
000003e0: 4ecc d4be 7e91 ad3f 458b 6bbf ed99 1fbf
000003f0: 8c5e 15be 71ef e2bf 4654 973f f581 cbbf
0.95067185 -0.7688085 1.0988119 1.0655582 -2.8650205 0.43292665 1.3784413 -0.80703914
0.18893328 0.61988014 -0.7692088 -0.5677105 0.7850472 -0.79529494 1.1999905 0.3938638
0.56878847 -0.13078927 -0.9590696 -1.6790532 -1.1334708 0.46798664 -1.0746477 0.48907226
-1.0079792 0.17279354 -0.3610897 -0.51089036 0.9508772 -1.7323327 -1.2709217 0.9327485
-0.9221945 -0.8824033 2.1042173 -0.40755588 -0.3822068 0.9918895 -0.20495787 0.73892605
1.6721654 -0.55368483 0.7569234 -0.53617096 1.5140926 -0.003974181 1.3074303 -0.7462804
-0.51117843 -0.96885794 -0.86780375 -1.4659448 7.9790435 -0.8628104 -0.5793531 0.7491314
-0.46240708 0.21173601 6.459342 0.6401423 0.20898001 0.28406498 1.3755406 0.55421656
0.8834543 1.8618088 -0.12822367 -1.0043279 0.51380515 0.39879572 2.1552844 -1.4098372
-1.171746 -1.1505983 -0.3845644 -0.09644538 1.1543463 1.4644083 -0.253271 -0.93059134
0.570281 -0.23391019 -0.52876335 0.7163128 -0.51238716 0.13010527 0.115572385 0.4548507
-3.7864048 0.57318854 0.09990662 -2.43163 0.7989138 -0.27036807 1.0160897 -1.0791745
-0.77390456 -2.01179 -0.77903277 1.4372443 4.040278 -1.0118965 0.26006457 1.2896947
-0.9252151 -0.50365454 0.46681768 -0.50843817 0.3121897 -0.68962854 -0.41682512 1.6235517
-1.2209033 0.27366164 1.6592557 -1.803488 -0.12336067 -0.092600524 0.93085724 -0.78850436
1.9028933 -1.5367925 1.215954 -0.46278697 -0.6633492 -0.10472098 -0.5717499 1.2092096
0.33821332 1.229736 -0.19140719 1.4718645 0.2817461 -0.5577188 1.0251927 0.68970567
-0.67153907 -1.299147 -2.7273178 -0.31724346 -1.133847 0.36108992 -2.680897 -0.26353377
-0.20332539 -0.60808957 0.44555926 -0.75200015 1.2051656 -0.6907862 -0.3712111 -0.028674258
0.47961393 1.4718908 0.47561157 0.13285561 0.71950567 -3.7933805 0.24445847 -0.0566767
-4.0265713 1.425632 -0.8873495 3.2660341 -2.9376557 -0.119186275 -1.5929632 0.9976444
0.65094733 1.6946484 -0.57894325 1.4339541 -2.1229622 1.4803023 0.34699073 -0.8491888
0.0076141404 0.29145417 -1.2990109 0.15637971 0.339404 1.9974526 0.74445456 -0.2603668
-1.6216824 0.45570692 -1.807702 2.178529 -1.2509428 -0.9873431 -1.2773771 -1.3668908
0.5060004 0.23057108 0.36217606 0.67965215 -0.82946914 0.31106701 1.8286779 -0.9002275
-0.13542221 0.71471894 1.8969508 -0.21006796 0.9790972 0.87658936 -0.1794751 -2.4323828
-3.1113546 -1.9474269 -2.016869 2.3850586 -1.6340752 0.72445524 -1.7685045 1.6079612
0.5657409 -0.30001444 0.5713246 0.13884224 -3.5525231 -2.0276616 0.505106 2.4930298
-0.83656317 1.4522667 -2.0884485 0.22656325 0.7227374 0.14107016 -0.31919196 -0.8396483
-2.8595693 -1.5888239 -0.6384722 2.265135 -0.10250135 0.47085273 -1.3013968 0.39845142
0.45708215 0.06976828 1.3146765 -0.7956466 -4.189009 0.79741275 0.70055175 -0.9741335
-0.41562122 1.3560026 -0.92009383 -0.6234425 -0.14586848 -1.7729322 1.1822593 -1.5899035

conv2.bias f4 [16]
00000000: 037f 3cbf 6e46 203f 06b3 70be 98ce bebe
00000010: d097 733e e76b e8be 2d93 59bf a97a 32bf
00000020: 379d 0cc0 e9f2 c6bf eb96 80bf 66bb 483f
00000030: 8df9 74bf cb76 813e 8fc8 c1bf 25c8 3e3c
-0.73631305 0.6260747 -0.23505792 -0.37266994 0.2378838 -0.45394823 -0.849902 -0.69718415
-2.1970956 -1.554288 -1.0046057 0.7841095 -0.95693284 0.25285944 -1.5139331 0.011644398

conv3.weight f4 [32, 16, 3]
00000000: e7b0 90bf 14c1 0a3f 1ad7 9abf a5ab 413f
00000010: 6ef1 3bbf 4e6c 07bf c59a 9cbf df6f 89bf
00000020: 14d9 26be c6a0 4140 39bf 28bf 2a31 a13e
00000030: 3c7c 8abf 3c89 c83e f716 873f a3b0 a3bf
00000040: 3361 2a40 6c2c ffbf 8651 bf3f 8145 6c40
00000050: 7884 0cbf 33d4 4fc0 4802 a4bd 48d3 76bf
00000060: a75a 393f c36f 1c40 fc37 423f ee3d 223f
00000070: 254a bf3f 08b1 843f b8e5 863e 6780 5340
00000080: af0d fcbe 52bc 9040 6b6a b940 21e8 a840
00000090: aed9 3d3f d699 98bf 6c02 05c0 a093 95bf
000000a0: 62cd 0040 ec04 67bf f719 863f 40d9 cdbe
000000b0: 26a6 c23e ea49 afbf 6a50 6bbf 9205 31bf
000000c0: 1ffe b13f c1cc 953f 61f4 213f bce6 c9c0
000000d0: e955 42c0 4d69 093f 8f4f f3be f0b9 22c0
000000e0: b297 d4bf ab7c a1bf 814d 59bf 9027 94c0
000000f0: ebdb b1bf 5d84 26c0 aa01 3fc0 44a5 c3bf
00000100: a159 563f 1486 2bbe 8cdd 9ebc dd8d 5740
00000110: c2dc 803f 3713 1cc0 2e34 7c3f 4808 a0be
00000120: b3d7 31bf 2802 0240 80c6 d43d 2509 d9bf
00000130: c776 6440 0a56 3b3f 65d1 cb3f 4b2d b33f
00000140: 0995 9d3f 1144 c93e f608 6dc0 ac1b 4ac0
00000150: 264d 68bd 843b 413f cb33 babf 2467 0dbf
00000160: e356 963f 185f 713f bb23 0140 0907 453f
00000170: 7acd 8e3f 459c 00be 3097 6bbf 10cb 0540
00000180: 9267 1940 1945 0440 e26c 02c0 5639 83bf
00000190: b4da f8bf 1a4b 3d3f 72b3 57bf c5a6 90bf
000001a0: 9ce0 a73f 3b19 e7be 7113 2fbf a06e e5be
000001b0: e66e 453f c1c8 bfbe 7387 52bf 0ecd 1a40
000001c0: 9de7 12bf 6f7a b5bf 5c7e 89bf ccdf 49be
000001d0: 434d 07c0 7c09 01c0 acdb 7abd 6bf4 ac3e
000001e0: 22e0 09c0 6698 3440 3947 dabf b2dd 50bf
000001f0: 2512 0840 9bd4 173f e4ab cb3f f8fa d33f
00000200: 4a01 9abf 0313 eebf 326b 39bf 8b8b d6bf
00000210: e249 5a40 323a 4a3f 5906 f33e decb c83f
00000220: 454e 69c0 e52e 84bf 5136 6e3f d155 9f3f
00000230: 7cc1 1cc0 2dc4 163f 94fc 383e 9ca1 61bf
00000240: c8f5 ea3f 5419 d5bf 7b44 533f 1945 913f
00000250: b026 03c0 a05e 0bc0 0b65 ebbf b01f abbe
00000260: 011b 12bf 8d1e 13bf bca1 24be 2eaa cdbf
00000270: c7a0 10bf 2e81 00c0 7764 143f 1611 8b3f
00000280: cb1e 783e fff6 383c 032c bebe 3606 7540
00000290: c94c b03f 2a4d fcbe 802f 7a3f 5cc2 42c0
000002a0: bba3 03c0 aa40 e73f 6a44 c6be 2f32 5fbf
000002b0: 91c0 febf 005a 37bc 99b4 7cbd aa95 853f
000002c0: 58ff 70bf 7b01 203f 412e 83bf ea91 cb3f
000002d0: 563f 4c40 1780 0dc0 9d0c 3cbe 662e 2d40
000002e0: 3c51 97be d805 a93f 861a 93be 1a11 fe3f
000002f0: e626 613d 8459 0cbf 65e6 bd3f 9249 0ac0
00000300: f5b0 873f 2bac 48bf 57b1 b03f 015b fbbf
00000310: f1c4 6dbf 8160 c5be 949e b7bf 803e b6bf
00000320: ae46 c0bf 23ff 37be 406a 70be 51af 1cc0
00000330: 9c16 62bf f33e f6bf ede1 1dbf 00ad 9c3f
00000340: e6c2 2c3e 0bec 95bc 6db8 1b3f abd7 323f
00000350: d258 f63f c979 6cc0 6753 6fbd d59e 66bf
00000360: 7d33 08bf 23d4 5840 f995 a03f f56c b63e
00000370: 6d01 0fc0 118c a73f 189d 213f 5db2 e83e
00000380: c8b6 44bf 3c01 263f 7f9b 8bbf ab1f c03f
00000390: ae4b 30bf 944e 9abf eb35 e53f 891d 153e
000003a0: db07 873f 8eb4 c03f 3f2d d33f f4b6 193f
000003b0: 771e 293f dc81 7fc0 54ae a63f ac26 3dbf
000003c0: 9095 ee3f a0f0 35bf 327b 64be 7236 243f
000003d0: 55c9 41c0 f1c5 d2bf bd8b f1bf 23d8 4b3f
000003e0: e2f3 1fbf 8a34 40be cd91 98c0 f0d6 1abd
000003f0: 3d58 ec3d 2c95 d03e 10a0 84bf b26d 0640
-1.1303986 0.54200864 -1.2096894 0.75652534 -0.7341527 -0.52899635 -1.2234732 -1.0737265
-0.16293746 3.0254378 -0.6591678 0.31482822 -1.0819163 0.39167202 1.0553883 -1.278828
2.6621826 -1.9935431 1.4946754 3.6917422 -0.5488963 -3.2473266 -0.080082476 -0.9641614
0.7240395 2.4443214 0.75866675 0.6337575 1.4944502 1.0366526 0.26347136 3.304712
-0.4922919 4.5229883 5.7942405 5.278336 0.7416028 -1.1921947 -2.0782728 -1.1685677
2.0125356 -0.90241885 1.0476674 -0.4020481 0.38017386 -1.3694432 -0.9191958 -0.69149125
1.3905677 1.1703111 0.6326352 -6.309416 -3.0364935 0.536763 -0.47521636 -2.5425987
-1.6608794 -1.2616171 -0.84883887 -4.6298294 -1.3895239 -2.6018288 -2.9844766 -1.528481
0.8373051 -0.16750365 -0.019392751 3.3680336 1.006737 -2.4386728 0.9851712 -0.31256318
-0.69469756 2.0313816 0.10389423 -1.6955916 3.5697496 0.7317816 1.5923277 1.3998197
1.2311107 0.39309743 -3.703672 -3.157939 -0.0567142 0.7548144 -1.4547056 -0.55235505
1.1745266 0.94285727 2.0178058 0.7696386 1.1156456 -0.12559612 -0.9202757 2.090519
2.3969464 2.0667174 -2.0378957 -1.0251873 -1.9441743 0.7394272 -0.84258187 -1.1300894
1.311542 -0.45136437 -0.6838904 -0.44810963 0.7712234 -0.3745785 -0.8223793 2.4187655
-0.57384664 -1.4177989 -1.0741687 -0.19714278 -2.1140907 -2.0162039 -0.06124465 0.33780226
-2.154305 2.8218017 -1.7052985 -0.8158828 2.1261075 0.59308785 1.5911832 1.6560965
-1.2031643 -1.8599552 -0.7242919 -1.6761335 3.4107594 0.7899505 0.4746578 1.5687215
-3.6454022 -1.0326811 0.9305163 1.2448064 -2.4493093 0.5889309 0.18065101 -0.8813722
1.8356256 -1.6648355 0.8252637 1.1349212 -2.0492363 -2.1776505 -1.8390211 -0.33422613
-0.57072455 -0.5746849 -0.16077322 -1.606756 -0.56495327 -2.0078845 0.579658 1.0864589
0.24230497 0.011289357 -0.37142953 3.828504 1.3773433 -0.49277622 0.9772873 -3.0431128
-2.0568683 1.8066609 -0.3872407 -0.8718595 -1.9902517 -0.011190891 -0.06169567 1.0436299
-0.94139624 0.6250226 -1.024849 1.5903904 3.1913657 -2.210943 -0.18364187 2.705957
-0.29554164 1.3204908 -0.28731173 1.9848969 0.054968737 -0.5482409 1.4835936 -2.1607404
1.0600878 -0.7838771 1.380412 -1.9637147 -0.92878634 -0.3855019 -1.4345269 -1.4237823
-1.502157 -0.1796842 -0.23478031 -2.4482005 -0.8831575 -1.923796 -0.6167286 1.2240295
0.16871223 -0.01830103 0.60828286 0.69860333 1.9245856 -3.6949332 -0.058429148 -0.9008611
-0.53203565 3.3879478 1.2545768 0.35630003 -2.234462 1.308962 0.6313033 0.4544858
-0.768414 0.64845634 -1.0906829 1.5009664 -0.6886548 -1.205523 1.790708 0.14562048
1.0549272 1.5055101 1.6498183 0.6004479 0.6606211 -3.992301 1.3021951 -0.73887134
1.8639393 -0.7107029 -0.2231262 0.64145577 -3.0279133 -1.6466657 -1.887077 0.79626673
-0.6248151 -0.18770042 -4.767798 -0.037802637 0.115402676 0.4073881 -1.0361347 2.1004453

conv3.bias f4 [32]
00000000: 5d9b 3ebf fa86 2dbf d50b debe 078c a0bf
00000010: 754a 80bf e286 cfbf 74c5 2e3e 60eb 01be
00000020: cb83 0d3f d111 c4be 4382 37bf b484 7cbf
00000030: 3ca4 80be 0b4c 8bbf 140f 89bf 01a1 7abf
00000040: 7d68 043f 2cad 91bf ebd3 e1bf ef7f e9be
00000050: 4eb1 efbe 94ce 2b3f d0e6 67bf 0847 16bf
00000060: 0ef3 9fbf 8d69 babd 8212 7abf fad9 eebf
00000070: c32b 1dbf c135 c2be 7440 2f3b 6c85 aabf
-0.74455816 -0.6778408 -0.43368402 -1.2542733 -1.0022722 -1.6213038 0.1706751 -0.12687445
0.55279225 -0.38294843 -0.7168314 -0.9863999 -0.251253 -1.0882581 -1.0707726 -0.9790192
0.51721936 -1.1380973 -1.7642797 -0.45605418 -0.4681496 0.6711209 -0.90586567 -0.58702135
-1.249605 -0.091021635 -0.9768449 -1.8660271 -0.613949 -0.37931636 0.0026741298 -1.3321967

conv4.weight f4 [64, 32, 3]
00000000: c185 13c1 3b40 573e 148d 83bf de5e fbc0
00000010: 4323 1c3f 6cde 7840 378e 8cbf 3ada 2fbe
00000020: 5e0f 573e 4216 d03f e0cf e73e 8fa9 633e
00000030: 7000 5940 db42 53bf 26a4 b13e eba0 39c0
00000040: c065 b6bf c990 d23f 97f6 d03e bdc3 49c0
00000050: dcb0 c43f bb4b 6abf d80c f9bf 4f81 103f
00000060: c93d 853f c93a d1bf 13e1 a6bf bd59 fec0
00000070: a364 663e 24ca 9840 565a 5840 260d 82bf
00000080: 10ca 553f d480 1a40 43a6 213f 8b4a e3be
00000090: dceb de3e 56d2 8fbf 5577 103f 074d e640
000000a0: 531a 22c0 86ce 913f bfd1 7541 f6bf 7e3f
000000b0: 0ee4 c640 9ad9 3b3f a704 2fbf cef7 f2be
000000c0: 15b1 963e 266a acbe d6c5 443c a617 a83f
000000d0: c273 90bf 19fb 513f fdaa 2640 1a5c 833f
000000e0: b3a0 8fbf ebb8 9440 e4b1 42c0 1de7 263f
000000f0: c4d7 f3bf c1b9 ffbf 0376 8bbd f7d2 e23e
00000100: 4960 2b3e ab40 23bf 6bef 1240 7e50 3bbf
00000110: f2c2 043f 805a 44bf 6a9b 003f 2a04 5b40
00000120: 8566 8740 1fba 40bf 710e ecbf f0af 8cc0
00000130: 6406 d13e 3080 a240 7be3 b6be d49e eabf
00000140: d6b7 4a3e 3faa 2641 8f63 a23f 5b74 b2be
00000150: 1114 1fc0 43bb 2d3f 194c 85c0 a114 b83f
00000160: 2ba9 4a3e bed9 7941 4380 bcbf 8659 493f
00000170: c45e b6bf 8f98 b4c0 fa50 4b40 f01b 393f
00000180: d803 ddbf f4c5 a5be c4d7 96bf c15e c7be
00000190: 64ba 3e3e ae0f e93f e7fe 8b3d 5852 7bbf
000001a0: 00b4 943f 7ac0 dd3f ff20 34bf 66eb f53e
000001b0: 0562 c2bd e951 24bd 4d9c 67be e962 5640
000001c0: 39be c3be b317 8dbf 12c7 28bf 2016 0ebf
000001d0: 8077 6bbe 2c5a 5c40 8355 973e 7af4 c13f
000001e0: fc56 5d3f 5de6 96bf 6b98 5a3f 86cc 2bc0
000001f0: f025 3f3f dc69 7740 4bef 893f 0b3b d9be
00000200: 9cda 2a3f 90c0 e9be d834 1ebf 1379 0f3e
00000210: 9ffe b93e 98dd 00bf 7f8a bc3f 2199 8f40
00000220: 9ce1 27bf 8b57 043e a3eb 16be 3795 9ebf
00000230: 3b52 38bf 51e6 81bf ace4 fbbf 31ce 313f
00000240: c297 23bf 2819 a1be bf5f 10be 0797 6d3f
00000250: 5781 133f 7f26 58bf 07c1 d63f f727 c6bf
00000260: 306a eabf e809 ef3f 73fe b23f fbd1 c13e
00000270: f1ca c3be 4d95 23c0 79b0 163f 7b76 ddbe
00000280: 4f12 aebe 44aa 7c3e 9d84 2840 9b54 a4bf
00000290: 360f 48bf dc20 6c3f df01 3dbf ea61 9abf
000002a0: 506a b8bf c97c 533f 9edd fd40 15e6 2b40
000002b0: 42e1 3cbf f694 6f3e 6c17 c0be df31 2b3f
000002c0: 374b 85bf caa8 b8bf ed25 6a3f 27d1 e8be
000002d0: bbfa b8be 8527 1cbf c94a bb3f 7b7f a040
000002e0: 9439 823f 6707 3f3f c73b 443f 0317 013f
000002f0: e7c9 2abf b86a 983f 912c 9fbe a368 33bf
00000300: 7af1 6fc0 6463 f73e 4a29 9d3f 798c a8bf
00000310: 8238 e4be 40de 60bd baa8 c4bf 311c 563f
00000320: 3871 973f 17f2 e0bf 67e8 0ac0 560e 953e
00000330: d0e1 29bf 06de 8cbf 6855 a7bf a39f 4d3f
00000340: 3030 703e ccc8 103f ad57 cebe 32ca 3ac0
00000350: 678c 023f 1d58 ef3d cc6a adbe 1b70 eb3e
00000360: 895a 2b40 3a3c 6cbf cdad b7be ca25 d1bf
00000370: 80b5 e13f 63e6 b740 53d7 cd3f 09dc d5bf
00000380: 4028 19bf 9455 9f3d 8981 04bd 2874 0640
00000390: d42b 613f d2ab 473f 36ee 8840 e4e9 c03f
000003a0: b306 873f 78cc 08bf eda0 f9be 1cda 933f
000003b0: 5a11 82bf ef7f f9bd 3327 03bf bc24 863e
000003c0: 1142 e3bf 41c0 f83e 7bac 29bf bf82 d93c
000003d0: 354b 9dbf cabe bebe 2106 20be 0337 98bf
000003e0: 0c76 813f 91dc fe3f 5cab a1bf 3e2d 1a3f
000003f0: 6dca 743f af7f 21c0 c236 7a3e a27a f6be
-9.220155 0.21020596 -1.0277429 -7.8553305 0.60991305 3.8885756 -1.09809 -0.1717309
0.21001956 1.6256793 0.45275784 0.2223265 3.3906517 -0.8252389 0.34695548 -2.9004467
-1.4249802 1.6450435 0.40813133 -3.152572 1.5366473 -0.91521806 -1.9457045 0.5644731
1.040948 -1.6346065 -1.3037437 -7.9484544 0.22499327 4.7746754 3.3805137 -1.0160263
0.8351145 2.414113 0.6314432 -0.4439281 0.4353932 -1.1236064 0.56432086 7.1969028
-2.5328567 1.1391151 15.363708 0.9951166 6.2153387 0.7337891 -0.68366474 -0.47454685
0.29431978 -0.33674735 0.012010058 1.3132217 -1.1285326 0.8202377 2.6041863 1.0262482
-1.1220917 4.647573 -3.0421076 0.651964 -1.9050221 -1.9978563 -0.06809618 0.44301578
0.16735949 -0.6377055 2.295863 -0.73169696 0.5185996 -0.7670059 0.50237143 3.4221292
4.2312646 -0.75284 -1.8441907 -4.3964767 0.40825188 5.078148 -0.3572043 -1.832972
0.1979669 10.416564 1.2686633 -0.34854397 -2.4855998 0.67863864 -4.1655393 1.4381295
0.19791095 15.61566 -1.4726642 0.78652227 -1.424767 -5.643623 3.1768174 0.72308254
-1.7266798 -0.3237759 -1.1784596 -0.3893948 0.1862579 1.820791 0.06835728 -0.9817252
1.1617432 1.7324364 -0.7036285 0.48031157 -0.09491352 -0.040117178 -0.22618218 3.349787
-0.38231066 -1.1022857 -0.6592876 -0.5550251 -0.22994804 3.4430037 0.29557428 1.5152733
0.8646085 -1.1789051 0.8538882 -2.6843581 0.74667263 3.8658361 1.0776151 -0.4242786
0.6673982 -0.45654726 -0.61799383 0.1401103 0.36327073 -0.50338125 1.4729766 4.4874425
-0.6557863 0.1292402 -0.14738326 -1.2389287 -0.72000474 -1.0148412 -1.967916 0.6945525
-0.6390344 -0.31464505 -0.14099024 0.92808574 0.5761923 -0.8443374 1.6777657 -1.5480946
-1.8313656 1.8674898 1.3983902 0.37855515 -0.3824077 -2.5559876 0.58863026 -0.43254456
-0.33998343 0.24674326 2.633094 -1.283832 -0.7814821 0.9223764 -0.7383098 -1.2061131
-1.4407444 0.8261228 7.933303 2.685918 -0.73781216 0.23396668 -0.3751787 0.6687297
-1.0413579 -1.442651 0.9146412 -0.4547207 -0.36128792 -0.609978 1.4632198 5.0155616
1.0173821 0.7462067 0.76653713 0.5042574 -0.6671433 1.1907568 -0.3108869 -0.7008154
-3.7491136 0.48318017 1.2278225 -1.3167869 -0.44574362 -0.054899454 -1.5363991 0.83636767
1.1831427 -1.757388 -2.1704347 0.291125 -0.6636019 -1.1005256 -1.3072939 0.8032171
0.23455882 0.5655639 -0.40301266 -2.918591 0.50995487 0.11686728 -0.33870542 0.45983967
2.6774008 -0.922794 -0.35874787 -1.6339657 1.7633514 5.7468734 1.6081337 -1.6707774
-0.5982704 0.077799946 -0.032350097 2.1008396 0.879575 0.7799655 4.2790785 1.5071378
1.054892 -0.53436995 -0.4875559 1.1550937 -1.0161545 -0.121826045 -0.5123169 0.261999
-1.7754537 0.48584178 -0.6627881 0.026551602 -1.2288576 -0.37254936 -0.15627338 -1.1891788
1.011415 1.9911062 -1.263042 0.60225284 0.9562138 -2.5234182 0.24434951 -0.48140436

conv4.bias f4 [64]
00000000: 6f02 04bf ad95 67bf 06af 59bf 41a4 7fbf
00000010: 2215 18bd 417d 0340 d3e4 81bf 9978 c53f
00000020: 8d69 c8bf 877b 07bf 3e80 afbf 546b 4bbf
00000030: b377 b3bf 5e2d 9abf 3811 bfbf 96d6 a7bf
00000040: 8d71 62bf da82 0b40 9f7e 0ebf 009a ddbf
00000050: 0555 81bf 06ca f8bd c5dc bcbf 7701 0e40
00000060: 0322 86bf 2539 8dbf f28b babf ac39 873f
00000070: 3ac6 b2bf 3594 c4bf dd5e 84bf 81f0 b1bf
00000080: 6d5b 77bf c661 93bf b7f6 71bf bec2 3bbf
00000090: c99a dabe 1fc6 c1bf 40ab 823d 2607 51be
000000a0: bdfa 00bf d6f3 7fbf 140a 80bf f419 36bf
000000b0: c194 9cbf 380f 9abf 848f 4f3e 15dd 9bbf
000000c0: e78d b7bf 2894 7ebf 57ec 8cbf abe2 ccbf
000000d0: 2f68 93bf f39e 04c0 714d eebf 8de3 b9bf
000000e0: b6d3 4fbf 5024 8bbf aa15 9bbf 484b 85bf
000000f0: 74d7 acbf 0a2b 5fbf 6322 0dbf 9567 4ebe
-0.51566213 -0.9046276 -0.8503269 -0.99860007 -0.03712953 2.05452 -1.0147957 1.5427428
-1.5657212 -0.5292286 -1.3711011 -0.79460645 -1.4020904 -1.2045095 -1.492713 -1.3112361
-0.88454515 2.1798615 -0.5566196 -1.7312622 -1.0104071 -0.12147908 -1.4754874 2.2188394
-1.047913 -1.1033064 -1.4573958 1.0564475 -1.3966744 -1.5357729 -1.034145 -1.3901521
-0.9662388 -1.1514213 -0.9451708 -0.7334403 -0.42696217 -1.5138587 0.063803196 -0.20412883
-0.50382596 -0.9998144 -1.0003076 -0.7113335 -1.2232896 -1.2035894 0.2026959 -1.2176844
-1.434018 -0.9944482 -1.1009625 -1.6006674 -1.1516169 -2.0722015 -1.8617383 -1.4522568
-0.8118242 -1.0870457 -1.2115986 -1.0413599 -1.3503251 -0.8717505 -0.55130595 -0.20156701

fc.weight f4 [1, 128]
00000000: a5e1 7941 51fc 7f41 54fc 5141 df69 7e41
00000010: a080 3a41 09b7 7c41 05fc 7f41 e193 7041
00000020: f100 8041 a6fc 7f41 4fa8 61c0 dbec 3bc0
00000030: 3966 6741 d3fa 7f41 8ca7 30c0 4a64 40c0
00000040: 202d 6e41 1b27 7c41 d903 7c41 65fd 7f41
00000050: e8f7 7f41 c439 7941 15eb 7141 ded2 6941
00000060: ad16 7b41 d1f7 7f41 a228 4d41 1c74 4641
00000070: 0405 8041 b31f 6f41 134c 7241 078e 5b41
00000080: 2760 6c41 a484 7941 0255 58c0 aacd 37c0
00000090: e1f7 7f41 a33d 7d41 524f 4141 dc61 4841
000000a0: b875 8541 9187 7c41 eae4 6e41 9368 6441
000000b0: 88b5 6e41 ee7e 7741 dde6 63c0 07aa 3ec0
000000c0: 5bfd 7f41 c98b 7841 8afc 7f41 accf 7f41
000000d0: 48fa 7f41 d6f0 7f41 8f66 f4bf 3bc6 25c0
000000e0: 7f88 7441 79f5 7f41 7bc4 8541 4e79 7f41
000000f0: 526d 7f41 35ab 7f41 64fd 7f41 8cec 7f41
00000100: 0462 8141 f4f5 7f41 862d 6f41 7c06 6c41
00000110: 1ecc 6441 7496 7541 cd7b b941 ca6f 6641
00000120: 2480 7f41 5ff9 7341 25a3 7641 24f4 7c41
00000130: a495 6a41 acfa 7f41 b659 5441 37a0 6d41
00000140: 9f5d 4341 3175 5f41 0929 8041 5cf3 6641
00000150: 46f9 7f41 dd8c 7b41 3ed4 7b41 13fb 7f41
00000160: 32c1 8641 1c79 4f41 9cc9 7a41 5a00 7741
00000170: e308 7341 868d 7941 cf99 5f41 04fb 7f41
00000180: f4bc 8541 a2aa 7541 d87f 8741 6812 5b41
00000190: acf4 8541 0ccf 7a41 06d1 8541 78f3 7f41
000001a0: 51a7 5641 c2a7 4741 447e 7841 eaf9 7f41
000001b0: c745 7441 f688 7f41 7633 8241 d5ee 7f41
000001c0: 9184 3941 a6a7 2041 9ab0 9241 1d39 7641
000001d0: 5858 8941 47e8 7f41 a3ca 2f41 0020 7341
000001e0: 56b0 8141 80d1 7941 524c 8141 faf1 7f41
000001f0: a164 6441 adfb 7f41 7efd 7f41 1af0 7f41
15.617589 15.999101 13.124104 15.900847 11.656403 15.794686 15.999028 15.036103
16.00046 15.999182 -3.5258977 -2.9363315 14.462457 15.998736 -2.7602262 -3.0061212
14.886017 15.759547 15.750939 15.999364 15.998024 15.576603 15.119893 14.613981
15.693036 15.998002 12.82242 12.403347 16.002449 14.945239 15.143573 13.722175
14.773475 15.594883 -3.3801885 -2.8719277 15.998017 15.827548 12.081865 12.523891
16.68248 15.783097 14.930887 14.275531 14.919319 15.468489 -3.5609658 -2.9791276
15.999354 15.534127 15.999155 15.988201 15.998604 15.996298 -1.9093798 -2.590224
15.283324 15.99743 16.720938 15.967115 15.96419 15.979299 15.999363 15.995251
16.17286 15.997547 14.948614 14.751583 14.299833 15.349232 23.18545 14.402292
15.968784 15.248382 15.41483 15.809605 14.661533 15.998699 13.271902 14.851615
12.210357 13.966111 16.020037 14.434414 15.998358 15.72189 15.739317 15.998797
16.844334 12.967068 15.674221 15.437586 15.18967 15.597052 13.975051 15.998783
16.717262 15.354158 16.937424 13.691994 16.744469 15.675549 16.727062 15.996941
13.415849 12.4784565 15.530827 15.998514 15.2670355 15.970938 16.275127 15.995809
11.594865 10.04093 18.336231 15.388944 17.168137 15.994208 10.986972 15.1953125
16.211102 15.613647 16.162266 15.996576 14.274568 15.998944 15.999388 15.996119

conv_block1.0.weight f4 [8, 1, 22]
00000000: bccb b93e 03b4 e5be 593d 9e3f 89b0 82be
00000010: 517a 663f da25 6c3e edf9 453e 1a59 8a3e
00000020: d24e 2bbf 4f66 1a3e 8bc9 d3be 23ac 1dbf
00000030: 40f4 1cbf 86f3 bdbe 3065 59be 6d61 14bf
00000040: 3fa6 32be de03 6ebe 7be7 2abc d346 243e
00000050: ce30 24bf 7b79 bfbe 1e43 27bf 691c 773f
00000060: 6b1c abbe de41 533f e1ca 203d 60c9 1c3f
00000070: 2d3e 1d3e 21cd fd3d ea66 17bd 3606 91be
00000080: eaec ad3e 3476 13bf b1f3 0f3e cb56 48bf
00000090: 7f1b 04be 16c6 e2be 8619 e9be e0c0 b2be
000000a0: f594 9dbc 7b0b 0ebf 99dc 20be 60b2 b63b
000000b0: b123 36bf 6ab1 a43e 1b6a 34bf e5ef 1e3f
000000c0: a3e1 a3be 59ca 543f b12a b73e bcc0 e03c
000000d0: 8c3d d53f df89 7fbe 92ab 7b3f d3ab 7a3e
000000e0: 418b fc3e cf2f 1dbf a7ef 40bd 759d 2cbf
000000f0: aa11 24bf a153 26bf aa53 75bf 9bda adbd
00000100: d2e3 a1be b197 f8be 21ac 43bf e1bd ba3d
00000110: 829d 813b a4c4 393e 973a 2dbf 3b80 083f
00000120: 2e30 333e 14d5 f73e cd7a 943e fcfb 8c3f
00000130: b001 343f 19a9 90be e0f6 a03e 84c1 dfbe
00000140: 9c83 023f 463c b1bf 7c79 ccbd 3e2d 76bf
00000150: 6dd8 0cbf 2cbb 91bf d49b 15bf 36e0 3dbf
00000160: ca3e 61be bb55 1d3f f046 163f d2e0 dc3e
00000170: 68d1 c63e a001 5b3e 136a 4bbe 4efd ba3e
00000180: eee7 503d 7373 96be 66f3 a8be baaf 6cbf
00000190: fe27 13bf 4df8 a4bf 58be 983e 1438 cfbe
000001a0: 6c24 0e3e 8d52 8abe bfb7 453e da0f b0be
000001b0: bf31 febd d9bc fc3e 1c41 9a3d ee5b b7bd
000001c0: 80cf 533d eb58 853e 13a3 813e cd64 9f3d
000001d0: 3e88 803f d85c 863e dc90 213e b530 ce3e
000001e0: 6f87 2c39 f9ea c03e 311a e9be 8c44 e53e
000001f0: 0f86 2bbe eff1 dfbe 091d aebe 73cf 06bf
00000200: 2b7f 6bbf fcbb a8be 0d3b d1bd c57e 3ebe
00000210: 7025 bf3e 0df4 0f37 9757 0d3f 76c3 56be
00000220: 659a 20be 5a70 523f d21d ebbe 7058 553f
00000230: 3827 3f3e c2b8 f63d 7afc 14be 49f9 debe
00000240: 3c52 18bf 79d2 76be bd92 00bf 92a8 c03d
00000250: 89d0 bcbe ef69 c6bd f3a5 b53e 4a39 a5be
00000260: a054 333f 9d32 04bf 079d 003d 93b9 1abf
00000270: cedc b03e 5488 3bbf 26c1 0c3f efaf 3f3d
00000280: 77fb 41be 8093 133f 7bb5 ddbe 0d12 94bf
00000290: 0720 63bd 41c6 78bf 4c5d 98be b018 ba3e
000002a0: 1396 30be bc87 dcbc 97ce 87bd b877 023f
000002b0: b394 52bf dc9f d43e 080c 983d 265c 563e
0.3628825 -0.448639 1.2362472 -0.2552531 0.9003039 0.23061314 0.1933362 0.27021104
-0.66917145 0.1507809 -0.41364703 -0.61590785 -0.61310196 -0.37099856 -0.21230006 -0.5796116
-0.1744623 -0.23243663 -0.010431166 0.16042642 -0.6413697 -0.3739737 -0.6533679 0.96527725
-0.3342012 0.8252238 0.03925598 0.61244774 0.1535575 0.12392641 -0.03696338 -0.2832505
0.33969814 -0.5760224 0.14057805 -0.78257436 -0.12901114 -0.44291753 -0.45527285 -0.34912777
-0.019236067 -0.5548627 -0.15709151 0.005575463 -0.7114821 0.32166606 -0.70474404 0.620848
-0.32008085 0.8312126 0.35774758 0.027435653 1.6659408 -0.24954937 0.9830867 0.24479608
0.49324992 -0.61401075 -0.04710355 -0.6742776 -0.64089453 -0.6497136 -0.95830786 -0.08488961
-0.31619126 -0.4855323 -0.7643452 0.09118248 0.003955544 0.18141419 -0.67667526 0.53320664
0.17498848 0.48404753 0.2899994 1.10144 0.70315075 -0.2825401 0.3143835 -0.43702328
0.5098207 -1.3846519 -0.09984109 -0.96162784 -0.5501774 -1.1385245 -0.584409 -0.74170244
-0.21996608 0.6145894 0.5870199 0.43140274 0.3883164 0.21387339 -0.19864683 0.3652138
0.051002435 -0.29384956 -0.32998198 -0.9245564 -0.574829 -1.2888275 0.2983272 -0.40472472
0.13881081 -0.27016106 0.19308375 -0.34387094 -0.12411832 0.4936283 0.0753195 -0.08953081
0.05171156 0.26044402 0.25319728 0.07782898 1.0041578 0.2624271 0.15777916 0.40271536
0.00016453651 0.3767927 -0.45527795 0.4477886 -0.16750358 -0.43739268 -0.34006527 -0.5266029
-0.9199092 -0.3295592 -0.10216341 -0.18603046 0.3733325 8.580287e-06 0.55211776 -0.20973
-0.15683897 0.82202685 -0.4592119 0.8333807 0.18667305 0.120469585 -0.14549437 -0.43549564
-0.5950048 -0.24103726 -0.50223905 0.09407152 -0.3687785 -0.09688174 0.35478172 -0.3227027
0.70051 -0.5163973 0.031399753 -0.60439414 0.3454346 -0.73254895 0.5498222 0.046798643
-0.18943582 0.5764694 -0.4330252 -1.1568009 -0.055450466 -0.9717751 -0.2975868 0.3634696
-0.17244749 -0.026920192 -0.06631201 0.50963926 -0.82258147 0.41528213 0.0742417 0.2093359

conv_block1.0.bias f4 [8]
00000000: ab56 833f 16aa 8cbf 5b61 123f 2a08 bb3e
00000010: 76c5 d53e 8ceb b6bf 6894 ba3f 81c9 2040
1.0260824 -1.0989406 0.571798 0.36529666 0.41752213 -1.4290633 1.457654 2.5122988

conv_block2.0.weight f4 [16, 8, 3]
00000000: 3b5f 733f a2d0 44bf dea5 8c3f 3664 883f
00000010: 7f5c 37c0 90a8 dd3e c470 b03f 1e9a 4ebf
00000020: ba77 413e 77b0 1e3f deea 44bf 7a55 11bf
00000030: daf8 483f 7398 4bbf 4a99 993f 84a8 c93e
00000040: 1f9c 113f 9fed 05be 9685 75bf 37eb d6bf
00000050: 9215 91bf f29b ef3e 0e8e 89bf ae67 fa3e
00000060: 7605 81bf caf0 303e c0e0 b8be b6c9 02bf
00000070: b06c 733f 14bd ddbf 90ad a2bf 9bc8 6e3f
00000080: f014 6cbf 2fe5 61bf 7fab 0640 2aab d0be
00000090: 9cb0 c3be 78ec 7d3f 7ae0 51be 422a 3d3f
000000a0: 8409 d63f 4abe 0dbf bbc5 413f 8042 09bf
000000b0: c9cd c13f d939 82bb e059 a73f 3b0c 3fbf
000000c0: 97dc 02bf 1307 78bf 6328 5ebf 14a4 bbbf
000000d0: 5354 ff40 24e1 5cbf 7c50 14bf 13c7 3f3f
000000e0: 9fc0 ecbe 53d1 583e eeb2 ce40 5ee0 233f
000000f0: dbfe 553e f770 913e b711 b03f 23e1 0d3f
00000100: 102a 623f c04f ee3f 114d 03be d18d 80bf
00000110: bc88 033f f42e cc3e 2ef0 0940 8c75 b4bf
00000120: c6fb 95bf ce46 93bf a0e5 c4be 2885 c5bd
00000130: 9fc1 933f bb71 bb3f bdac 81be 3c3b 6ebf
00000140: f0fd 113f 2786 6fbe 095d 07bf 4760 373f
00000150: ce2b 03bf 513a 053e 37b1 ec3d 31e2 e83e
00000160: 7554 72c0 7cbc 123f d89b cc3d d39f 1bc0
00000170: 9d85 4c3f af6d 8abe 3a0f 823f 6422 8abf
00000180: 9c1e 46bf 2bc1 00c0 b16e 47bf 9ff7 b73f
00000190: f549 8140 d385 81bf 2f27 853e b714 a53f
000001a0: e6da 6cbf 81ef 00bf ba02 ef3e 0129 02bf
000001b0: 54d7 9f3e 7f8b 30bf 1a6a d5be 8bd0 cf3f
000001c0: 8f46 9cbf 611d 8c3e 7e62 d43f b2d8 e6bf
000001d0: 85a4 fcbd 58a5 bdbd a94c 6e3f 6cdb 49bf
000001e0: 0292 f33f 9eb5 c4bf 61a4 9b3f 6af2 ecbe
000001f0: 41d1 29bf f477 d6bd 345e 12bf 61c7 9a3f
00000200: 4c2a ad3e fd67 9d3f 3f00 44be 0e66 bc3f
00000210: 0641 903e a9c6 0ebf 8439 833f 8d90 303f
00000220: fce9 2bbf 734a a6bf 608c 2ec0 bc6d a2be
00000230: e621 91bf c7e0 b83e d193 2bc0 e6ed 86be
00000240: 8834 50be c2ab 1bbf 5820 e43e 1583 40bf
00000250: de42 9a3f 5dd7 30bf 620f bebe 47e6 eabc
00000260: f58f f53e eb66 bc3f 5c83 f33e 4d0b 083e
00000270: 8631 383f bfc6 72c0 5253 7a3e d425 68bd
00000280: acd9 80c0 1c7b b63f 5629 63bf b406 5140
00000290: 8d02 3cc0 ef17 f4bd 38e6 cbbf a065 7f3f
000002a0: 7ca4 263f 3dea d83f a035 14bf cf8b b73f
000002b0: 9dde 07c0 8c7a bd3f c5a8 b13e 7064 59bf
000002c0: 0a80 f93b 7b39 953e fd45 a6bf 0122 203e
000002d0: 5cc6 ad3e 87ac ff3f 9394 3e3f cc4e 85be
000002e0: 4a93 cfbf 6b52 e93e c762 e7bf 056d 0b40
000002f0: e51e a0bf 84c2 7cbf 1881 a3bf 47f6 aebf
00000300: 3e89 013f d31a 6c3e 246f b93e affd 2d3f
00000310: 1758 54bf 2d44 9f3e 1e12 ea3f 4f75 66bf
00000320: 1fac 0abe d2f7 363f 49cf f23f 0e1c 57be
00000330: 1da6 7a3f 2968 603f 52c8 37be 29ac 1bc0
00000340: 6f20 47c0 4945 f9bf 6214 01c0 cda4 1840
00000350: 6029 d1bf e675 393f 5b5e e2bf acd1 cd3f
00000360: 65d4 103f 7e9b 99be 5442 123f a92c 0e3e
00000370: 8a5c 63c0 35c5 01c0 a04e 013f cd8d 1f40
00000380: 0129 56bf e0e3 b93f 24a9 05c0 3200 683e
00000390: 5105 393f b274 103e 216d a3be 31f3 56bf
000003a0: 2f03 37c0 955e cbbf ea72 23bf f9f7 1040
000003b0: 3aec d1bd 9c13 f13e 2c94 a6bf d301 cc3e
000003c0: ac06 ea3e ace2 8e3d 5247 a83f 7faf 4bbf
000003d0: 5d0c 86c0 3e23 4c3f 5c57 333f d060 79bf
000003e0: 4ecc d4be 7e91 ad3f 458b 6bbf ed99 1fbf
000003f0: 8c5e 15be 71ef e2bf 4654 973f f581 cbbf
0.95067185 -0.7688085 1.0988119 1.0655582 -2.8650205 0.43292665 1.3784413 -0.80703914
0.18893328 0.61988014 -0.7692088 -0.5677105 0.7850472 -0.79529494 1.1999905 0.3938638
0.56878847 -0.13078927 -0.9590696 -1.6790532 -1.1334708 0.46798664 -1.0746477 0.48907226
-1.0079792 0.17279354 -0.3610897 -0.51089036 0.9508772 -1.7323327 -1.2709217 0.9327485
-0.9221945 -0.8824033 2.1042173 -0.40755588 -0.3822068 0.9918895 -0.20495787 0.73892605
1.6721654 -0.55368483 0.7569234 -0.53617096 1.5140926 -0.003974181 1.3074303 -0.7462804
-0.51117843 -0.96885794 -0.86780375 -1.4659448 7.9790435 -0.8628104 -0.5793531 0.7491314
-0.46240708 0.21173601 6.459342 0.6401423 0.20898001 0.28406498 1.3755406 0.55421656
0.8834543 1.8618088 -0.12822367 -1.0043279 0.51380515 0.39879572 2.1552844 -1.4098372
-1.171746 -1.1505983 -0.3845644 -0.09644538 1.1543463 1.4644083 -0.253271 -0.93059134
0.570281 -0.23391019 -0.52876335 0.7163128 -0.51238716 0.13010527 0.115572385 0.4548507
-3.7864048 0.57318854 0.09990662 -2.43163 0.7989138 -0.27036807 1.0160897 -1.0791745
-0.77390456 -2.01179 -0.77903277 1.4372443 4.040278 -1.0118965 0.26006457 1.2896947
-0.9252151 -0.50365454 0.46681768 -0.50843817 0.3121897 -0.68962854 -0.41682512 1.6235517
-1.2209033 0.27366164 1.6592557 -1.803488 -0.12336067 -0.092600524 0.93085724 -0.78850436
1.9028933 -1.5367925 1.215954 -0.46278697 -0.6633492 -0.10472098 -0.5717499 1.2092096
0.33821332 1.229736 -0.19140719 1.4718645 0.2817461 -0.5577188 1.0251927 0.68970567
-0.67153907 -1.299147 -2.7273178 -0.31724346 -1.133847 0.36108992 -2.680897 -0.26353377
-0.20332539 -0.60808957 0.44555926 -0.75200015 1.2051656 -0.6907862 -0.3712111 -0.028674258
0.47961393 1.4718908 0.47561157 0.13285561 0.71950567 -3.7933805 0.24445847 -0.0566767
-4.0265713 1.425632 -0.8873495 3.2660341 -2.9376557 -0.119186275 -1.5929632 0.9976444
0.65094733 1.6946484 -0.57894325 1.4339541 -2.1229622 1.4803023 0.34699073 -0.8491888
0.0076141404 0.29145417 -1.2990109 0.15637971 0.339404 1.9974526 0.74445456 -0.2603668
-1.6216824 0.45570692 -1.807702 2.178529 -1.2509428 -0.9873431 -1.2773771 -1.3668908
0.5060004 0.23057108 0.36217606 0.67965215 -0.82946914 0.31106701 1.8286779 -0.9002275
-0.13542221 0.71471894 1.8969508 -0.21006796 0.9790972 0.87658936 -0.1794751 -2.4323828
-3.1113546 -1.9474269 -2.016869 2.3850586 -1.6340752 0.72445524 -1.7685045 1.6079612
0.5657409 -0.30001444 0.5713246 0.13884224 -3.5525231 -2.0276616 0.505106 2.4930298
-0.83656317 1.4522667 -2.0884485 0.22656325 0.7227374 0.14107016 -0.31919196 -0.8396483
-2.8595693 -1.5888239 -0.6384722 2.265135 -0.10250135 0.47085273 -1.3013968 0.39845142
0.45708215 0.06976828 1.3146765 -0.7956466 -4.189009 0.79741275 0.70055175 -0.9741335
-0.41562122 1.3560026 -0.92009383 -0.6234425 -0.14586848 -1.7729322 1.1822593 -1.5899035

conv_block2.0.bias f4 [16]
00000000: 037f 3cbf 6e46 203f 06b3 70be 98ce bebe
00000010: d097 733e e76b e8be 2d93 59bf a97a 32bf
00000020: 379d 0cc0 e9f2 c6bf eb96 80bf 66bb 483f
00000030: 8df9 74bf cb76 813e 8fc8 c1bf 25c8 3e3c
-0.73631305 0.6260747 -0.23505792 -0.37266994 0.2378838 -0.45394823 -0.849902 -0.69718415
-2.1970956 -1.554288 -1.0046057 0.7841095 -0.95693284 0.25285944 -1.5139331 0.011644398

conv_block3.0.weight f4 [32, 16, 3]
00000000: e7b0 90bf 14c1 0a3f 1ad7 9abf a5ab 413f
00000010: 6ef1 3bbf 4e6c 07bf c59a 9cbf df6f 89bf
00000020: 14d9 26be c6a0 4140 39bf 28bf 2a31 a13e
00000030: 3c7c 8abf 3c89 c83e f716 873f a3b0 a3bf
00000040: 3361 2a40 6c2c ffbf 8651 bf3f 8145 6c40
00000050: 7884 0cbf 33d4 4fc0 4802 a4bd 48d3 76bf
00000060: a75a 393f c36f 1c40 fc37 423f ee3d 223f
00000070: 254a bf3f 08b1 843f b8e5 863e 6780 5340
00000080: af0d fcbe 52bc 9040 6b6a b940 21e8 a840
00000090: aed9 3d3f d699 98bf 6c02 05c0 a093 95bf
000000a0: 62cd 0040 ec04 67bf f719 863f 40d9 cdbe
000000b0: 26a6 c23e ea49 afbf 6a50 6bbf 9205 31bf
000000c0: 1ffe b13f c1cc 953f 61f4 213f bce6 c9c0
000000d0: e955 42c0 4d69 093f 8f4f f3be f0b9 22c0
000000e0: b297 d4bf ab7c a1bf 814d 59bf 9027 94c0
000000f0: ebdb b1bf 5d84 26c0 aa01 3fc0 44a5 c3bf
00000100: a159 563f 1486 2bbe 8cdd 9ebc dd8d 5740
00000110: c2dc 803f 3713 1cc0 2e34 7c3f 4808 a0be
00000120: b3d7 31bf 2802 0240 80c6 d43d 2509 d9bf
00000130: c776 6440 0a56 3b3f 65d1 cb3f 4b2d b33f
00000140: 0995 9d3f 1144 c93e f608 6dc0 ac1b 4ac0
00000150: 264d 68bd 843b 413f cb33 babf 2467 0dbf
00000160: e356 963f 185f 713f bb23 0140 0907 453f
00000170: 7acd 8e3f 459c 00be 3097 6bbf 10cb 0540
00000180: 9267 1940 1945 0440 e26c 02c0 5639 83bf
00000190: b4da f8bf 1a4b 3d3f 72b3 57bf c5a6 90bf
000001a0: 9ce0 a73f 3b19 e7be 7113 2fbf a06e e5be
000001b0: e66e 453f c1c8 bfbe 7387 52bf 0ecd 1a40
000001c0: 9de7 12bf 6f7a b5bf 5c7e 89bf ccdf 49be
000001d0: 434d 07c0 7c09 01c0 acdb 7abd 6bf4 ac3e
000001e0: 22e0 09c0 6698 3440 3947 dabf b2dd 50bf
000001f0: 2512 0840 9bd4 173f e4ab cb3f f8fa d33f
00000200: 4a01 9abf 0313 eebf 326b 39bf 8b8b d6bf
00000210: e249 5a40 323a 4a3f 5906 f33e decb c83f
00000220: 454e 69c0 e52e 84bf 5136 6e3f d155 9f3f
00000230: 7cc1 1cc0 2dc4 163f 94fc 383e 9ca1 61bf
00000240: c8f5 ea3f 5419 d5bf 7b44 533f 1945 913f
00000250: b026 03c0 a05e 0bc0 0b65 ebbf b01f abbe
00000260: 011b 12bf 8d1e 13bf bca1 24be 2eaa cdbf
00000270: c7a0 10bf 2e81 00c0 7764 143f 1611 8b3f
00000280: cb1e 783e fff6 383c 032c bebe 3606 7540
00000290: c94c b03f 2a4d fcbe 802f 7a3f 5cc2 42c0
000002a0: bba3 03c0 aa40 e73f 6a44 c6be 2f32 5fbf
000002b0: 91c0 febf 005a 37bc 99b4 7cbd aa95 853f
000002c0: 58ff 70bf 7b01 203f 412e 83bf ea91 cb3f
000002d0: 563f 4c40 1780 0dc0 9d0c 3cbe 662e 2d40
000002e0: 3c51 97be d805 a93f 861a 93be 1a11 fe3f
000002f0: e626 613d 8459 0cbf 65e6 bd3f 9249 0ac0
00000300: f5b0 873f 2bac 48bf 57b1 b03f 015b fbbf
00000310: f1c4 6dbf 8160 c5be 949e b7bf 803e b6bf
00000320: ae46 c0bf 23ff 37be 406a 70be 51af 1cc0
00000330: 9c16 62bf f33e f6bf ede1 1dbf 00ad 9c3f
00000340: e6c2 2c3e 0bec 95bc 6db8 1b3f abd7 323f
00000350: d258 f63f c979 6cc0 6753 6fbd d59e 66bf
00000360: 7d33 08bf 23d4 5840 f995 a03f f56c b63e
00000370: 6d01 0fc0 118c a73f 189d 213f 5db2 e83e
00000380: c8b6 44bf 3c01 263f 7f9b 8bbf ab1f c03f
00000390: ae4b 30bf 944e 9abf eb35 e53f 891d 153e
000003a0: db07 873f 8eb4 c03f 3f2d d33f f4b6 193f
000003b0: 771e 293f dc81 7fc0 54ae a63f ac26 3dbf
000003c0: 9095 ee3f a0f0 35bf 327b 64be 7236 243f
000003d0: 55c9 41c0 f1c5 d2bf bd8b f1bf 23d8 4b3f
000003e0: e2f3 1fbf 8a34 40be cd91 98c0 f0d6 1abd
000003f0: 3d58 ec3d 2c95 d03e 10a0 84bf b26d 0640
-1.1303986 0.54200864 -1.2096894 0.75652534 -0.7341527 -0.52899635 -1.2234732 -1.0737265
-0.16293746 3.0254378 -0.6591678 0.31482822 -1.0819163 0.39167202 1.0553883 -1.278828
2.6621826 -1.9935431 1.4946754 3.6917422 -0.5488963 -3.2473266 -0.080082476 -0.9641614
0.7240395 2.4443214 0.75866675 0.6337575 1.4944502 1.0366526 0.26347136 3.304712
-0.4922919 4.5229883 5.7942405 5.278336 0.7416028 -1.1921947 -2.0782728 -1.1685677
2.0125356 -0.90241885 1.0476674 -0.4020481 0.38017386 -1.3694432 -0.9191958 -0.69149125
1.3905677 1.1703111 0.6326352 -6.309416 -3.0364935 0.536763 -0.47521636 -2.5425987
-1.6608794 -1.2616171 -0.84883887 -4.6298294 -1.3895239 -2.6018288 -2.9844766 -1.528481
0.8373051 -0.16750365 -0.019392751 3.3680336 1.006737 -2.4386728 0.9851712 -0.31256318
-0.69469756 2.0313816 0.10389423 -1.6955916 3.5697496 0.7317816 1.5923277 1.3998197
1.2311107 0.39309743 -3.703672 -3.157939 -0.0567142 0.7548144 -1.4547056 -0.55235505
1.1745266 0.94285727 2.0178058 0.7696386 1.1156456 -0.12559612 -0.9202757 2.090519
2.3969464 2.0667174 -2.0378957 -1.0251873 -1.9441743 0.7394272 -0.84258187 -1.1300894
1.311542 -0.45136437 -0.6838904 -0.44810963 0.7712234 -0.3745785 -0.8223793 2.4187655
-0.57384664 -1.4177989 -1.0741687 -0.19714278 -2.1140907 -2.0162039 -0.06124465 0.33780226
-2.154305 2.8218017 -1.7052985 -0.8158828 2.1261075 0.59308785 1.5911832 1.6560965
-1.2031643 -1.8599552 -0.7242919 -1.6761335 3.4107594 0.7899505 0.4746578 1.5687215
-3.6454022 -1.0326811 0.9305163 1.2448064 -2.4493093 0.5889309 0.18065101 -0.8813722
1.8356256 -1.6648355 0.8252637 1.1349212 -2.0492363 -2.1776505 -1.8390211 -0.33422613
-0.57072455 -0.5746849 -0.16077322 -1.606756 -0.56495327 -2.0078845 0.579658 1.0864589
0.24230497 0.011289357 -0.37142953 3.828504 1.3773433 -0.49277622 0.9772873 -3.0431128
-2.0568683 1.8066609 -0.3872407 -0.8718595 -1.9902517 -0.011190891 -0.06169567 1.0436299
-0.94139624 0.6250226 -1.024849 1.5903904 3.1913657 -2.210943 -0.18364187 2.705957
-0.29554164 1.3204908 -0.28731173 1.9848969 0.054968737 -0.5482409 1.4835936 -2.1607404
1.0600878 -0.7838771 1.380412 -1.9637147 -0.92878634 -0.3855019 -1.4345269 -1.4237823
-1.502157 -0.1796842 -0.23478031 -2.4482005 -0.8831575 -1.923796 -0.6167286 1.2240295
0.16871223 -0.01830103 0.60828286 0.69860333 1.9245856 -3.6949332 -0.058429148 -0.9008611
-0.53203565 3.3879478 1.2545768 0.35630003 -2.234462 1.308962 0.6313033 0.4544858
-0.768414 0.64845634 -1.0906829 1.5009664 -0.6886548 -1.205523 1.790708 0.14562048
1.0549272 1.5055101 1.6498183 0.6004479 0.6606211 -3.992301 1.3021951 -0.73887134
1.8639393 -0.7107029 -0.2231262 0.64145577 -3.0279133 -1.6466657 -1.887077 0.79626673
-0.6248151 -0.18770042 -4.767798 -0.037802637 0.115402676 0.4073881 -1.0361347 2.1004453
