trained_models/NN_tuned_complex_fe_concat/NN_32-16.pth (torch, 39428 bytes, 10 tensors)

weight f4 [1, 121]
-0.2654371 -0.20795983 -0.8868743 -0.31145254 -0.17209326 -0.29446843 -0.6010842 -0.5213564
-0.14232515 -0.24529451 0.90958 -0.1740828 -0.3872652 1.0960324 0.39598054 0.5880616
0.68943393 0.9343141 0.4188932 0.5865466 0.49125034 0.9042558 0.65219027 0.8583069
1.3164632 0.8369508 1.0475547 1.4443995 1.1619627 1.4898365 1.6110712 1.9920433
2.0023093 1.8056 2.0366993 0.6573447 0.8884121 0.53161514 0.013941337 -0.36692417
-0.023550825 -0.17351289 0.32573524 0.07714349 0.07051852 0.27608398 0.46151572 0.44542623
0.5589154 0.73368526 1.0784519 1.409632 1.4440951 1.4966326 1.4705871 1.5011727
1.9132181 1.2519945 1.3178782 1.1305308 0.64958954 -0.5241865 0.58225894 0.18262185
0.13781574 0.08340089 -0.3591898 0.08781638 -0.09760416 -0.07464519 -0.20322426 -0.38219786
-0.44979006 -0.7156004 -0.8330941 -0.99654776 -0.96637446 -0.9779585 -1.0907537 -1.8171816
-1.581726 -1.781224 -1.726292 -1.5214062 -1.4331789 -1.4612683 -1.1254619 -1.0488807
-1.0001416 -1.0160404 -1.0798386 -1.0980729 -1.1470473 -1.2848754 -1.0516059 -1.1116602
-1.0925272 -1.110348 -1.1842884 -0.963646 -0.74676424 -0.50591385 -0.47809413 -0.36040685
-0.30680436 -0.3691048 -0.3296448 -0.05836231 -0.0930567 -0.11635527 0.18918182 0.18865384
0.094044305 0.12033109 0.22013587 0.19886363 0.20014109 0.19826528 0.27932003 0.19449219
0.35576344
00000000: 5fe7 87be 6cf3 54be 320a 63bf b576 9fbe
00000010: 3739 30be 91c4 96be a7e0 19bf 9d77 05bf
00000020: afbd 11be 7c2e 7bbe 3cda 683f c342 32be
00000030: a047 c6be ca4a 8c3f f6bd ca3e 348b 163f
00000040: be7e 303f 352f 6f3f 2b79 d63e eb27 163f
00000050: 2a85 fb3e 4f7d 673f f1f5 263f 00ba 5b3f
00000060: de81 a83f 6842 563f 4616 863f 15e2 b83f
00000070: 32bb 943f f6b2 be3f 9537 ce3f 46fb fe3f
00000080: d625 0040 e71d e73f 4859 0240 be47 283f
00000090: fa6e 633f ee17 083f 356a 643c 7cdd bbbe
000000a0: a9ed c0bc 5dad 31be c5c6 a63e 68fd 9d3d
000000b0: 046c 903d e15a 8d3e ca4b ec3e e80e e43e
000000c0: 1415 0f3f ccd2 3b3f b60a 8a3f d26e b43f
000000d0: 1cd8 b83f a891 bf3f 333c bc3f 6d26 c03f
000000e0: 55e4 f43f 5b41 a03f 3cb0 a83f 3cb5 903f
000000f0: 804b 263f 1631 06bf ec0e 153f 3901 3b3e
00000100: 921f 0d3e 16ce aa3d bae7 b7be 13d9 b33d
00000110: b1e4 c7bd 94df 98bd 051a 50be 70af c3be
00000120: e24a e6be 9631 37bf a845 55bf c11d 7fbf
00000130: 5164 77bf 7d5b 7abf d19d 8bbf 6899 e8bf
00000140: ff75 cabf 26ff e3bf 23f7 dcbf 70bd c2bf
00000150: 6872 b7bf d70a bbbf 230f 90bf b941 86bf
00000160: a404 80bf 9d0d 82bf 2738 8abf a78d 8cbf
00000170: 72d2 92bf cc76 a4bf 069b 86bf e24a 8ebf
00000180: eed7 8bbf e21f 8ebf c396 97bf 81b1 76bf
00000190: f12b 3fbf 9283 01bf c1c8 f4be 3f87 b8be
000001a0: 7615 9dbe 4efb bcbe 34c7 a8be 510d 6fbd
000001b0: 8394 bebd ac4b eebd e1b8 413e 792e 413e
000001c0: 4d9a c03d 2670 f63d 4c6b 613e e8a2 4b3e
000001d0: c9f1 4c3e 0e06 4b3e 0903 8f3e f628 473e
000001e0: a026 b63e

layers.0.fc_r.weight f4 [32, 121]
-2.5232224 -2.1877708 -1.1171151 0.652244 1.3955576 1.4484823 1.3565761 -0.31011674
-0.11606146 -0.49560174 0.10315061 -1.203051 0.052448068 0.2828628 -0.22492066 -0.6715456
-0.7473602 0.85763407 -0.24682201 0.38446662 -0.5482214 0.16424651 0.6972202 0.3655334
-0.9135064 1.1362913 0.958513 2.0723174 -1.1059297 -2.0037408 0.7594862 -1.4536401
0.4260825 0.036869276 0.30033794 0.7077331 0.47862378 0.7952684 -0.19894712 -0.29688862
-0.9862845 0.20228177 -0.59313273 -0.3365161 0.30685964 0.57774717 0.3629042 -0.8376691
-0.08947002 -0.5347553 -1.2324928 -2.3135653 -1.1056545 -0.19375454 -0.3567671 0.10936984
0.4819351 -0.30813313 -0.029343184 0.37549144 0.51923656 -0.102215655 0.6119608 -0.11035429
-0.009883195 -0.16984755 -1.2554501 -1.0797496 -0.3542787 0.33264288 0.75459653 0.31025666
0.37564847 0.09705009 -0.4502684 -0.49268347 0.054406535 -0.54964155 0.6543622 0.29108927
-0.75207275 -0.007097341 0.064306594 -0.61351 0.17157009 -0.025272563 -0.01909618 0.38026592
-0.3681854 0.57396126 -0.68032676 0.013659051 0.056309726 -0.70400983 -0.2576917 -0.25857297
-0.10108556 -0.05564494 -0.8332673 -0.7483457 -0.1994798 -0.24683695 0.36915386 -0.061778408
-0.17396457 0.3381287 -0.44644418 -0.23915593 0.17925967 -0.24907212 -0.09407325 -0.0077142273
-0.35867968 -0.1480578 -0.18081489 -0.14839171 -0.12862256 -0.33799607 -0.10091119 -0.046069555
0.06526809 -0.13647877 -0.21681666 -1.0252725 -1.1732318 -0.5654708 -0.56029224 0.07667238
-1.7098777 0.5718999 -0.17948605 -0.3460389 0.1624501 -0.8235246 -0.276646 0.36286888
-0.57760686 -0.33204395 -0.6681097 0.13214517 0.37697542 -2.1840014 -1.6403046 -1.0017947
0.6775584 1.5644937 0.6539616 2.2114725 -0.50938696 1.1467181 -0.18013744 -0.3107119
0.31379592 -0.80968565 -0.3509929 0.930196 0.7005825 0.13077188 0.2576048 0.09721542
0.28375438 0.18702357 -0.475389 -0.5612553 -1.1925529 -1.2301154 -0.26682797 0.7785504
0.6915491 -0.03274187 -0.062429536 -0.84518915 -0.7381826 0.3651611 -0.67085826 -0.1998905
0.10206706 1.1344384 -0.24026519 0.11460977 0.22005007 0.084573105 -0.34596536 0.73120695
0.16843343 0.52704245 0.6490424 -0.36023894 0.6399647 0.4415069 -0.0023913516 0.12989402
0.47421297 -0.14742182 -0.44388175 -0.16756949 -0.06409326 0.2834648 0.17832002 -1.0517963
-0.17800075 0.9753203 -0.5130651 0.73549813 0.2631004 -0.08147045 -0.3985397 -0.4742327
0.00032130763 -0.32117373 -0.016285462 -0.55402315 -0.6298053 0.21023431 -0.0015752357 -0.22502436
-0.43127725 -0.5226638 -0.49710405 -0.654435 -0.45155275 -0.0047213864 -0.14093319 0.24514098
-0.16612986 -0.0593534 -0.023564972 -0.52097625 -0.50842637 -0.045099758 -0.5414701 0.19693613
0.18504372 0.26187426 0.25783837 -0.039642803 0.083213754 0.22494812 0.13857797 -0.13094565
0.4307861 0.29717302 -0.17156903 -1.6527488 -1.313173 -2.7808936 -1.0452557 1.941169
-0.65508914 0.08524059 -0.009953225 0.086325616 -0.29964373 -0.7143135 0.31939778 -0.579527
00000000: 7a7c 21c0 7004 0cc0 a1fd 8ebf 76f9 263f
00000010: a2a1 b23f de67 b93f 49a4 ad3f 9fc7 9ebe
00000020: a1b1 edbd 83bf fdbe a140 d33d 93fd 99bf
00000030: c9d3 563d 65d3 903e 9a51 66be 6aea 2bbf
00000040: 0053 3fbf e88d 5b3f e9be 7cbe cfd8 c43e
00000050: 3d58 0cbf 3d30 283e 067d 323f 3227 bb3e
00000060: 8edb 69bf fe71 913f 1c61 753f d9a0 0440
00000070: 1b8f 8dbf 4a3d 00c0 b06d 423f e110 babf
00000080: 7c27 da3e 3d04 173d e5c5 993e ff2d 353f
00000090: 2d0e f53e b696 4b3f cbb8 4bbe c901 98be
000000a0: 247d 7cbf f422 4f3e 8cd7 17bf d74b acbe
000000b0: b51c 9d3e 3de7 133f 94ce b93e 7b71 56bf
000000c0: 0f3c b7bd b9e5 08bf 53c2 9dbf 7411 14c0
000000d0: 1686 8dbf 9767 46be 2daa b6be 4bfd df3d
000000e0: 33c0 f63e a0c3 9dbe 1e61 f0bc 6a40 c03e
000000f0: b0ec 043f 7156 d1bd 77a9 1c3f 6e01 e2bd
00000100: 20ed 21bc 84ec 2dbe 97b2 a0bf 3c35 8abf
00000110: 0564 b5be 2b50 aa3e 3d2d 413f f6d9 9e3e
00000120: ff54 c03e 33c2 c63d 9489 e6be 0241 fcbe
00000130: 63d9 5e3d 4fb5 0cbf 4884 273f a709 953e
00000140: d787 40bf d090 e8bb 2db3 833d fe0e 1dbf
00000150: 12b0 2f3e 6808 cfbc 986f 9cbc 37b2 c23e
00000160: cc82 bcbe 20ef 123f e529 2ebf 36ca 5f3c
00000170: 07a5 663d fd39 34bf 2bf0 83be ad63 84be
00000180: f205 cfbd f3eb 63bd 0151 55bf 9593 3fbf
00000190: 6f44 4cbe d3c2 7cbe bc01 bd3e 5b0b 7dbd
000001a0: c523 32be 341f ad3e 5594 e4be 4be5 74be
000001b0: d98f 373e c30c 7fbe 7aa9 c0bd a1c7 fcbb
000001c0: dda4 b7be 779c 17be 8a27 39be fff3 17be
000001d0: a2b5 03be d20d adbe 87aa cebd 6eb3 3cbd
000001e0: 47ab 853d 17c1 0bbe 3005 5ebe 213c 83bf
000001f0: 762c 96bf b2c2 10bf 506f 0fbf 6906 9d3d
00000200: 46dd dabf 0868 123f 31cb 37be 032c b1be
00000210: 5259 263e 82d2 52bf 8ba4 8dbe f3c9 b93e
00000220: 0bde 13bf aa01 aabe 3d09 2bbf 1051 073e
00000230: ec02 c13e aec6 0bc0 80f5 d1bf cf3a 80bf
00000240: 7874 2d3f 5441 c83f 076a 273f c488 0d40
00000250: 2f67 02bf a9c7 923f f375 38be a115 9fbe
00000260: dca9 a03e 8f47 4fbf 57b5 b3be 5321 6e3f
00000270: 6059 333f 10e9 053e c7e4 833e e118 c73d
00000280: 4148 913e 1b83 3f3e 3066 f3be 6dae 0fbf
00000290: 93a5 98bf 6c74 9dbf ad9d 88be 144f 473f
000002a0: 5d09 313f 571c 06bd 1db6 7fbd 515e 58bf
000002b0: 89f9 3cbf 65f6 ba3e 5ebd 2bbf 18b0 4cbe
000002c0: 8908 d13d 4735 913f 1408 76be 87b8 ea3d
000002d0: ce54 613e aa34 ad3d 5f22 b1be 6130 3b3f
000002e0: d079 2c3e 41ec 063f a527 263f 3d71 b8be
000002f0: bad4 233f 310d e23e 39b8 1cbb f002 053e
00000300: 0bcc f23e bff5 16be 7844 e3be 5697 2bbe
00000310: 5443 83bd 4c22 913e 8699 363e 43a1 86bf
00000320: d445 36be 97ae 793f 3c58 03bf 9b49 3c3f
00000330: 18b5 863e fbd9 a6bd 650d ccbe a1ce f2be
00000340: 2e75 a839 e270 a4be 1769 85bc 76d4 0dbf
00000350: ec3a 21bf aa47 573e 2478 ceba c96c 66be
00000360: 5fd0 dcbe 4bcd 05bf 6c84 febe 0d89 27bf
00000370: ec31 e7be dcb5 9abb ca50 10be 3d06 7b3e
00000380: f21d 2abe 8d1c 73bd 540b c1bc b35e 05bf
00000390: 3b28 02bf 86ba 38bd c99d 0abf a0a9 493e
000003a0: 1a7c 3d3e 6214 863e 6403 843e 7e60 22bd
000003b0: f96b aa3d cd58 663e 62e7 0d3e 9e16 06be
000003c0: ff8f dc3e 1027 983e cbaf 2fbe 468d d3bf
000003d0: 0e16 a8bf 29fa 31c0 f0ca 85bf 3a78 f83f
000003e0: ecb3 27bf 9e92 ae3d da12 23bc 7ccb b03d
000003f0: e76a 99be 40dd 36bf 1b88 a33e e25b 14bf

layers.0.fc_r.bias f4 [32]
0.32346475 0.47816753 0.4115381 0.002813966 0.056571137 0.3120909 -0.25344765 -0.6519258
-0.14814338 -0.37664938 0.2512729 0.06687673 0.41669354 -0.27697566 0.3053244 -0.1957242
0.22900492 -0.13181587 0.49180233 0.0822332 0.23883145 0.47017166 -0.5415499 -0.40076548
-0.7707761 0.1739427 1.223857 -0.19749151 0.19381492 -0.25034955 0.18179399 0.18910125
00000000: 2c9d a53e 60d2 f43e 1fb5 d23e 846a 383b
00000010: 23b7 673d 61ca 9f3e e4c3 81be 9ce4 26bf
00000020: e6b2 17be 30d8 c0be d7a6 803e abf6 883d
00000030: db58 d53e c1cf 8dbe 7b53 9c3e ed6b 48be
00000040: 4480 6a3e bdfa 06be 84cd fb3e e169 a83d
00000050: 3b90 743e 57ba f03e 04a3 0abf 2231 cdbe
00000060: 9551 45bf 091e 323e 59a7 9c3f 373b 4abe
00000070: 6b77 463e d12d 80be 3428 3a3e c2a3 413e

layers.0.fc_i.weight f4 [32, 121]
-0.30554706 -0.18034297 -0.05684108 -1.6979688 -0.10039617 -0.9264459 1.7656097 1.8844608
1.8838849 0.3453343 0.6211456 0.42832014 -0.29608664 0.571669 0.5552245 0.85675055
-0.17219627 0.42375675 0.38704905 0.21137755 0.9377214 -1.3238101 0.33356372 0.8149415
-0.84104 -1.8743652 -1.4750527 0.31572288 0.32717413 0.46004623 0.85614693 -0.25646737
-0.8166001 -0.03217396 -0.47655702 -0.33210415 0.25461498 0.2559267 0.5989861 0.59393805
1.0900675 0.010597796 0.85103077 -0.23955238 0.105073564 0.46181428 1.8234657 0.82710177
0.21753544 1.487249 0.65328497 0.20030245 -0.7626708 -0.6435457 -0.23352826 -0.53047985
0.2203199 0.018239575 -0.025976988 0.1830117 0.35775867 0.05999768 -0.0011430437 0.3889556
0.3935867 0.91183245 -0.1959973 -0.27145416 -1.3742402 -0.9184236 -0.23280585 -0.31710523
0.2469225 0.11316239 0.28563273 -0.6748846 -0.023144227 -0.11440543 -0.05776793 0.46410915
-0.037917335 -0.16009066 -0.08063083 -0.8444605 -0.3363251 -0.055741616 -0.48896098 0.32259265
-0.61673754 0.22344518 0.45716956 -0.4639092 -0.019714577 0.4407753 -0.08136389 -0.5015328
-0.18910201 0.13765608 -0.10905841 -0.32440558 0.101845704 -0.14873053 -0.29778376 0.5563973
-0.93915737 -0.06327544 0.447015 -0.27599555 -0.094780296 0.016265012 -0.22390194 0.32943714
0.16287927 0.004246744 0.16476323 0.06771925 0.37669638 0.35244668 0.23704363 0.4562848
0.7213774 0.8150115 2.9157505 -0.33945855 1.8454701 -0.4860752 -0.9512898 0.19788074
-1.3983552 -0.018321281 0.08673249 0.5301404 -0.10789475 0.27730435 0.72574836 -0.51004356
-0.05687161 -0.15612723 0.58040327 -0.7343576 -0.029189484 0.7943152 -1.2823122 -0.9781407
-0.37417632 -2.0800803 0.28601345 -0.49544132 1.9691645 -0.85237896 0.29892972 0.15417837
-0.029238777 0.67622435 -1.0283746 -0.7529879 -0.22173329 0.5425379 0.04924171 -0.5391436
-0.06311013 0.09042376 0.22668369 0.20660682 0.074705034 -0.6520341 -1.3175035 0.11001094
-0.59270966 -0.134824 0.06603823 0.18336536 -1.4184177 -0.4625061 -0.14884083 -0.9367165
-0.56950444 0.21647058 -0.2777196 0.27751577 0.074616954 -0.32183927 -1.1530839 -0.32516456
-0.560608 -0.71944237 -0.43023163 0.123800166 -0.32280704 0.27390137 0.26632872 -0.05493415
-0.0929363 0.061549895 -0.22275238 -1.2433285 -1.0946664 -0.52337605 -0.0429095 -0.9184246
-0.50403416 -0.27845058 -0.37348446 -0.2524815 -0.71352756 -0.13615029 -0.07258438 -0.3674294
-0.44839805 -0.38143212 -0.15862226 -0.8307235 -0.34258768 -0.630812 -0.547815 0.11222624
-0.3752683 -0.18938047 -0.54005873 0.26570565 -0.51820415 0.17723995 -0.026882065 -0.030176016
-0.17866905 -0.03251503 0.04179195 0.02368862 -0.4024725 -0.17336442 -0.10374434 0.0790433
0.63366735 0.15133074 -0.05173937 0.46617156 -0.01927368 0.066320285 -0.02052432 0.039490767
0.14799982 -0.12342172 0.6921055 1.7192185 0.64476866 -0.52295506 -0.46954715 -1.4738454
-0.036223367 0.052549046 -0.15793483 -0.09289233 1.4909122 -0.73466134 0.4255075 0.6555883
00000000: aa70 9cbe d4ab 38be 31d2 68bd 0b57 d9bf
00000010: 829c cdbd 8f2b 6dbf 80ff e13f 0336 f13f
00000020: 2423 f13f a8cf b03e 6603 1f3f c74c db3e
00000030: ab98 97be e658 123f 3123 0e3f 0154 5b3f
00000040: 3854 30be a5f6 d83e 4b2b c63e 5b73 583e
00000050: 820e 703f 9c72 a9bf ddc8 aa3e 02a0 503f
00000060: 664e 57bf 33eb efbf 87ce bcbf 6ea6 a13e
00000070: 5e83 a73e 2e8b eb3e 722c 5b3f b14f 83be
00000080: b40c 51bf d8c8 03bd 48ff f3be 8e09 aabe
00000090: e55c 823e d308 833e 2757 193f 530c 183f
000000a0: 5587 8b3f 61a2 2d3c 27dd 593f 384d 75be
000000b0: cf30 d73d ec72 ec3e 5367 e93f f1bc 533f
000000c0: 9cc1 5e3e 2d5e be3f af3d 273f 161c 4d3e
000000d0: 653e 43bf 69bf 24bf 0822 6fbe 87cd 07bf
000000e0: 8a9b 613e 296b 953c b1cd d4bc 6b67 3b3e
000000f0: 252c b73e 21c0 753d 2fd2 95ba 3025 c73e
00000100: 3284 c93e da6d 693f 84b3 48be 0afc 8abe
00000110: 1ae7 afbf cf1d 6bbf a864 6ebe 9e5b a2be
00000120: 40d9 7c3e afc1 e73d 743e 923e 3dc5 2cbf
00000130: f698 bdbc 654d eabd 119e 6cbd b79f ed3e
00000140: 354f 1bbd ceee 23be c721 a5bd 902e 58bf
00000150: ce32 acbe 5251 64bd 1859 fabe dd2a a53e
00000160: 83e2 1dbf d0ce 643e 2112 ea3e 8285 edbe
00000170: 7780 a1bc 4dad e13e 1ca2 a6bd 7464 00bf
00000180: f5a3 41be b7f5 0c3e 045a dfbd 7d18 a6be
00000190: 7b94 d03d d14c 18be 1d77 98be 0e70 0e3f
000001a0: 9e6c 70bf 8e96 81bd 26df e43e 4a4f 8dbe
000001b0: 2c1c c2bd 343e 853c 8d46 65be fcab a83e
000001c0: d3c9 263e 4528 8b3b b1b7 283e 64b0 8a3d
000001d0: 59de c03e e473 b43e 91bb 723e 299e e93e
000001e0: 30ac 383f 98a4 503f a89b 3a40 83cd adbe
000001f0: 5d38 ec3f d9de f8be ba87 73bf 40a1 4a3e
00000200: 4efd b2bf 8316 96bc cea0 b13d 48b7 073f
00000210: ecf7 dcbd d6fa 8d3e a5ca 393f 3792 02bf
00000220: 35f2 68bd d1df 1fbe 4f95 143f dcfe 3bbf
00000230: c91e efbc 3e58 4b3f ce22 a4bf 6e67 7abf
00000240: 0a94 bfbe 0920 05c0 5b70 923e 7caa fdbe
00000250: 950d fc3f 8235 5abf 510d 993e efe0 1d3e
00000260: 2986 efbc 0a1d 2d3f c7a1 83bf d1c3 40bf
00000270: 0d0e 63be c4e3 0a3f adb1 493d 5105 0abf
00000280: e23f 81bd 1830 b93d c51f 683e bd90 533e
00000290: f4fe 983d b5eb 26bf f4a3 a8bf 6a4d e13d
000002a0: d2bb 17bf 4d0f 0abe 0d3f 873d 21c4 3b3e
000002b0: b68e b5bf 99cd ecbe bb69 18be a7cc 6fbf
000002c0: 0bcb 11bf 77aa 5d3e 4331 8ebe 8c16 8e3e
000002d0: c6d0 983d 1ec8 a4be 4198 93bf f87b a6be
000002e0: 0284 0fbf 602d 38bf 5247 dcbe f18a fd3d
000002f0: f746 a5be cd3c 8c3e 3d5c 883e a202 61bd
00000300: 6355 bebd be1b 7c3d 3319 64be 6325 9fbf
00000310: 071e 8cbf f9fb 05bf dfc1 2fbd e01d 6bbf
00000320: 6208 01bf 1391 8ebe 5b39 bfbe 4145 81be
00000330: bea9 36bf fb6a 0bbe 1fa7 94bd b51f bcbe
00000340: 6e94 e5be 124b c3be e06d 22be 4caa 54bf
00000350: a767 afbe e57c 21bf 9b3d 0cbf dfd6 e53d
00000360: 2b23 c0be f4ec 41be 4a41 0abf 920a 883e
00000370: 07a9 04bf 647e 353e c737 dcbc b133 f7bc
00000380: 05f5 36be 7b2e 05bd 092e 2b3d a30e c23c
00000390: e010 cebe 7186 31be ea77 d4bd 74e1 a13d
000003a0: 0638 223f 72f6 1a3e a9ec 53bd 0aae ee3e
000003b0: d6e3 9dbc eed2 873d 9e22 a8bc 12c1 213d
000003c0: 448d 173e 87c4 fcbd d32d 313f 5a0f dc3f
000003d0: 8f0f 253f 62e0 05bf 7c68 f0be f7a6 bcbf
000003e0: f45e 14bd ab3d 573d abb9 21be 553e bebd
000003f0: 36d6 be3f c412 3cbf 1edc d93e a3d4 273f

layers.0.fc_i.bias f4 [32]
0.111970544 0.55722564 0.6737898 0.35022083 -0.44943705 0.7865906 0.19629847 0.51251256
-0.38606068 0.18618603 0.30513224 0.41899163 1.0503492 0.68429106 0.019110447 0.09792217
-0.04755006 0.28363767 0.6285636 0.68315667 -0.12659888 0.41949207 0.25515893 0.010539815
0.5544778 -0.36369467 0.35813996 -0.5904372 0.134356 0.26992625 0.037050594 0.33028078
00000000: d050 e53d 57a6 0e3f 7d7d 2c3f 2550 b33e
00000010: 9d1c e6be 005e 493f 7702 493e 0634 033f
00000020: bfa9 c5be 8da7 3e3e 4b3a 9c3e 1286 d63e
00000030: d871 863f b32d 2f3f 838d 9c3c 6b8b c83d
00000040: dac3 42bd f538 913e 8be9 203f 5be3 2e3f
00000050: 23a3 01be aac7 d63e 31a4 823e 30af 2c3c
00000060: 42f2 0d3f 3036 babe 1f5e b73e e426 17bf
00000070: 9f94 093e c633 8a3e 5dc2 173d 901a a93e

layers.2.fc_r.weight f4 [16, 32]
0.9626319 -1.6067137 -2.9527242 -2.4917288 -0.76061445 -1.0195854 -3.280077 -1.8581339
0.5629854 3.273116 0.6065803 0.5782698 0.033214413 4.1785216 1.176605 -2.5001178
1.5968772 -1.4475049 -0.51432383 -0.25135204 0.42558843 0.6433576 -1.832337 -4.0319223
4.5480084 2.1946013 -1.1706291 0.29498768 0.33414823 -3.716836 1.6411176 -0.46542937
2.0736997 -3.1213875 -3.18034 -1.2927083 -0.7025362 -2.7802987 -5.512083 1.1092125
-0.14125247 3.2925355 -1.5246496 -1.3521618 -2.8943925 1.3683777 3.1675582 -0.7323135
2.7572696 1.1574838 -2.9381785 -1.2530975 1.6423242 -0.08559389 -4.440423 -4.5765295
1.2667865 -1.0387814 -1.7222914 1.6360987 2.9784591 -3.6698225 1.3962783 1.4248608
1.2032747 -0.32467195 -0.10279902 0.08224243 -2.3648348 -1.1957264 -3.340756 -1.1469741
-0.018937934 17.14688 2.9809434 -0.6120098 -0.34079278 -1.806392 1.8918252 -2.372006
0.97333133 -0.80266523 0.16811913 -0.76005554 0.67386216 1.0038251 -1.1922295 -5.9639587
0.46170375 -0.14420438 -0.87623036 0.63832235 1.0084673 0.55159634 1.2153242 -0.19078727
1.8845387 -1.1331961 0.16568254 0.6574764 -1.0180345 -2.0335944 -4.2395816 3.2588816
-0.35162485 9.164262 0.034624163 -2.5325043 -1.317351 1.4168698 0.60195553 -4.2422166
0.49326637 -0.47359413 -1.1602354 -0.9258911 2.7063308 0.3228658 -0.66507745 -1.6762238
1.5247751 0.5956048 -0.75674564 0.80890286 1.9872209 -5.291106 0.36443463 -0.94288987
1.1968554 -2.0961778 -2.8612185 -0.0975044 -1.1913779 -2.463039 -6.4767494 2.605422
0.31831473 2.871186 -0.19105352 -1.710571 -1.1740321 2.7303843 2.3138964 0.6712508
2.5054882 -0.44063863 -2.568244 -0.7954142 2.196 -0.7500425 0.90492386 -1.7344998
2.785355 -0.81200004 -1.3025218 -0.5493121 1.7672836 -2.2575953 0.6607672 1.1020217
0.61140096 0.8341125 -2.234584 -0.13603571 -1.6905648 -0.7742176 -2.6990786 1.7926716
0.16918972 13.484234 2.7692735 -2.5013978 -0.11174531 0.26490358 2.3429863 -3.407546
2.2254307 -2.4927604 0.40168312 -0.11316131 1.5711436 -0.27977312 2.9211454 -2.0066018
4.52911 -0.015305531 -1.0126705 0.0031358039 1.6992867 0.4217279 1.0846 -1.4843491
0.7785607 -1.0401644 -2.757176 3.2160716 4.0226626 -0.7271516 1.7315755 0.70718056
-1.6443753 6.0284123 -0.54504156 -3.533177 -0.03162491 0.7209842 -0.34316915 -1.5808957
0.67442584 0.67982495 -0.6312859 -0.6502694 0.96032095 -1.8381187 -2.108099 -4.531313
0.13516586 -1.921874 -1.6297687 0.29726702 -1.5213113 -1.5778874 -0.79550034 0.96983093
1.8642153 -1.0380893 -0.8077634 -0.2961131 -0.98718446 -2.1412582 -4.079433 1.4067693
-0.8069697 5.0416737 -0.3348689 -2.0724938 -0.24529307 2.6564565 1.2724777 -3.6601558
0.8880517 2.2275696 -0.33972335 -0.93329126 -0.15435691 -0.57625926 0.05711099 -2.0567358
1.6478962 0.9067367 0.5995323 1.0154724 0.6531378 -1.8998342 0.76143897 -0.06607122
00000000: 0b6f 763f cba8 cdbf 6ff9 3cc0 7c78 1fc0
00000010: a1b7 42bf c681 82bf c8ec 51c0 55d7 edbf
00000020: d01f 103f bc7a 5140 d948 1b3f 7d09 143f
00000030: d60b 083d 73b6 8540 fe9a 963f ee01 20c0
00000040: 7966 cc3f d747 b9bf baaa 03bf 37b1 80be
00000050: bae6 d93e 15b3 243f 058a eabf 8205 81c0
00000060: 4989 9140 5974 0c40 2dd7 95bf a008 973e
00000070: 7a15 ab3e a4e0 6dc0 2410 d23f c24c eebe
00000080: 7fb7 0440 d0c4 47c0 b18a 4bc0 7777 a5bf
00000090: 6ad9 33bf 6af0 31c0 fc62 b0c0 adfa 8d3f
000000a0: 7da4 10be e7b8 5240 b827 c3bf a313 adbf
000000b0: ba3d 39c0 0027 af3f 46b9 4a40 e678 3bbf
000000c0: 1b77 3040 6e28 943f 1e0b 3cc0 8065 a0bf
000000d0: ae37 d23f d94b afbd f217 8ec0 ee72 92c0
000000e0: 0f26 a23f caf6 84bf 0b74 dcbf af6b d13f
000000f0: 139f 3e40 5fde 6ac0 3fb9 b23f d761 b63f
00000100: e804 9a3f 673b a6be 4b88 d2bd b86e a83d
00000110: 7459 17c0 900d 99bf f2ce 55c0 0cd0 92bf
00000120: ba23 9bbc cf2c 8941 c7c7 3e40 adac 1cbf
00000130: 647c aebe da37 e7bf 5427 f23f f2ce 17c0
00000140: 3e2c 793f 787b 4dbf 6c27 2c3e 0093 42bf
00000150: 3b82 2c3f 577d 803f fa9a 98bf c0d8 bec0
00000160: 6f64 ec3e 50aa 13be a250 60bf 1869 233f
00000170: 7515 813f 6b35 0d3f be8f 9b3f bd5d 43be
00000180: 9038 f13f 920c 91bf afa8 293e 6050 283f
00000190: f44e 82bf 6926 02c0 a7aa 87c0 8491 5040
000001a0: 2c08 b4be d1a0 1241 11d2 0d3d 8d14 22c0
000001b0: f59e a8bf fd5b b53f c219 1a3f 3dc0 87c0
000001c0: 698d fc3e ee7a f2be 9882 94bf 3307 6dbf
000001d0: 8634 2d40 ab4e a53e 8442 2abf 808e d6bf
000001e0: d52b c33f 8e79 183f 15ba 41bf 4214 4f3f
000001f0: 415d fe3f be50 a9c0 2d97 ba3e 3b61 71bf
00000200: 8f32 993f c727 06c0 341e 37c0 63b0 c7bd
00000210: 127f 98bf 6ea2 1dc0 8841 cfc0 3cbf 2640
00000220: 26fa a23e 83c1 3740 89a3 43be fef3 dabf
00000230: af46 96bf 9ebe 2e40 e116 1440 18d7 2b3f
00000240: eb59 2040 639b e1be 1c5e 24c0 44a0 4bbf
00000250: 448b 0c40 c902 40bf 17a9 673f 1704 debf
00000260: 4243 3240 3cdf 4fbf 09b9 a6bf b89f 0cbf
00000270: 5936 e23f 717c 10c0 0a28 293f 0c0f 8d3f
00000280: c684 1c3f 6688 553f 6d03 0fc0 f24c 0bbe
00000290: 6d64 d8bf 2033 46bf b4bd 2cc0 4376 e53f
000002a0: 1240 2d3e 6cbf 5741 c73b 3140 e716 20c0
000002b0: bada e4bd 71a1 873e 7df3 1540 3c15 5ac0
000002c0: 756d 0e40 6389 1fc0 69a9 cd3e 1ec1 e7bd
000002d0: 3c1b c93f 6c3e 8fbe 0cf4 3a40 2a6c 00c0
000002e0: 78ee 9040 0dc4 7abc 309f 81bf 0f82 4d3b
000002f0: 3a82 d93f b8ec d73e 2cd4 8a3f 27ff bdbf
00000300: c14f 473f 1b24 85bf 9275 30c0 1ed4 4d40
00000310: a7b9 8040 9b26 3abf 44a4 dd3f c909 353f
00000320: e47a d2bf c1e8 c040 d887 0bbf 921f 62c0
00000330: 1f89 01bd 6c92 383f deb3 afbe ca5a cabf
00000340: 2ca7 2c3f 0209 2e3f f49b 21bf 0e78 26bf
00000350: 98d7 753f 7947 ebbf 18eb 06c0 8400 91c0
00000360: eb68 0a3e f8ff f5bf 439c d0bf 6233 983e
00000370: 54ba c2bf 37f8 c9bf e9a5 4bbf d746 783f
00000380: 9b9e ee3f 1ce0 84bf 95c9 4ebf 239c 97be
00000390: 1fb8 7cbf 600a 09c0 b78a 82c0 0411 b43f
000003a0: 9195 4ebf 6455 a140 f073 abbe bda3 04c0
000003b0: 1b2e 7bbe 6203 2a40 8de0 a23f fe3f 6ac0
000003c0: 5b57 633f 8090 0e40 38f0 adbe 2dec 6ebf
000003d0: bd0f 1ebe ba85 13bf 37ed 693d 8fa1 03c0
000003e0: 43ee d23f e51f 683f f37a 193f 00fb 813f
000003f0: 0a34 273f c42d f3bf aaed 423f 5950 87bd

layers.2.fc_r.bias f4 [16]
-1.1403853 -1.4438453 -0.91966337 -1.2555091 -1.6982598 -0.94349945 -0.3738451 -0.74867964
-0.5720711 -1.1854843 -0.9742457 -0.43553776 -1.1893351 -0.8992595 -0.22886199 -0.06722465
00000000: 25f8 91bf eccf b8bf 0f6f 6bbf 86b4 a0bf
00000010: 9460 d9bf 2e89 71bf a068 bfbe 78a9 3fbf
00000020: 4073 12bf f3bd 97bf 2b68 79bf cefe debe
00000030: 223c 98bf df35 66bf cc5a 6abe 14ad 89bd

layers.2.fc_i.weight f4 [16, 32]
-0.6896054 0.60197544 1.076317 -2.9408574 -1.6883914 -0.44960338 0.28243685 -0.84346694
2.0702026 -3.9930534 2.8251085 2.0731602 0.89284515 0.1322378 -0.69649726 0.6460901
-0.34378794 -2.0716858 1.2378643 1.5932851 -1.0278251 2.7449749 8.225794 3.2463536
-1.2500772 3.3162155 1.8608997 1.3822 1.3145605 -0.26484546 1.4555795 -1.0909916
-0.64687777 -2.0856097 -0.5230301 -3.8868005 -2.349389 0.27374393 -3.8071148 -1.4537388
-0.667697 0.52334696 2.7765596 1.982183 0.56340414 -0.6724915 2.1777167 -0.8714335
0.8594093 -4.1379576 0.98021847 1.5796491 2.3767161 1.1318647 2.4985478 0.9616565
0.16067909 2.5291262 0.22993402 1.0968837 1.7918228 2.599729 -0.2046879 -2.4759355
-0.31066146 1.1763066 1.1894115 -3.7717314 -2.8271248 -0.11717293 1.1957399 -0.55255246
-0.5900701 -7.3619404 1.9976937 2.6059883 1.2531717 -1.026719 1.1113364 1.0988446
-0.62215257 -1.200793 0.1373491 0.6271639 -0.12198926 1.877968 -1.8554887 0.92776793
-0.48547187 2.4502728 1.8120697 -0.7473535 0.1342259 1.00972 1.3142573 -0.103925884
-0.59345895 2.0955606 0.16525224 -3.6739962 -2.0473363 1.2689886 2.099018 -0.37250385
1.533939 -0.7909201 1.450116 1.6400043 2.0779016 -0.98421264 -2.0983768 -0.4621501
0.1277395 -2.6098578 1.9915812 1.4641311 -0.8862768 2.3735595 -1.5189706 3.1085455
-0.7425522 0.31100476 1.048076 -0.24485892 -0.24684545 -2.6680362 -0.035377063 -0.74449503
-1.9788487 1.7110528 1.5744236 -2.8761373 -0.5544451 1.8765371 4.3401113 -0.3371137
-0.29527548 -1.4835684 0.925055 0.37600282 -0.08498514 0.6271703 -2.4027536 1.3937443
-1.0200317 -2.3816805 1.455108 1.2615844 -1.2089604 1.3000277 6.564063 2.909324
0.49687904 9.774077 1.5898598 0.9521659 -0.89630425 -3.5033817 1.2045537 0.69924206
-1.244675 1.4482158 0.7151618 -1.1687303 -1.7711657 2.2088306 3.7247915 0.071677506
0.8415325 -5.294414 1.6295444 2.593308 1.5707444 -1.1821846 -1.6714141 2.1414196
-1.8692185 -2.1747932 1.1076136 1.4529246 -2.0469184 1.9893261 0.5521342 0.25341138
-0.013679379 1.0073677 0.16707729 1.3788084 -0.26977032 1.2791954 0.52043 -0.2464695
2.9186683 -1.8625665 -2.7741156 -1.0071982 -0.6737268 -2.744088 -2.9768534 1.6242026
-1.1395032 11.091857 1.3125592 -0.17182547 -0.7614631 3.7267349 1.697505 -3.488643
1.4880269 -1.5869927 -1.3690596 -0.7297207 0.5507664 0.035346612 -2.8788705 -4.498148
3.6806936 -0.102258705 -1.5174305 1.33013 1.7374827 2.238786 0.29103523 1.2543585
-2.1833487 0.75822586 0.055237196 -3.2147744 -1.4350213 -0.37790936 1.0617579 0.061232883
0.62985724 0.7913661 1.2088282 1.6403768 2.2511907 -1.5348866 -1.9018546 2.4940789
-1.1054178 -1.607452 -0.7428733 0.5089979 0.41880372 0.89118403 -1.346231 1.498565
-0.15712301 2.8251455 0.49450028 1.1741784 -1.3020709 1.361438 0.43383315 -2.6521535
00000000: fb89 30bf 101b 1a3f c1c4 893f 0237 3cc0
00000010: 361d d8bf 6a32 e6be 909b 903e 73ed 57bf
00000020: 337e 0440 308e 7fc0 94ce 3440 a8ae 0440
00000030: 8091 643f 5969 073e a54d 32bf 2966 253f
00000040: f904 b0be 8096 04c0 5672 9e3f c4f0 cb3f
00000050: c68f 83bf abad 2f40 da9c 0341 42c4 4f40
00000060: 8802 a0bf e03c 5440 f631 ee3f eeeb b03f
00000070: 8543 a83f d399 87be 6e50 ba3f 9da5 8bbf
00000080: c899 25bf a17a 05c0 4de5 05bf 57c1 78c0
00000090: 645c 16c0 2a28 8c3e c5a7 73c0 1d14 babf
000000a0: 31ee 2abf 11fa 053f 27b3 3140 2cb8 fd3f
000000b0: 413b 103f 6728 2cbf b65f 0b40 4416 5fbf
000000c0: 3f02 5c3f 266a 84c0 99ef 7a3f f131 ca3f
000000d0: 1e1c 1840 f1e0 903f 35e8 1f40 1f2f 763f
000000e0: 0f89 243e 34dd 2140 d373 6b3e af66 8c3f
000000f0: 735a e53f f661 2640 b499 51be ba75 1ec0
00000100: 050f 9fbe 3791 963f a33e 983f 0c64 71c0
00000110: 9def 34c0 5cf8 efbd 010e 993f 1474 0dbf
00000120: d60e 17bf 0495 ebc0 6db4 ff3f 83c8 2640
00000130: ee67 a03f 876b 83bf 4540 8e3f f1a6 8c3f
00000140: 6445 1fbf 96b3 99bf 3ea5 0c3e d08d 203f
00000150: 81d5 f9bd 4161 f03f a780 edbf 3382 6d3f
00000160: c58f f8be 45d1 1c40 e6f1 e73f 8f52 3fbf
00000170: 8472 093e 813e 813f 9539 a83f 18d7 d4bd
00000180: edec 17bf aa1d 0640 e237 293e c122 6bc0
00000190: 8f07 03c0 386e a23f 5056 0640 d3b8 bebe
000001a0: 1d58 c43f bd79 4abf 679d b93f a9eb d13f
000001b0: 57fc 0440 5cf5 7bbf ce4b 06c0 f09e ecbe
000001c0: 25ce 023e e907 27c0 22ec fe3f a668 bb3f
000001d0: 09e3 62bf 66e8 1740 a16d c2bf 69f2 4640
000001e0: e717 3ebf 043c 9f3e 5b27 863f 4cbc 7abe
000001f0: 0ec5 7cbe 1bc1 2ac0 8ae7 10bd 3a97 3ebf
00000200: ea4a fdbf c703 db3f b686 c93f a212 38c0
00000210: 1df0 0dbf 5e32 f03f 31e2 8a40 2b9a acbe
00000220: 592e 97be 92e5 bdbf 68d0 6c3f 7183 c03e
00000230: b00c aebd 3c8e 203f b7c6 19c0 3766 b23f
00000240: 6690 82bf 746d 18c0 fb40 ba3f 997b a13f
00000250: 37bf 9abf 4f67 a63f ce0c d240 5d32 3a40
00000260: ee66 fe3e 9f62 1c41 8780 cb3f 25c1 733f
00000270: 3274 65bf 6837 60c0 d12e 9a3f 8701 333f
00000280: 8351 9fbf 235f b93f d814 373f f498 95bf
00000290: 8fb5 e2bf 7b5d 0d40 fc62 6e40 a8cb 923d
000002a0: ad6e 573f d76b a9c0 e994 d03f c2f8 2540
000002b0: 270e c93f d351 97bf e6f0 d5bf 050d 0940
000002c0: 8d42 efbf d02f 0bc0 48c6 8d3f 6ff9 b93f
000002d0: b600 03c0 3da2 fe3f ab58 0d3f 23bf 813e
000002e0: 791f 60bc 6df1 803f 4f16 2b3e cb7c b03f
000002f0: 561f 8abe adbc a33f e73a 053f 8062 7cbe
00000300: 76cb 3a40 9468 eebf 1c8b 31c0 dfeb 80bf
00000310: 5c79 2cbf 239f 2fc0 c484 3ec0 dfe5 cf3f
00000320: 3edb 91bf 3f78 3141 f101 a83f 04f3 2fbe
00000330: 3fef 42bf d382 6e40 d847 d93f ed45 5fc0
00000340: aa77 be3f 9422 cbbf 583d afbf face 3abf
00000350: 07ff 0c3f 9cc7 103d 6a3f 38c0 d4f0 8fc0
00000360: 7c90 6b40 036d d1bd 2a3b c2bf b341 aa3f
00000370: d565 de3f 4548 0f40 9202 953e d28e a03f
00000380: fcbb 0bc0 171b 423f 6640 623d ddbe 4dc0
00000390: c7ae b7bf 567d c1be afe7 873f 55cf 7a3d
000003a0: 533e 213f f896 4a3f e2ba 9a3f def7 d13f
000003b0: 8213 1040 2a77 c4bf f96f f3bf fd9e 1f40
000003c0: 557e 8dbf fdc0 cdbf f22c 3ebf b04d 023f
000003d0: 716d d63e a324 643f 4c51 acbf fad0 bf3f
000003e0: dbe4 20be 2fcf 3440 242f fd3e 7a4b 963f
000003f0: 42aa a6bf 9a43 ae3f 611f de3e e2bc 29c0

layers.2.fc_i.bias f4 [16]
1.262726 -0.5397348 0.75784266 0.14047366 1.110913 1.0039307 -0.9318297 -0.31111857
-0.53080124 -0.31984082 0.010765969 -1.2127821 0.007977404 -0.9283548 1.208547 -0.6311269
00000000: 01a1 a13f 0f2c 0abf fa01 423f 54d8 0f3e
00000010: 6632 8e3f cd80 803f 648c 6ebf ef4a 9fbe
00000020: 97e2 07bf 2dc2 a3be bf63 303c 723c 9bbf
00000030: a8b3 023c a9a8 6dbf abb1 9a3f 8891 21bf

out.weight f4 [1, 32]
64.80633 61.593365 63.17355 58.644794 78.906075 63.586224 -41.3518 59.68139
60.179234 61.559013 57.454315 52.145542 57.985374 -32.770924 63.95939 -36.687004
64.17429 63.534542 55.315884 60.170387 61.838074 59.22429 62.007935 59.69608
62.038486 64.01463 60.793575 53.80513 62.52561 59.53787 54.947823 53.262444
00000000: d79c 8142 9b5f 7642 b7b1 7c42 4594 6a42
00000010: e9cf 9d42 4b58 7e42 3e68 25c2 beb9 6e42
00000020: 89b7 7042 6e3c 7642 38d1 6542 0995 5042
00000030: 06f1 6742 6d15 03c2 6ad6 7f42 7ebf 12c2
00000040: 3d59 8042 5f23 7e42 7743 5d42 7aae 7042
00000050: 305a 7742 ace5 6c42 2008 7842 c9c8 6e42
00000060: 6927 7842 7e07 8042 9f2c 7342 7438 5742
00000070: 3a1a 7a42 c726 6e42 92ca 5b42 be0c 5542
