trained_models/NN_tuned_complex_concat/NN_32-16.pth (torch, 38599 bytes, 9 tensors)

layers.0.fc_r.weight f4 [32, 121]
00000000: ccb5 713f 47a4 443f 481d fbbe fcea be3f
00000010: 099e 83be eaf5 c2bd 6c8a eabe 830d fb3e
00000020: 9a17 e13e 8891 e83e afec 343f 94ca ffbc
00000030: 77cc 993f 1718 32bf 5ff0 993e 3d88 e8be
00000040: 7a8f 6e3f 52d6 223f f9be 3f3f d903 a6be
00000050: 952d 0b3f bf0c 1a3f a135 3c3f c748 a63d
00000060: 50c8 06bf 80da 0fbf d679 21be eb93 293d
00000070: ae2e ee3e bbd2 5cbd 05c0 d2bd 327d 2b3d
00000080: 1cf6 183f 56c5 0f3e 6c80 97be 8595 a63e
00000090: 1291 043f ec8f f1be 263d 993e 4233 c73e
000000a0: 4815 84be 58d1 323e 57ec c1be 9c78 333f
000000b0: 3b88 05be 4b7c 51be f364 d4bd f14a a03e
000000c0: 53cd b33e 5c03 e5be 6417 55be 7839 0f3f
000000d0: 65ad b13e 0220 c4be 78eb 5b3e f1f6 923e
000000e0: 738a e0bd 2e2e f4bd 46df 26be 5da9 e1be
000000f0: ffb6 dcbd 23f1 81bd 4052 a9be 8768 febe
00000100: fe5e 14be bde0 25be 58cf 17bd 6020 d4be
00000110: 3fbb a7be 14d6 23be 8877 f6bd 8626 523d
00000120: ac0f 1abe 63a0 21bd ba6c c0bc 0930 8a3e
00000130: 52b7 b83e ca51 083e a3fd a53e 50a9 0dbe
00000140: 772b 56be 6d80 9b3d e541 b53d 4486 b43c
00000150: 03be c0be c160 97bd 4707 533d b059 d2be
00000160: c2c2 683e 0c4d 9c3c 135e 4e3d c85a 96be
00000170: 7e46 b7be 37cb 94be d560 83be 1567 97bd
00000180: bd65 76be 4f0a 2ebd c6fd 39be 958c 57be
00000190: dc50 3abe 4940 5c3e 8e2f 22bd b785 e03d
000001a0: 958f 083e 1069 6d3d 2842 d33d f5db 9e3d
000001b0: 468d 67bd d34f 77bd b244 6dbe 15e3 6c3d
000001c0: 663d 303e 7793 f8bd 3ac2 793d 3277 edbd
000001d0: 2da0 7a3e 4ca9 7b3d f901 febd 2385 a8bd
000001e0: 1f0e 2bbc 45b2 0ebd 1202 6bbf f064 8e3f
000001f0: 9b0c 4a40 2318 813f fe5d 663f bd03 403e
00000200: 563a 70be 5b41 e03c 5fb7 1cbf 37ac 99bf
00000210: 0b2c b6bf 3d63 003f 8719 dc3d 956b b23e
00000220: 9b24 c53e 6a61 9abd 5b63 85bf a8b6 55bf
00000230: dc99 cb3e 8300 903f 3d59 543e 8d05 a0be
00000240: 129f a3be eac5 ab3e 6c54 4a3f 5e79 463c
00000250: a921 55be 472c 37be 6279 68bf 81af cabf
00000260: aee7 c7bc 379c f43e 375b a73f 7874 503c
00000270: fee2 553f d881 283f d093 f33e 91b5 263f
00000280: 01a6 663e 29bd c53e 3e81 5a3d 60b2 acbd
00000290: 93c1 953e 0a80 2c3e 1f44 ed3e fa32 44be
000002a0: 7737 39bf 79e7 15bf f742 43bd d857 9c3e
000002b0: e82c c53e 2bc1 553e 05f6 3d3e 9c3c 82be
000002c0: c9c5 f63e ed22 ef3c c78c a0be 45a7 053f
000002d0: 39a5 b23d 58c9 92be 6507 5abe 5eda 20bf
000002e0: d5de ffbc 46cd cb3e cbc6 16bf d6bf dabd
000002f0: 98bc 06bf b28c 69bf 761d c1be 190a acbe
00000300: 4700 8cbc cd37 e3be 42b4 00bd e4cf 7b3e
00000310: 301b 56bd 798b 9d3e ebb3 ea3d 1273 0c3e
00000320: 5fb0 9abe 36dd 85be 2810 4dbe 2470 0a3f
00000330: 6897 aebc 754e 0b3f c508 e33e c845 013f
00000340: 55f2 c63e 865f 8fbd 1f1a c2be bac4 32bf
00000350: 8674 be3e 9b17 81be 1df6 e83d fd4a 2fbe
00000360: 34f2 223e cd32 19bc 86ba 693e e02b 783e
00000370: e35f 83bd 909f e7bd 55eb c7be 2014 6ebe
00000380: 0d8c 0bbe b573 153e 5ec8 a0be ae20 583d
00000390: eacd 083d bf08 bfbd ddfd 10be 8d44 8abc
000003a0: a423 a7bc 6861 913e 3687 eebd f8b3 aebd
000003b0: f616 dfbc e75b 25be 31bf 86bc cd3b 7e3b
000003c0: 43ab 3fbe fcd4 18be 5faf 42c0 c322 62c0
000003d0: 75cd c3be de3f febf 25b8 11bf 631a af3f
000003e0: 4011 ef3e 22c8 3c3f 5d91 a93f 0ca5 e13f
000003f0: c40e db3e 0955 bcbd a3b7 9d3e 1782 00bf
0.94418025 0.7681317 -0.49045777 1.4915462 -0.2570651 -0.09519561 -0.45808733 0.49033746
0.4396332 0.45423532 0.7067365 -0.031224526 1.2015523 -0.6956801 0.300662 -0.45416442
0.9318768 0.63608277 0.74900776 -0.3242481 0.5436643 0.601757 0.7351933 0.0811935
-0.526494 -0.5619278 -0.15769133 0.04140083 0.4651999 -0.053911906 -0.10290531 0.041867442
0.59750533 0.14040121 -0.29590166 0.3253595 0.5178386 -0.47180116 0.29929465 0.38906294
-0.25797486 0.17462671 -0.37875625 0.7010591 -0.13040249 -0.2045757 -0.10370817 0.31307176
0.35117587 -0.44729125 -0.20809704 0.55947065 0.34702602 -0.3830567 0.21476543 0.28704026
-0.10963907 -0.119228706 -0.1629611 -0.44074526 -0.10777091 -0.06344821 -0.33070564 -0.49689123
-0.14489362 -0.16199012 -0.037062973 -0.4143095 -0.32760045 -0.15999633 -0.120345175 0.05130627
-0.15045041 -0.039459597 -0.023489345 0.26989773 0.36077362 0.1331245 0.32420072 -0.13834119
-0.20915018 0.07592855 0.08850459 0.02203668 -0.37644967 -0.07391501 0.051520612 -0.4108405
0.22730544 0.019079708 0.050382685 -0.29366136 -0.3579597 -0.2906129 -0.25659814 -0.07392708
-0.24062248 -0.0424903 -0.18163213 -0.21049722 -0.18194908 0.21508898 -0.039596133 0.10963004
0.13336022 0.057961524 0.10315353 0.07756797 -0.056531213 -0.06037886 -0.23170736 0.05783375
0.17210922 -0.12137502 0.060976245 -0.11595 0.24475165 0.06144075 -0.1240272 -0.08228519
-0.010440378 -0.03483798 -0.91800034 1.1124554 3.1570194 1.0085491 0.8998717 0.18751426
-0.23459753 0.027374914 -0.612173 -1.2005681 -1.4232191 0.50151426 0.107470565 0.34847704
0.3850449 -0.075381115 -1.0420946 -0.83481836 0.39765823 1.1250156 0.20737167 -0.31254235
-0.319573 0.33549434 0.7903507 0.012113897 -0.20813622 -0.17887984 -0.90810215 -1.583481
-0.024402466 0.47775432 1.3074712 0.012723081 0.8354949 0.65823126 0.4757371 0.651208
0.22524263 0.3862088 0.05334591 -0.0843246 0.29249248 0.16845718 0.46341035 -0.19160071
-0.7235026 -0.58556324 -0.047671285 0.3053577 0.38510823 0.20874469 0.1855088 -0.25436866
0.48197773 0.029191459 -0.31357405 0.5220836 0.0872292 -0.28669238 -0.21291883 -0.628332
-0.031234184 0.3980505 -0.58897084 -0.10681121 -0.5263152 -0.9123031 -0.3771779 -0.33601454
-0.017089976 -0.4437851 -0.031421907 0.24591023 -0.05227202 0.30770472 0.11460098 0.13715771
-0.30212685 -0.26145333 -0.20025694 0.54077363 -0.02131243 0.5441659 0.44342628 0.504971
0.3885676 -0.070006415 -0.37910554 -0.6983143 0.37198275 -0.25213322 0.113750674 -0.1711845
0.15912706 -0.009350491 0.2282506 0.24235487 -0.06414773 -0.11309731 -0.39046732 -0.23249865
-0.13627644 0.1459492 -0.31402868 0.05276554 0.0333995 -0.0932784 -0.14159341 -0.01687839
-0.020402737 0.28394628 -0.11646883 -0.0853042 -0.027232628 -0.16148339 -0.016448589 0.0038792968
-0.18717675 -0.14924997 -3.0419538 -3.5333717 -0.3824269 -1.9863241 -0.5692161 1.3679928
0.46692848 0.7374288 1.3247486 1.7628493 0.42784703 -0.09195907 0.30804166 -0.501985

layers.0.fc_r.bias f4 [32]
00000000: 8f10 a0be 6007 50be 0981 0d3e a5dc 48bf
00000010: 00bb fabe dd9a 84be 5a7b c7bf 54ab 593f
00000020: c66a babf c7a6 a2bf ee87 f0bf 936f 07c0
00000030: b3a0 bdbe ed25 bb3e a6af cb3e 4b43 1d3f
00000040: 74c9 863f 965c 84bf 11b4 c0bf 650a 82bd
00000050: 5c4f 35bf 23fb 09c0 2038 86be dd42 ebbf
00000060: f1ca 01bf 0a3d 423f 9d58 abbf 7f67 e23e
00000070: 1ed9 03bf 19a6 f3bf 864c 983e 94fd 29bf
-0.31262633 -0.20315313 0.13818754 -0.78461677 -0.48970795 -0.258994 -1.5584519 0.8502705
-1.4563835 -1.2707146 -1.8791482 -2.116185 -0.37036666 0.36552373 0.39782447 0.61430806
1.0530229 -1.0340755 -1.5054952 -0.06349639 -0.7082422 -2.1559532 -0.26214695 -1.837978
-0.5070029 0.7587439 -1.3386418 0.44219586 -0.5150317 -1.9035064 0.29745883 -0.66402555

layers.0.fc_i.weight f4 [32, 121]
00000000: 925c cfbe de48 2d3f cc44 6ebf 1112 26bf
00000010: 2b73 363f 3a23 31bf 576c 93be 8adc 8dbf
00000020: a3ff 18be b1a1 51be 78e5 bd3e 25c6 83bf
00000030: 9601 503f ebe5 78be 58b6 54bf 49b6 19bf
00000040: 6de9 c6be d8cd 3f3d 7d5b 813f 706a 8e3d
00000050: b423 b33e e2cd 373f ded5 a7bd 1543 583f
00000060: ef70 0b3f 7998 313f e6c8 5138 99e2 07bf
00000070: 17c3 9c3e 966a c93b 8407 893c 364f aebe
00000080: 9506 f7bd 4590 12bd 20ef e73e 6a29 543d
00000090: 60ad 3bbc f431 fc3d 70a0 09be d8aa 433f
000000a0: 4b49 a23e dde0 15be 2ac5 833e adb8 413f
000000b0: 5bbc 053f 3ec2 2a3f bfb7 d33c 3bdf 903d
000000c0: 105f 143f 7ed8 443e efdb 62bd 5687 9c3e
000000d0: 4971 953e d296 873e ead2 31be b0b5 513e
000000e0: df6c c33d 54f5 2abe 08b4 36be 047d aabe
000000f0: 0adf 1b3d e4f7 26bd d48f 4b3e 46c2 f0bc
00000100: 500b bbbd e109 8ebe 2b28 a33e 3727 563d
00000110: 5c04 80be c514 59be b1d9 23be 9453 393d
00000120: 98b9 e2be fc9a 3cbe f4c0 e3bc a91b fcbe
00000130: 187b 893e 35d8 69bd fd3b d53e 725c da3d
00000140: 2f0b 0ebe 2e58 683d 3cfd 25bc 73e6 a4bd
00000150: 980a f83e 761b 533e fb79 7a3e 37be e83d
00000160: a11e 1cbd 473e 893e 47f5 373e 7c35 343e
00000170: 1330 3fbb 7b08 303e b6ae 49bc b087 8bbe
00000180: ccf7 c13e 7fb7 403e e5ee b33e 49ad 693e
00000190: c464 13bd 685f 9e3e f25c 473d e50d edbd
000001a0: 8b84 223d 8f21 5cbe e7f7 a0bd ba49 0d3f
000001b0: a4d4 843d e410 07be f7f9 d13c 44bf 77be
000001c0: b26d c83c 937c 093d a9bc ccbc 5fda 113e
000001d0: 902c 1b3d 7d3d 94be 19be 92bd 5964 d93d
000001e0: de0d 273d 338e c9bf 061c 92c0 f25f 7ebe
000001f0: 6ff4 823e 36ef a2bd ba3f eb3f e15a ca3e
00000200: d2bf ae3f 6692 883f ee3f 673f c3e3 73bf
00000210: 0036 62bf 7505 19c0 ce3a a63d 5fd3 23bc
00000220: 522e c63e 34e8 833f c234 b93e 01d4 b4be
00000230: 52ec a1bf 6052 e4be d61c c0be 83fc 9e3e
00000240: c4f1 82be 8765 8c3d cc0d 4fbe b8ec 8a3f
00000250: f0b6 c63e e9c0 a13f e5d6 e73e 79e3 25be
00000260: 1b43 a9bf ced4 6ebf af30 e53d dfc6 073e
00000270: 1608 923d abb6 133e 7dd7 4e3d 51e2 1c3f
00000280: 7a4c 2f3e b795 43be 2531 2f3f 1a51 c7bc
00000290: 3222 ff3d 7b87 19be aa31 c23e 99c4 dd3f
000002a0: 41c6 b03c f7a6 00be 4da9 62be 27fc 873e
000002b0: f049 9c3d f718 12be 25d8 ea3e b5c3 803d
000002c0: f691 933e 861a 803e a32a 3a3d 2150 f83d
000002d0: 4921 403f da1a 833e f7a8 f83e 5c55 e83e
000002e0: 4764 35bf 484d 113f e303 163f 68d0 df3b
000002f0: 91f4 0a3f c0d9 443d 1348 74bf 73bb dfbe
00000300: 52a2 5abe 5c55 0fbf 3edc 3bbf 7cc4 52be
00000310: 7e1c 443f f645 2f3e c933 403e b017 d93e
00000320: cab3 163f d2ac 07be 7100 8dbe 5c2a 7cbe
00000330: 40b2 403d 7b00 febd f771 e33c 91e9 263e
00000340: f00a 933e f9c9 1e3f abb4 0c3f ca6e be3e
00000350: 9c01 dbbd da74 fe3e bae2 813d 01fd 283e
00000360: 0b4f b9be 3a68 2dbe f182 58be 2e43 bc3e
00000370: 0d24 4cbd 6aad 513e 3484 a43d 278d b6be
00000380: 65a5 25be b37f 053e 1c3d a53d 8808 b43d
00000390: c3cd 253d 2f2d 453e 7ad3 8e3e 2ecf cf3c
000003a0: 9df3 e8bc 09f5 573e ce09 763e e2bd e3bd
000003b0: 0894 54bc 1e34 473e 708e 6cbe 7afe 0abd
000003c0: 14eb bebe acfb e1bd efea 4440 e524 d43d
000003d0: 834c 9d3e 73d4 debe 6a74 f7bf 6faf 27bf
000003e0: 9b53 1abf d973 afbe e9c1 adbe a06b 7f3f
000003f0: e384 693f 42dd 8c3f 519d bd3f 8eb0 a83f
-0.40500313 0.6768931 -0.93073726 -0.6487132 0.7126948 -0.69194376 -0.28793594 -1.1082928
-0.14941268 -0.20471837 0.37089133 -1.0294844 0.8125242 -0.24306457 -0.83090734 -0.6004377
-0.38849965 0.046827167 1.0106045 0.06953895 0.34988177 0.7179853 -0.08195089 0.8447736
0.544692 0.6937328 5.0016584e-05 -0.53080136 0.30617592 0.0061467392 0.016727217 -0.34044808
-0.12061802 -0.035782117 0.45299625 0.051797308 -0.01145491 0.12314215 -0.13440108 0.7643256
0.31696543 -0.1463656 0.25736362 0.7567242 0.5224053 0.6670264 0.025844453 0.07073828
0.57957554 0.1922321 -0.055385526 0.30572003 0.29187992 0.26482254 -0.17365614 0.20479465
0.0954225 -0.16695148 -0.17842114 -0.33298504 0.038054504 -0.04076375 0.19879085 -0.029389512
-0.09133017 -0.27741912 0.31866583 0.052283492 -0.25003326 -0.21199329 -0.16001011 0.045245722
-0.44282222 -0.18418497 -0.027801968 -0.49239853 0.26851726 -0.057090957 0.4164733 0.10662164
-0.13871454 0.05672472 -0.010131177 -0.08051767 0.48445582 0.20615944 0.24460594 0.113644056
-0.038115148 0.26805326 0.1796466 0.17598528 -0.0029172942 0.17190735 -0.012309721 -0.2725196
0.37884367 0.18819998 0.351432 0.2282001 -0.03598477 0.30932164 0.048672624 -0.11574916
0.039677184 -0.21497177 -0.078597836 0.5519062 0.064858705 -0.13190037 0.025631888 -0.24194056
0.02446637 0.03356607 -0.024992304 0.14243458 0.037884295 -0.28953162 -0.071651645 0.10614843
0.04078471 -1.5746521 -4.565921 -0.24841288 0.25577113 -0.07955782 1.8378823 0.3952246
1.3652289 1.0669677 0.90331924 -0.9526941 -0.8836365 -2.390958 0.08116685 -0.009999125
0.38707215 1.0305238 0.36173064 -0.35317996 -1.2650244 -0.44594097 -0.37522 0.31052026
-0.25575078 0.06855302 -0.20220107 1.0853491 0.38811445 1.2636997 0.4528114 -0.16200055
-1.3223604 -0.93293464 0.11190926 0.13259457 0.071304485 0.14425151 0.050498474 0.6128283
0.17119017 -0.1910008 0.68434364 -0.024330664 0.12457694 -0.14993088 0.37928516 1.7325622
0.02157891 -0.12563692 -0.22134896 0.26559564 0.0763129 -0.14267336 0.4586803 0.06287328
0.28822297 0.25020236 0.045450818 0.121246584 0.7505079 0.25606424 0.4856641 0.45377624
-0.70856136 0.56758547 0.5859968 0.006830264 0.5427943 0.048059225 -0.95422477 -0.436977
-0.21350983 -0.55989623 -0.7338294 -0.20582765 0.76605976 0.17116532 0.18769754 0.42400885
0.58868086 -0.1324952 -0.275394 -0.24625534 0.047044992 -0.124024354 0.027764304 0.16300036
0.28719282 0.62026936 0.5496318 0.371939 -0.10693666 0.49698526 0.06342073 0.16502763
-0.36193117 -0.1693429 -0.211437 0.36770004 -0.04983907 0.20476308 0.08033028 -0.35654566
-0.16176374 0.13036995 0.08068296 0.0879069 0.040479433 0.19255517 0.2789572 0.025367346
-0.028436476 0.21089567 0.24027178 -0.11120202 -0.0129747465 0.19453475 -0.2310121 -0.033934094
-0.37288725 -0.11034331 3.0768392 0.103585996 0.30722436 -0.4352146 -1.9332402 -0.65502065
-0.6028382 -0.34268072 -0.33937004 0.997736 0.91218394 1.1005023 1.4813634 1.317888

layers.0.fc_i.bias f4 [32]
00000000: bd1f 7fbe f26a 98bf 70c2 82bf 6308 093e
00000010: 8dff f23e b671 15c0 534f 45be 24d2 ef3e
00000020: aaab 4dc0 95a2 88bf 9773 103f d06d 943e
00000030: 248b 64bf 1022 363f fac7 c8bc ca17 b13f
00000040: a563 fc3e b566 1b3f 4b1a f6bf 161b 54bf
00000050: d9ac 943f da58 5e3f f9f6 d2bf b2d0 af3e
00000060: 553a 3b3f 60ea cfbf 91df 78bf b817 1bbe
00000070: 7cd5 353f 2462 403f 6677 c0bf 8024 0dc0
-0.24914451 -1.1907637 -1.0215588 0.13382106 0.47460595 -2.3350654 -0.19268541 0.46840012
-3.2136025 -1.0674616 0.56426376 0.2899003 -0.8927481 0.71145725 -0.024509419 1.3835385
0.49294773 0.60703593 -1.9226774 -0.8285383 1.1615249 0.86854327 -1.648162 0.3433891
0.7313588 -1.62434 -0.97216135 -0.15145767 0.71028876 0.7514975 -1.5036438 -2.2053528

layers.2.fc_r.weight f4 [16, 32]
00000000: a727 fc3e 7969 31bf 1580 483f 56b7 a7bf
00000010: 76fe 70bf ad2a 8c3f 777f d6bf c1b8 b23e
00000020: 2c34 b93e ca8e b4bf 1584 f13f 5e15 75c0
00000030: 7f64 ba3f 4ac5 a93f 1149 033f 1cc2 f9bf
00000040: fafa 653e 4bf5 673f 0f21 9fbf f0cb 853b
00000050: 5848 983f 3867 3dc0 91ca 4dbd a4bf 8bbf
00000060: 0673 263f e635 a1bd c550 26c0 cc8d 053b
00000070: b907 093f 5d7f 44bf 39e6 c4be 04c7 6a3f
00000080: bd37 4abe 1a0c 003f 6566 ecbf eb8a 6fbf
00000090: b4fc 1ebf 42b9 bebf 8447 1cc0 c764 c43f
000000a0: 00ad c1bf 6960 8cbe 6159 d2bf b821 3ac0
000000b0: f391 60bf b87a b43f 0b62 b33f b44d bfbf
000000c0: 5155 003f 8994 883f 0889 06c0 61e4 a2bf
000000d0: 36d7 c23f e8b6 62bf 76e2 25bf 6336 cf3f
000000e0: ef8e 94bf f484 d7bf e19f e3bf 565e b23f
000000f0: 849b b73f e6d4 0fc0 6f3f 3abf 8d4e fb3f
00000100: 8486 cebf 9b87 3d40 405e 47bf f39d 893e
00000110: 51a6 62bf 6895 f43f 3abe ed3f 7c38 7bbf
00000120: cbe4 bb3f acfd 72bf f2dc 18c0 c8fe f2be
00000130: 0f36 0e40 0b06 dabf 10e1 d43d 9b9e b23f
00000140: 3fb6 0bbd 2023 5bc0 5cd1 793f 856f 073f
00000150: c552 dfbf 808a 14c0 bad6 2640 66d2 83c0
00000160: 741b cabf 50d9 3340 2ee5 8240 241c 13bf
00000170: 8580 35bf 1659 c13e 0e71 413f 4bb5 48bf
00000180: b42d 4d3f 45e9 43bf 12c8 57be 2508 bbbf
00000190: d30a 32be 605e 823f a939 e4bf 2717 ae3f
000001a0: faa5 f7bf 7485 26c0 7a99 f83f 1962 71c0
000001b0: 8a65 8dbf c621 903f 799c 2640 f306 85bf
000001c0: b2de 4f3f 1f8e 243e b60e d1bf 1956 89be
000001d0: fa58 d7bc 02da b5bf 989b 8c3d b0d2 953e
000001e0: 50ab ebbe 2261 56bf c552 2fc0 88bb c73f
000001f0: 7976 db3d c9f3 3f3e 1ae5 8bbe cc38 1dbe
00000200: 929f 95bf 10c1 a8bf 893e f0be becf c4bf
00000210: 04d8 04c0 a4a3 a1bf f04d 60c0 ba54 b43f
00000220: e2fe d0be b826 06c0 60cf 323e 95cc 56c0
00000230: 1650 833f f9e4 7d3f 5e06 823f f875 a9bf
00000240: 95d7 5e3f ad15 183f 2db3 5ebf e781 5cbf
00000250: 0bcb ef3f 2667 c2bf 9df8 8abf 1b7f 903e
00000260: 470e 1a3f 8fa8 a2bf 839f 83bf f9ef 52bf
00000270: 24bf 593f d374 fe3e 98af dcbf 264e 503f
00000280: 10bc 44bd d9f2 623f e205 80bf 8a96 a4bf
00000290: f50d f1be 4872 29c0 60d4 00c0 a101 093f
000002a0: 073c 2ac0 a870 fabf 3970 083f 9d57 bbbf
000002b0: c600 063f 1d87 be3f 9273 2540 f33a 39c0
000002c0: a2f0 a6bf 5c75 5dbf f63c 75bf e23a bfbf
000002d0: 2726 153e 91eb e1bf ce72 89bf 94aa bc3d
000002e0: f9bb 1e3f e210 04c0 f934 35c0 668b fb3e
000002f0: 5b70 6d3e db06 0bc0 69c8 803f 702c 093d
00000300: a121 f6bd 5f46 57bc 8e4d ffbf dbe4 1c40
00000310: 4148 3a3f d134 83c1 77e5 8abf 0f54 1e3f
00000320: 9fca 0dc1 c3fc 7a3f f0fc 16c0 239b 41bf
00000330: c474 01c0 103a 59bf d80e 6c3f 1ba5 adbf
00000340: da30 803e e4c7 f63c 0ea0 0940 278f a0bd
00000350: c2bb 443e e81a e43d 73c6 1fc0 11a8 96be
00000360: 7e50 12be bfd6 debf 61f0 15c0 2db5 4ebf
00000370: f8e4 1cbe b165 5f40 87c6 8abf 0d9c 863f
00000380: ed0c 51bf 893f b4bf ebc7 093f d84a e1bf
00000390: 11ec 753f e3e0 573e c65b 6bc0 04b0 1040
000003a0: fabb e6bf 671c 65c0 d57c 9f3f b210 e5c0
000003b0: e574 ed3e c45e 0040 08bf 0340 66ec eebf
000003c0: fccd 483f 39e3 0040 7f72 8dbf ea36 c1bf
000003d0: 338f b63e 7cb3 91bf 85b8 e13f cc89 42bf
000003e0: 0753 99be 107d debf 508c 76bf 32af 773f
000003f0: 375a ce3b aafb f1bf 6307 3b3e 0b88 b63c
0.49249002 -0.69301564 0.7832044 -1.3102825 -0.94138277 1.0950524 -1.6757649 0.3490658
0.36172616 -1.4106076 1.8868433 -3.8294291 1.4561919 1.3263333 0.51283365 -1.9512362
0.22459021 0.9060866 -1.2431964 0.004083149 1.1897078 -2.959425 -0.05024201 -1.0917859
0.6501926 -0.078716084 -2.5986798 0.0020378707 0.5352741 -0.7675684 -0.38456896 0.91709924
-0.19747825 0.50018466 -1.8468748 -0.93571347 -0.62104344 -1.4900286 -2.441865 1.5343255
-1.513092 -0.27417305 -1.6433526 -2.908308 -0.877227 1.4099951 1.4014295 -1.4945588
0.5013018 1.0670329 -2.1021137 -1.2725946 1.5221927 -0.8856034 -0.64798677 1.6188473
-1.160612 -1.6837449 -1.7783166 1.3935039 1.4344335 -2.2473693 -0.7275304 1.9633347
-1.6134801 2.9614017 -0.7787819 0.26878318 -0.8853503 1.9108095 1.8573678 -0.98133063
1.4679197 -0.9491832 -2.3884854 -0.47460008 2.2220495 -1.7033094 0.1039449 1.3954653
-0.03410935 -3.4240189 0.9758508 0.5290454 -1.7447134 -2.3209534 2.6068559 -4.1194334
-1.5789628 2.8101387 4.090476 -0.57464814 -0.7089923 0.3776328 0.7556313 -0.7840163
0.8014786 -0.76527816 -0.21072415 -1.461186 -0.17386942 1.0185051 -1.7830096 1.3600816
-1.9347527 -2.6018953 1.9421837 -3.7716124 -1.1046612 1.1260307 2.6033003 -1.0392746
0.8119918 0.1606984 -1.6332614 -0.268235 -0.026287545 -1.4207156 0.06865615 0.29262304
-0.4602914 -0.8374196 -2.7394269 1.5604105 0.10715956 0.1874534 -0.27323228 -0.15353698
-1.1689322 -1.3183918 -0.4692271 -1.5375898 -2.0756845 -1.2628064 -3.504757 1.4088356
-0.4081946 -2.0961132 0.1746192 -3.3562367 1.0258815 0.9917751 1.0158193 -1.3239126
0.870477 0.59408075 -0.8699215 -0.86135715 1.8733839 -1.5187728 -1.0857121 0.28221974
0.60178035 -1.270769 -1.0283054 -0.8239742 0.8505728 0.49698505 -1.7241087 0.81369245
-0.048030913 0.88651806 -1.0001795 -1.2858441 -0.4708096 -2.6476002 -2.0129623 0.5351811
-2.6599138 -1.956563 0.5329624 -1.4636112 0.5234493 1.4884983 2.5851789 -2.894223
-1.3042185 -0.865072 -0.95796144 -1.4939845 0.14565335 -1.7650014 -1.0738161 0.09212223
0.62005574 -2.0635304 -2.8313582 0.4912979 0.23187391 -2.1722934 1.006116 0.033489645
-0.12018133 -0.013139336 -1.9945543 2.4514682 0.727665 -16.40079 -1.0851277 0.61847013
-8.861968 0.98041934 -2.359188 -0.75627345 -2.0227518 -0.8485422 0.9221015 -1.3566011
0.2503727 0.030124612 2.150394 -0.07839804 0.19212249 0.111379445 -2.4964874 -0.294251
-0.14288518 -1.7409285 -2.3427966 -0.807452 -0.1532172 3.4905818 -1.0841836 1.0516373
-0.8166035 -1.4081889 0.53820676 -1.7600965 0.96063334 0.21081881 -3.6774764 2.2607431
-1.8026116 -3.5798585 1.2459971 -7.158288 0.46378246 2.005784 2.0585346 -1.8665893
0.7843931 2.0138686 -1.1050566 -1.5094883 0.35656127 -1.1382899 1.7634436 -0.7599151
-0.29946157 -1.7381916 -0.9630785 0.967517 0.0062973755 -1.8904927 0.18264537 0.022281667

layers.2.fc_r.bias f4 [16]
00000000: 56ad d0bf 310b f9bf c299 dcbf 12b7 f7bf
00000010: b794 3abf 23f8 98bf e4fd 61bf 6a50 f3bf
00000020: 1c33 73bf 9448 4cbf b4fa adbf b612 ee3f
00000030: 93f8 8ebf e0e1 8ebf 02de 14bf c9a3 12bf
-1.6302898 -1.945654 -1.7234423 -1.9352744 -0.7288317 -1.1950725 -0.8827803 -1.9008915
-0.9499986 -0.79798245 -1.3592134 1.859946 -1.1169609 -1.1162682 -0.5815126 -0.57281166

layers.2.fc_i.weight f4 [16, 32]
00000000: b7f9 00c0 2058 8f3f 5780 5f3f c49e b1bf
00000010: d79e 13bf ba4f e13d 7443 973f 3d0b d7bf
00000020: 6ff1 da3f 390b a4bf 506d c73f 69ca 3a3d
00000030: 27be 0240 0170 d6bf c759 9fbf 4f0d 983f
00000040: b0ce 1ebf 1020 a9bf 38e9 e23f b48a 893f
00000050: dc1e 0cbf 441c 833f b49d 8140 fbbf 4240
00000060: 24c2 12bf 474a 4340 bc7e 8b40 d30e fdbe
00000070: 84f2 61bf 6f76 83be 9e44 b23f 9e4f 0ec0
00000080: 17e2 34c0 70da ecbf faf5 cb3f 2047 21c0
00000090: 8b3c 12c0 a12b 28be f312 463f 61a8 8abf
000000a0: 719b 2d3e 5dac 82c0 d954 6640 db1b 01bf
000000b0: 10d6 573f 9e60 31bf cda8 443f be14 0f3f
000000c0: 2a86 663f 75ac 0dc0 e6d1 00bd 8223 5b3e
000000d0: 7460 babf d2ca f33f fb2f 2540 3f08 2a40
000000e0: 29df f8be 45ad db3f ea69 1940 f361 9abf
000000f0: b699 12be 4004 eebc fe85 b43d 6772 8abf
00000100: 6a5b 1440 164f 143f 2719 a23f e838 09bf
00000110: 1c60 aa3f c884 ed40 ce7a 6640 399d e9bc
00000120: b107 9440 1e4a 3b40 474c 78bf c885 6440
00000130: 9fb4 6bbf 31d7 9ebf 6e9e 20bb 8e52 0e40
00000140: a3e5 33c0 a08c 98be 160b 4640 bdc9 1640
00000150: 9324 9abe 6399 1140 bdbc 6a3f acd2 a2be
00000160: 8718 d2be 9502 0b40 7735 cf3f 0c34 86be
00000170: f8c4 34bf 0cfc aebf 3b87 89be 0a39 5ac0
00000180: a088 0ec0 54d5 8dbf 2ceb a7bf 3cd9 b8bf
00000190: d180 12c0 5836 0c40 71e8 c5be 8d28 f3be
000001a0: 0004 8b3f e7fb a5bf 74af 1a40 457a 603f
000001b0: fbfd 663f db61 a93f b853 dfbe 78c3 2f3e
000001c0: 8128 173e f5fb adbf 7ecf 803f 781d 21bf
000001d0: eac8 8abf 2164 0e40 48de 3e40 1acd 2d40
000001e0: 6231 59be 9264 2340 0c85 b03e 37cd dfbe
000001f0: 49db 93bf 0eed cbbe 9fa9 0640 b50d 43bf
00000200: 754b 2fc0 fd0f 543f 6d11 db3f e437 c4bf
00000210: ab2c 36bf 0829 be3f 641f 833f 06f9 ccbf
00000220: c4f9 2a40 6792 cfbd 049c 3840 995e fcbe
00000230: 49ba fc3f 259f b5bf c6b9 aebe a494 9e3f
00000240: 2fce 2abf d95c e2bf 35ba 943f 6335 c03e
00000250: f7e9 47bf c527 9b3f 26aa 243e 18d8 0740
00000260: 5c6a 94bf 1477 1140 80c8 1a40 257e 1fbf
00000270: 89df a9bf a341 2640 71c7 db3f d63f 64bf
00000280: 791d 403e 296f 8340 03e5 b23f af3f e8bf
00000290: ea7f 253f 9b6c 353f cbf9 853f b85e b0bf
000002a0: fd96 c13f 1efb 87bf 5ea5 45be 5385 f23e
000002b0: 2570 4340 b06d 21c0 798e 87bf 8f64 2f3f
000002c0: bf46 cabd 185d 0a3f e320 3040 8d5a 973e
000002d0: 2ba1 7fbf 9f73 983f d8a5 4abf a41a 5ebe
000002e0: 1807 aebf 40c5 f73f 5dca 3840 e2ad 653f
000002f0: ea5b e1bf 038a 623f d93b 853f e80c babf
00000300: a010 2040 f30f fe3e f89f 413f 1169 fbbf
00000310: 26d2 42be 12ed 3b3f 2877 f8bf 4673 813f
00000320: 23cb 14bf 9b4a bebf 49f3 483f 505d 08c0
00000330: 515a 093f d3f9 913f aec5 1240 2889 9bbf
00000340: 241b e73e 4678 b1bf 02b1 7f3e c6cb 2e3e
00000350: 0784 babf 634a 18c0 ead8 eb3f ad2a e53e
00000360: 8d96 90be 736f 073f 1175 87c0 1711 dcbb
00000370: bad7 a73f df60 d93f cfcb 6abf 8eae b93f
00000380: e99d 25c0 f6f2 2e40 db2b 65bf 9319 92bf
00000390: ebca 05c0 c39a 0940 9aeb d33f 2b68 babf
000003a0: e122 fb3f 0add d3bf 24f7 1240 0446 fe3d
000003b0: 8083 1040 58a9 c93e df1f bcbf 232b c43f
000003c0: c7d2 61bf e570 d6bf ba19 0740 66e9 f03d
000003d0: 9789 413f 04bd 0c40 e784 0f3f f1d1 ae3f
000003e0: 2551 88bf 66d3 ed3f 6435 2240 e02e ecbd
000003f0: aa0b 5ac0 b7a1 a73e 3bf2 8a3f 5bd3 86bf
-2.0152414 1.1198769 0.87305206 -1.3876576 -0.57664245 0.11001535 1.181746 -1.6800305
1.710493 -1.2815925 1.5580235 0.04560319 2.042856 -1.6752931 -1.2449273 1.1879061
-0.6203413 -1.321291 1.7727423 1.0745454 -0.5473459 1.0243001 4.050501 3.0429676
-0.57327485 3.0514085 4.3592205 -0.49425372 -0.88260674 -0.25676295 1.392719 -2.2236094
-2.8262994 -1.8504162 1.5934441 -2.5199661 -2.2849452 -0.16422893 0.77372664 -1.0832635
0.16953827 -4.0835404 3.5989287 -0.5043313 0.8431101 -0.6928805 0.7682007 0.55891025
0.9004847 -2.213651 -0.031450175 0.21400264 -1.4560685 1.9046271 2.5810535 2.6567533
-0.48607758 1.7162253 2.3970895 -1.2061142 -0.14316449 -0.029054761 0.088146195 -1.0816163
2.3180795 0.57933176 1.2663926 -0.5360246 1.331058 7.4224586 3.6012454 -0.028517352
4.625939 2.9263988 -0.9699139 3.5706654 -0.9207248 -1.2409421 -0.0024508494 2.2237887
-2.810891 -0.29794788 3.0944266 2.3560631 -0.3010603 2.274987 0.9169424 -0.31801355
-0.41034338 2.1720326 1.6188191 -0.26211584 -0.7061305 -1.3670669 -0.26860985 -3.4097314
-2.227089 -1.1080728 -1.3118644 -1.4441295 -2.2891123 2.1908169 -0.386539 -0.47491875
1.0860596 -1.29675 2.4169588 0.8768657 0.90231293 1.3232988 -0.4361856 0.17164409
0.14761545 -1.3592516 1.0063322 -0.6293559 -1.0842564 2.2248614 2.982317 2.7156434
-0.21210244 2.5530133 0.34476507 -0.43711254 -1.1551296 -0.39829296 2.1041028 -0.7619279
-2.7389805 0.82836896 1.7114693 -1.5329556 -0.7116191 1.4856272 1.0243955 -1.6013496
2.6714945 -0.10135346 2.8845224 -0.49290922 1.974435 -1.4189192 -0.3412611 1.2389112
-0.6672086 -1.7684585 1.1619326 0.3754073 -0.7809138 1.2121512 0.16080531 2.1225643
-1.1594958 2.272893 2.4184875 -0.62301856 -1.3271343 2.5977561 1.717024 -0.89159906
0.18761243 4.1073194 1.3976139 -1.8144435 0.64648306 0.70868844 1.0466856 -1.3778906
1.5124203 -1.062351 -0.19301364 0.47367343 3.0537198 -2.5223198 -1.0590354 0.68512815
-0.09876775 0.540483 2.7520072 0.29561272 -0.998553 1.1910285 -0.7915931 -0.2168985
-1.3595915 1.9357071 2.8873513 0.8971845 -1.7606175 0.8849184 1.0408889 -1.4535189
2.5010147 0.49621543 0.7563472 -1.9641439 -0.19025478 0.73408616 -1.9411364 1.0113304
-0.5812246 -1.4866518 0.78496224 -2.1306953 0.53653437 1.1404365 2.2933154 -1.2151232
0.45137894 -1.386483 0.24969867 0.17069921 -1.4571542 -2.3795402 1.8425572 0.44759122
-0.2823986 0.52904433 -4.2330403 -0.0067159045 1.311271 1.6982688 -0.9171724 1.4506395
-2.587763 2.7335792 -0.89520043 -1.1414055 -2.0905101 2.150071 1.6556275 -1.456304
1.9620019 -1.6551831 2.2963343 0.12415698 2.2580261 0.39387012 -1.4697226 1.5325664
-0.88212246 -1.6753203 2.1109452 0.11763267 0.7560057 2.1990366 0.5606217 1.3657819
-1.0649763 1.8580139 2.5345087 -0.11532378 -3.406962 0.32740566 1.0855173 -1.053325

layers.2.fc_i.bias f4 [16]
00000000: 4720 e1be b9b9 e3be ccd0 dc3f 19af ddbf
00000010: a010 543e 9c85 febe cf16 2bbf a668 b3bf
00000020: 7c96 0ebf 1652 a83f 288e 573e e1c9 1dbf
00000030: 60c1 98be abd6 153e ef68 e23f 7a41 d4be
-0.43969938 -0.44477633 1.725122 -1.731906 0.20709467 -0.4971131 -0.6683168 -1.4016311
-0.5569837 1.3150051 0.21050322 -0.6163617 -0.29835033 0.1463267 1.7688273 -0.41456205

out.weight f4 [1, 32]
00000000: 09f2 8242 6000 9142 1384 8242 2ff2 7f42
00000010: ef96 9342 0f2c d642 d0bf 11c1 615e 8342
00000020: da45 8342 ca5a 9342 5297 8042 ff25 61c1
00000030: 8a07 8642 8595 9342 82ea 7c42 06d8 e2c0
00000040: 614e 8342 b35b 8442 3d9f 6ac1 d9b9 7f42
00000050: a281 8142 5103 7f42 e500 7e42 959e 8542
00000060: 340d 8042 0d41 7f42 400d 8042 4c11 57c1
00000070: 5c48 8542 62c0 7742 b363 71c1 6caf 7b42
65.472725 72.50073 65.25796 63.986507 73.79479 107.08605 -9.109329 65.68433
65.63643 73.67732 64.29555 -14.071776 67.014725 73.79203 63.22901 -7.08887
65.65308 66.1791 -14.663877 63.93149 64.75319 63.75324 63.500874 66.80973
64.02579 63.813526 64.02588 -13.441723 66.64133 61.937874 -15.086841 62.92131
