trained_models/NN_tuned/NN_32-16_selu.pth (torch, 38773 bytes, 13 tensors)

layers.0.weight f4 [32, 242]
00000000: 8f8e f2be 8594 093f 3464 743f e006 513d
00000010: 2073 f6ba 7a97 1b3f fac4 1a3f 8b09 023f
00000020: 3992 473f 9442 c93d 3cb7 a53f a93c 41bf
00000030: 92a9 443d 9955 3fbf 661b d6be 4f0a 8abf
00000040: 96bd 45bf f54a 85bd b55d bf3e 73f7 fcbd
00000050: def5 47bf 4cab c6be f90e 0abf 630b b9bc
00000060: d65b bdbe a056 0b3f e332 863d 187a 023f
00000070: 9f51 323f 6474 7e3f 2ba8 d0be ce74 8bbe
00000080: 15d9 b23e 8641 debd 1db4 673e 59c1 92be
00000090: 7ac5 3a3e 02d6 41bf 34f5 95be 75ce 15bf
000000a0: 3f21 b8be 3b4b 4fbf 67e9 89be 5393 0f3f
000000b0: bc17 e8be a7fb 8cbe 4834 91be 4e84 ffbe
000000c0: aaf4 24be 3a14 033f e10a edbd bf33 a13e
000000d0: 8478 a83e d776 3e3d 3794 083f 2bab e73c
000000e0: 12b7 9c3e 6a6d 863e 3a0a 14bf 1570 9b3f
000000f0: 39b5 2d3e 6f77 393e 89dd a33f 10a1 8b3e
00000100: 391a b7be 5fb4 41be f12a 203f a190 8bbf
00000110: dddf 82bf 081b fbbd 6bba b83d ba1a 873f
00000120: 2123 de3b d596 7dbc 0a23 b3be 0abe 843d
00000130: 40e3 55bd 2a9b ba3f 4276 af3f 64a4 873f
00000140: 6634 6c3f 9726 afbe 483a 623f 2c86 dbbe
00000150: 47bb 9b3e eeed d0be f2e2 483f 5068 0cbf
00000160: 9615 673f 9132 eebe 76ea fc3e ee74 bbbf
00000170: 06be 37bc 73e7 54bf dc4c e13e 4e36 bcbe
00000180: 30e3 43bf 177c abbd 6af0 783f d555 5bbf
00000190: 5b49 b7be 56a4 ddbf 2f1a 8bbf 8449 36be
000001a0: 02e9 fbbe 1ad6 45bf b101 3fbf 2497 7a3d
000001b0: 9223 88bf e3e4 c3bd fa27 b4be d70f a33e
000001c0: 5612 1fbf b626 883d 35b6 56bf 3d0a 063f
000001d0: 7f4b ecbd 40c3 3c3f 5917 993e eaf3 a33e
000001e0: a2f8 aebe 2dc4 e8bd 12ce 873e a8cc 223f
000001f0: 682d be3e 429f 343e 37c0 1b3e 4f94 5dbd
00000200: 8d14 103e 3439 fabe bdf7 af3d 2223 3cbf
00000210: 76bb 5ebf 4a50 8bbe f1cb 013e 3194 753e
00000220: d564 babe 3078 963c a337 80be 4316 8c3d
00000230: 59d1 623e 7435 3d3e 9231 873e 507a b43d
00000240: 0332 193e 7664 94be 3b15 2d3e d2f8 f7be
00000250: 7026 d7be 5203 d3be fe3a 95be 5423 cbbe
00000260: 12e8 40bf e2c0 69be 60a6 a2be b499 aa3f
00000270: 71ab 4f3e fa69 b73e 2da6 e53e 90cc 913e
00000280: cb21 853e e454 84bf 55b4 c53e be77 6c3d
00000290: 66aa 3e3e 12b0 aebe 096c d9be 1d6c 6ebf
000002a0: 1a3b b7be 5484 53bf 8d09 95bf 3e61 acbe
000002b0: d85d 65bf 7a9b ea3e 52bf 07be 8140 313e
000002c0: 4dbe b3be 0fb4 ab3e c84e ca3d e729 3e3f
000002d0: 10eb fa3d f45e 963c d290 3cbe 6876 eb3d
000002e0: f284 8f3e af7a d8bd 57cc 14be 6eb9 e0be
000002f0: afb4 1abf c507 94be 661c 89be 3ead c53e
00000300: 8001 86be 9cb7 dfbd 1f8e 63be c1fc f43d
00000310: c5ea fcba 718b a93d bcbf 20be 9f8c b43e
00000320: 2199 a93d d1bf da3d 5acc 623e e367 39bd
00000330: 286b ee3c 4241 d53d 3e42 bf3e 35ef 253e
00000340: 5ca4 3ebe 4d47 733c b3c0 b9bd 5caa 5cbd
00000350: 280e 85be 4806 0a3d fe08 f6be d37b 483e
00000360: b3ae af3e 7fb7 42bd cfd1 70be 9010 783e
00000370: 2452 dcbd 41c2 973d f59f a83c 951c e9be
00000380: 8b30 4abe 8428 89bd a049 11be 0847 9fbe
00000390: 82ab d3be a1ac ff3d 7e4f ac3b bc08 40be
000003a0: 46b6 aebd 497e 90be 91ba 0ebe 4e28 26be
000003b0: eab5 edbd e900 67bd 2713 1cbe 0d09 f6be
000003c0: 6211 6abe 2890 51be f476 8a3f f816 3e3b
000003d0: 38eb 953c f0c2 48bf 69d1 5a3c 3cd5 6fbd
000003e0: a7d1 033f 7d76 25bf 9ef3 cbbe 5c84 2cbf
000003f0: 79c4 93be 0de6 5bbf a60d 84bf c593 fcbe
-0.4737439 0.5374225 0.954654 0.051031947 -0.001880262 0.6077801 0.6045681 0.5079581
0.77957493 0.09827152 1.2946544 -0.75483185 0.048013277 -0.74739987 -0.41817778 -1.0784396
-0.7724241 -0.065084375 0.3737618 -0.12351885 -0.7810954 -0.38802564 -0.53929096 -0.022588437
-0.36984128 0.54429054 0.065526746 0.5096755 0.69655794 0.9939635 -0.40753302 -0.27237552
0.34931245 -0.10852341 0.22627302 -0.28663138 0.18239394 -0.75717175 -0.29288638 -0.58518153
-0.35962865 -0.8097417 -0.26935884 0.56084174 -0.45330608 -0.27535746 -0.283602 -0.49905628
-0.16108957 0.5120274 -0.115743406 0.31484792 0.32904446 0.046500053 0.5335116 0.028279861
0.30608422 0.2625535 -0.57828104 1.214358 0.16963662 0.18111967 1.2801982 0.27271318
-0.35762194 -0.18916462 0.62565523 -1.0903512 -1.0224568 -0.12261015 0.090199314 1.0555031
0.00677909 -0.015477856 -0.3498767 0.064815596 -0.052218676 1.4578602 1.3707964 1.0597043
0.92267454 -0.3420913 0.8837018 -0.42875803 0.3041632 -0.40806526 0.7847129 -0.5484667
0.9026731 -0.46522954 0.4939763 -1.4645059 -0.011214739 -0.83165663 0.44003952 -0.3676018
-0.76518536 -0.08373278 0.9724184 -0.85677844 -0.35798153 -1.7315776 -1.0867366 -0.17801481
-0.49201208 -0.7727982 -0.74611956 0.061179295 -1.0635855 -0.09565141 -0.3518675 0.31848022
-0.62137353 0.066480085 -0.83871776 0.5235937 -0.11537837 0.7373543 0.29900625 0.3202203
-0.34174067 -0.113655426 0.26524407 0.6359353 0.37144017 0.17638877 0.15210043 -0.054096516
0.1407034 -0.48871768 0.08592174 -0.7349111 -0.8700479 -0.27209693 0.12675454 0.23982312
-0.36405054 0.018367857 -0.25042447 0.068401836 0.22150172 0.18477422 0.26405007 0.08812392
0.14960484 -0.28982896 0.1690263 -0.48432022 -0.42021513 -0.4121347 -0.2914657 -0.3967539
-0.7535411 -0.22827485 -0.3176756 1.3328156 0.20280243 0.3582304 0.44853345 0.2847638
0.26002344 -1.0338407 0.38614145 0.057731383 0.1861969 -0.34118706 -0.42465237 -0.9313372
-0.35787278 -0.8262379 -1.164354 -0.3366794 -0.8959632 0.45821744 -0.13256577 0.17309763
-0.35106125 0.3353581 0.098783076 0.7428269 0.12251866 0.018355824 -0.1841462 0.114971936
0.28031117 -0.10570275 -0.14531074 -0.43891472 -0.6043195 -0.28912178 -0.2677948 0.38608736
-0.2617302 -0.109236926 -0.22222184 0.119622715 -0.0019296041 0.082785495 -0.15698141 0.35263535
0.0828116 0.10681117 0.22148266 -0.04526509 0.02910383 0.104128376 0.37355226 0.16204531
-0.18617386 0.014848542 -0.090699576 -0.053873405 -0.25987363 0.033697397 -0.48053735 0.19578485
0.34312972 -0.047538277 -0.23517536 0.24225068 -0.107578546 0.07410098 0.020584086 -0.4552962
-0.1974508 -0.06697181 -0.14188242 -0.3110888 -0.41341788 0.12484098 0.0052584996 -0.18753332
-0.0853086 -0.28221348 -0.13938357 -0.16226313 -0.11606963 -0.056397352 -0.15241681 -0.4805378
-0.22858194 -0.20465147 1.0817552 0.002900539 0.018300638 -0.7842245 0.013355591 -0.058552966
0.5149178 -0.64633924 -0.39834303 -0.67389464 -0.28860834 -0.85897905 -1.0316665 -0.4933149

layers.0.bias f4 [32]
00000000: 6222 4cbe d769 f63e 51f4 74bf f532 633f
00000010: f95d 853f f514 bd3f fe7a 1c3f 030c d3be
00000020: a426 113f 3bde 2e3f 87a3 d63e d7af 1bc0
00000030: b2cd 96be e885 243e 1c14 d73e e1e1 213f
00000040: e564 063f 8773 ccbe 820e 713f d0f9 d63d
00000050: 7c7e 2cbf cfec a93e 89bf 383f 1a49 90bf
00000060: 8aa3 723f fd74 6e3d ac3b 033f d890 05be
00000070: 11dc 0f3f 2e03 563f 9be5 7dbf 6b7d a1bd
-0.19934991 0.48127624 -0.956853 0.8874963 1.0419303 1.477202 0.6112517 -0.41220102
0.56699586 0.68307847 0.41921636 -2.4326074 -0.29453808 0.16066706 0.4200753 0.6323529
0.524977 -0.3993189 0.9416276 0.10496867 -0.673805 0.33188483 0.7216726 -1.1272309
0.9478079 0.058217037 0.5126293 -0.13043535 0.5619517 0.835986 -0.99178475 -0.0788525

layers.1.weight f4 [32]
00000000: 7b50 4f3f c248 fb3f 3eb4 e33f fa15 923f
00000010: 014c db3f a0b4 2c40 7d07 fa3f 47e8 a03f
00000020: 3065 a13f 22f2 0840 6deb cc3f 9ec2 9c3f
00000030: 8907 0d40 5d5c d43f 24cf 1240 df50 da3f
00000040: fdc2 db3f 1eeb f13f bf33 e83f a96c df3f
00000050: cfac ee3f 8d76 e63f c192 fb3f c135 0b3f
00000060: c772 c33f 45b7 333f efb8 bd3f acd4 ae3f
00000070: 2b88 063f 4136 1540 05a3 0d40 953e 0340
0.8098218 1.9631579 1.778938 1.1412957 1.713257 2.6985245 1.9533535 1.2570885
1.2609005 2.1397786 1.6009346 1.2246892 2.203585 1.6590687 2.2938929 1.705593
1.7168881 1.8899877 1.8140792 1.7455035 1.8646487 1.8004929 1.9654161 0.54378897
1.5269402 0.7020152 1.4822062 1.3658652 0.52551526 2.3314364 2.213075 2.0506947

layers.1.bias f4 [32]
00000000: c747 3c3e b749 d4bf b189 84bf 16e9 073f
00000010: 7d06 d5bf be90 19c0 e00e 93bf 5f75 273f
00000020: 042f babe 1a11 19c0 6130 9cbf 5950 d63f
00000030: 205b fcbf a93b d7bf 1b83 a6bf 57ef 0dc0
00000040: 130e bebf dd6b 41bf 04bc b4bf eb2a b7bf
00000050: ab5b cebf 8d2e dcbf cb10 aebf 8052 3a3f
00000060: 72a8 8fbf 4fed 01bf dfc5 bdbf 3749 88bd
00000070: e32f c33d e412 f5bf 451c 2dc0 71e1 e2bf
0.18386756 -1.6584996 -1.035452 0.53090036 -1.6642605 -2.3994594 -1.1488914 0.6541347
-0.36363995 -2.3916688 -1.2202264 1.674327 -1.9715309 -1.6815082 -1.300876 -2.2177331
-1.4848045 -0.7555521 -1.4119878 -1.4309973 -1.6121725 -1.7201706 -1.3598875 0.72782135
-1.122328 -0.5075273 -1.482601 -0.066545896 0.09530618 -1.914639 -2.7048504 -1.7725049

layers.1.running_mean f4 [32]
00000000: d462 dbbe 480d 833f 522b bbbe 9de3 973f
00000010: 2acf 423f d9fb 0440 3cae b0bd e30b 25bf
00000020: 6a7f 7d3f 1b30 3c3e 640a 293f 8bbb fdbf
00000030: 5bc3 1b3d 09ed dcbe c302 0c3f 89a7 dd3e
00000040: c91d 163f b950 623d fe11 253f 9cb1 b6bd
00000050: b021 77bd bff4 903e 51e4 a73f 9a1c a0bf
00000060: 31be 9f3f b991 6d3d 3bb2 3e3f 3fcb 5bbe
00000070: 5d35 f53e e593 553f 118d 4ebf abe4 783c
-0.42848837 1.0238428 -0.36556488 1.1866337 0.7609736 2.0778716 -0.086269826 -0.6447126
0.99022543 0.18377726 0.6603148 -1.9822859 0.038028102 -0.43149593 0.54691714 0.43291882
0.586392 0.055252764 0.6448058 -0.08920595 -0.06033486 0.28311726 1.3116552 -1.2508729
1.2479917 0.0580003 0.7449071 -0.21464251 0.47892275 0.83428794 -0.80684 0.015191237

layers.1.running_var f4 [32]
00000000: e677 8143 886b 1043 27a0 3243 cb8c 1043
00000010: cbc0 3743 df8d 6043 d88e 8743 4eae 0343
00000020: 4942 1c43 3e08 2b43 e3f1 5543 9919 3643
00000030: d9c0 6343 4193 8b43 e367 f942 a3dc af42
00000040: 5220 bc42 447c 0243 a318 4843 0d84 3843
00000050: 4756 3243 76fb 3343 ec1f 4a43 edab 8143
00000060: ea31 5643 374b 0e43 c071 e942 acee 8843
00000070: e04d 2043 bca8 3f43 b5fd 9242 e10c ec42
258.9367 144.42004 178.6256 144.54997 183.7531 224.55418 271.11597 131.68088
156.25893 171.0322 213.94487 182.09999 227.75331 279.15042 124.7029 87.93093
94.063126 130.48541 200.09624 184.51582 178.33702 179.98227 202.1247 259.34317
214.19498 142.29381 116.72217 273.86462 160.3042 191.65912 73.49552 118.025154

layers.3.weight f4 [16, 32]
00000000: 5f78 c7be 4ca4 cbbe 51c0 3f3f d4f0 43bd
00000010: 7a51 143e 9804 3e3f e997 ce3e fa1c 2ebf
00000020: 6f21 48bf 6445 713f 3b1e 69be 7685 233f
00000030: 7d4f 9dbe a899 19bf d84e 50bf d080 bc3e
00000040: 2df1 e73e f101 bf3e 9ea0 a03d bf24 2c3f
00000050: 69c5 c5be b860 4b3e 6788 09bf 4e24 13bf
00000060: e7a2 44be cd73 49be 9998 063f fe82 9fbd
00000070: fb04 303f 6b2c acbc 5bae 3f3e f1f6 973f
00000080: c225 4bbf 6216 96be b2d1 123e 18a4 2fbf
00000090: b624 28be 4af6 6cbf 0ff3 36bd e007 31bf
000000a0: 49d2 7fbe 28a1 99ba f345 a6be 6fb5 65be
000000b0: cd2f 9ebe 3d4a ebbe 79ed 03bf c546 03bf
000000c0: 3fea 62be dfca 613f 6e14 edbd 3bc0 5fbe
000000d0: 8b94 abbe 2252 973e a4bf 923e 3fcd 1b3f
000000e0: caf4 b33e c307 533e 17f3 c93d 4b0e 0cbe
000000f0: aae3 3b3e b2d0 30bf 56e3 46bf e327 843e
00000100: 5df9 873e f9fb 09be 226f c13e a750 8d3c
00000110: f591 e5bd 0b61 9fbf 3a52 353e 0b44 1b3f
00000120: 1c13 e4be 9b01 dabd 57a6 d03e d7f0 9bbe
00000130: 65c5 b7be 7457 3cbe 0881 573d 4137 5b3f
00000140: 19fa 453f 9b3d c0bd 330a 2dbd a38d 26be
00000150: 5ff1 f4bd 38e2 f2be 5525 46bf 4ef2 3b3e
00000160: cd07 803d 2d72 78be 2668 b2be ac62 78be
00000170: 5c0d e23e baa9 153f d332 8d3f 42ee 8c3f
00000180: 1c5b 963e aaaa f3bc ab1f c93e 2ad1 1d3e
00000190: ad87 3abf 0175 46bf f788 693d d895 f1bb
000001a0: 0e63 013d f9a5 823e 4260 d83d 65ea d1bc
000001b0: 8566 dfbe 18bd 983c a8ac 183d 8d8a 56be
000001c0: b873 103f 58df 46be 3fd2 0ebe 3b40 d73c
000001d0: 39cb 13bf 2c73 65bf aa39 4cbc 4aa1 e9bd
000001e0: e3cd ccbe 7172 d53e e0bb 743d aa61 85bf
000001f0: 81e1 593f dbb4 96be bbf7 c63f 021c a13e
00000200: bda4 9db7 4c09 1c3d ee6f 2b3f 2fbc d13d
00000210: bb65 25bf 375d 69be 2fc2 2abf 179c 12bf
00000220: 5d07 b2bf 631c fd3c fc26 1dbf 93e1 203f
00000230: 5d86 1ebf f485 37bf e2b0 17bf cf2d 6cbe
00000240: 96f7 fc3e 9aa4 d1bd ef30 dabe ce40 08bf
00000250: 44d3 693a b840 b63e d3ae 8dbe 69d2 273f
00000260: bb91 d1be a6e6 6dbe f0bf 013f b853 8dbe
00000270: 32d6 92bf 3e58 8fbe 8807 27bf 4c02 193f
00000280: 9c7b 473e b5b8 9c3e 128e 973e f4aa 3c3f
00000290: a6e1 46bc ac41 27bf 8276 8abe e655 0f3f
000002a0: 0410 e53e db13 44be b22c c93d 4847 2f3e
000002b0: 8873 cc3e 690f 9d3d 56e6 17be 9514 5f3f
000002c0: 0a40 d33e c99b 22be 89c6 2ebe 5040 25be
000002d0: e1e3 5abf bcda d6be a18c 87bd d25d 19bd
000002e0: e5dd cabe dfae 213f 9c4e e3be e576 cebe
000002f0: 0102 d23e 3a46 38bf d0f3 a13f bfdc 953e
00000300: 08ef 143f 4606 873e 2c75 4f3e 60c4 1e3f
00000310: b47a 6dbd 0028 1abe dc2e b9be 89f1 803f
00000320: 8f02 2ebf 1bcb eabe 5a70 e7be d225 0fbf
00000330: 102d a4be 61c8 4ebf fd51 44be 18d8 b53f
00000340: 9547 883e 5c73 fd3d 08ae f8bd 2c2e d2be
00000350: c0e3 1ebe 7169 0dbf d331 683e a773 17bf
00000360: 8cd0 23be 3411 b5be b834 42bf d1f7 ee3e
00000370: 54a8 f53b 6b47 123e 0d55 f23e 6850 38be
00000380: 66da 42bf 2fa1 f9be a32e 1e3d e5ed f6be
00000390: eeb2 27bf d7a2 6ebf 49c5 4fbe fb47 1abf
000003a0: d2a0 2fbd 47bf 9bbe fa3a f1be 3fb0 a7be
000003b0: ddb1 aebe acb1 3cbf f046 9ebe fae6 b0bf
000003c0: e2f9 07bf 81fd 593f 73ab 00bf 8557 b53e
000003d0: 45cc 5dbe e43c 243f c083 3b3e b1ba 293f
000003e0: 81df a7bc 1adb c63e 45b4 27be cf76 a0be
000003f0: daa5 a6be 217f 3bbf deaf 64bf da89 c0bd
-0.38959023 -0.39773786 0.74902827 -0.047837093 0.14484206 0.7422576 0.40350273 -0.68012965
-0.78176016 0.94246507 -0.22765438 0.6387552 -0.30724707 -0.60000086 -0.81370306 0.36817026
0.4530119 0.3730617 0.07843135 0.6724357 -0.38627174 0.19861114 -0.5372376 -0.5747727
-0.19202767 -0.1967308 0.52576596 -0.07788657 0.687576 -0.021017274 0.18718855 1.1872236
-0.7935449 -0.29313952 0.14337805 -0.6860976 -0.16420254 -0.9256331 -0.044665392 -0.6915264
-0.24982561 -0.0011721002 -0.32475242 -0.22432493 -0.30895844 -0.45955077 -0.5153423 -0.5127986
-0.2215967 0.8820018 -0.11576162 -0.21850674 -0.33511767 0.2955485 0.28661835 0.60860056
0.35147697 0.2060843 0.09860819 -0.13677327 0.18348566 -0.69068444 -0.7769064 0.2581168
0.26557437 -0.13475026 0.377801 0.017250372 -0.1120948 -1.245149 0.17707148 0.606507
-0.4454583 -0.106448375 0.40751907 -0.30457184 -0.35892788 -0.18392736 0.05261329 0.85631186
0.77334744 -0.0938675 -0.042246055 -0.16264968 -0.119601004 -0.47438216 -0.77400714 0.1835415
0.06251488 -0.24262305 -0.34845084 -0.2425639 0.44150817 0.5846211 1.1031135 1.101021
0.29366386 -0.029744465 0.39281973 0.15411821 -0.72863275 -0.77522284 0.057015385 -0.007372599
0.031588607 0.25517252 0.10565235 -0.025624463 -0.43632904 0.018644854 0.037274033 -0.2095129
0.5642657 -0.19421136 -0.1394739 0.026275745 -0.5773197 -0.89628863 -0.01246492 -0.114077166
-0.4000083 0.41688874 0.059749484 -1.042043 0.85109717 -0.29434857 1.5544351 0.3146668
-1.879257e-05 0.038094804 0.66967666 0.10240971 -0.64608353 -0.22789465 -0.6670255 -0.57269424
-1.3908497 0.030897325 -0.6138761 0.628442 -0.6192377 -0.7168877 -0.59254277 -0.2306435
0.49407643 -0.102364734 -0.42615458 -0.53223884 0.00089197257 0.3559625 -0.27672443 0.65555435
-0.40931496 -0.23232517 0.506835 -0.27602935 -1.1471617 -0.2799701 -0.65245867 0.5976913
0.19480747 0.3060967 0.2960058 0.73698354 -0.01213876 -0.6533458 -0.2704354 0.55990446
0.4473878 -0.191482 0.09822978 0.17117035 0.39931893 0.07668955 -0.1483396 0.8714078
0.41259795 -0.1587974 -0.17067923 -0.16137815 -0.85503966 -0.41963756 -0.0661862 -0.03744299
-0.39622417 0.6315746 -0.44395912 -0.40325084 0.41017154 -0.7198216 1.2652531 0.29269978
0.5817723 0.26371974 0.20259541 0.62018394 -0.057978347 -0.15054321 -0.36168563 1.0073711
-0.67972654 -0.45858082 -0.45202905 -0.55917084 -0.3206563 -0.80774504 -0.19171901 1.4206572
0.26617113 0.12375519 -0.12142569 -0.4105085 -0.15516567 -0.55239016 0.22675256 -0.59160846
-0.15997523 -0.35364687 -0.7586169 0.46673444 0.007496873 0.14285056 0.47330514 -0.17999423
-0.761145 -0.48755786 0.038618695 -0.48228374 -0.655074 -0.93217224 -0.20290102 -0.60266083
-0.04287798 -0.3041937 -0.47115308 -0.32751653 -0.34120074 -0.73708606 -0.30913496 -1.3820488
-0.53115666 0.8515244 -0.5026161 0.35418335 -0.21659954 0.6415541 0.18311977 0.66300493
-0.020492317 0.38839036 -0.16377361 -0.31340644 -0.3254841 -0.7324086 -0.8933085 -0.09401293

layers.3.bias f4 [16]
00000000: 6fb8 983d 31ec 903e a1f9 0640 bc4f 9c3f
00000010: 1cfe 9040 901d 5340 92d8 0f40 8643 4040
00000020: 3b61 b440 7c09 7d40 7cc3 8740 c5a3 2440
00000030: 110a 233f 09cb 6a40 f6e3 8a3f 1116 da3f
0.07457053 0.283052 2.1089861 1.2211833 4.531019 3.2986794 2.2475934 3.0041213
5.636869 3.9537039 4.242613 2.5724957 0.63687235 3.6686423 1.0850818 1.7037984

layers.4.weight f4 [16]
00000000: 8fe0 0841 1290 6141 6f48 2b41 4cb6 4a41
00000010: 2c93 0e41 bfec 5c41 9fb1 3c41 11f3 0d41
00000020: 53a6 1241 2505 1641 8452 0341 4f0d 3641
00000030: 5070 4a41 8bf2 0941 7b54 6241 03db 0c41
8.554824 14.097673 10.705184 12.669506 8.910931 13.807799 11.793365 8.871842
9.1656065 9.376256 8.207645 11.378249 12.65242 8.621715 14.145625 8.80347

layers.4.bias f4 [16]
00000000: e28a cac0 30a2 fe40 05bb f740 f2f9 0641
00000010: c95f d2c0 e1e5 f740 8f45 f940 2a8b d8c0
00000020: 0672 c2c0 25d6 c5c0 eff1 dec0 307b 0041
00000030: 7c6b 0041 87e3 dcc0 50d9 0441 7ca7 d3c0
-6.3294535 7.9572983 7.7415795 8.436022 -6.5741925 7.7468114 7.789741 -6.766988
-6.076419 -6.1823907 -6.967033 8.030075 8.026241 -6.9027743 8.303055 -6.614195

layers.4.running_mean f4 [16]
00000000: ffad 36c0 ccbd 6240 f398 683f 5b29 fb3f
00000010: 8b87 2141 58af 7240 e1aa 7a40 8eee 1741
00000020: e801 1f41 b615 2a41 8550 713f c5d9 0a40
00000030: ed4e 5b40 ced5 1241 3148 9940 c842 cb3f
-2.8543699 3.5428343 0.9085838 1.9621996 10.095592 3.7919521 3.9166796 9.495741
9.937965 10.6303005 0.9426349 2.1695416 3.4266922 9.177198 4.7900624 1.5879755

layers.4.running_var f4 [16]
00000000: 58ae 0841 48ea ad40 f7aa 6341 9a07 1941
00000010: 3edc 5041 ca14 2041 ea11 2c41 c4b5 a440
00000020: c010 c341 051c ee40 ce7d d640 ef89 0041
00000030: 06c2 e040 8296 ba40 caf8 9340 dd12 c440
8.542564 5.434849 14.229239 9.564356 13.05377 10.005075 10.754374 5.147188
24.383179 7.4409204 6.702857 8.033675 7.0236845 5.8308725 4.6241198 6.1273026

layers.6.weight f4 [1, 16]
00000000: 5b46 36c1 2f58 3741 3cb6 1d41 89eb 2c41
00000010: 1617 3bc1 37fb 2c41 a3c0 2741 e1fd 19c1
00000020: cdb6 63c1 607f 35c1 1aaa 67c1 3c7d 2c41
00000030: 7f62 2d41 ed7b 16c1 38a4 3d41 8d62 18c1
-11.392177 11.459029 9.856991 10.807504 -11.693136 10.811332 10.48453 -9.624482
-14.232129 -11.343597 -14.479029 10.780575 10.836547 -9.405255 11.852592 -9.52406
