trained_models/NN_tuned/NN_32-16.pth (torch, 38773 bytes, 13 tensors)

layers.0.weight f4 [32, 242]
00000000: 3e16 b0be 8458 1f3f 55a7 f4bc 5de3 2d3e
00000010: 9f6c 7dbf ddbf 843f f737 81bf 2ba5 a0bf
00000020: 6f43 abbf b547 943f 81ba 153f e839 993e
00000030: 61c5 0fbf f0b3 f93e 3acb 223f 7002 0bbf
00000040: 2de5 54bf 1c5d 03bf ca14 44bf 2f01 d8be
00000050: 61cc 65bf 90fd 7f3e 700a 64bf 5253 6c3f
00000060: 3947 d8be d09d b83c 4365 d23d 6f36 ce3e
00000070: 145f 8abf 0871 213f f0c4 9d3e 6176 05be
00000080: f3f3 0cc0 dfe6 5abf 707e a33f 4899 993f
00000090: 3d81 b2be cc5d 9d3e dfad 403e e07a 8c3f
000000a0: 4755 e73e b8be 523f a5a6 21bf e59f bebf
000000b0: cabe d63e f40f 26bf 3b8d 20bf dfb7 e13f
000000c0: 5c45 883f 8233 873f 2867 c23f d56f e53e
000000d0: bb53 cc3e c6cd 2dbf d96f de3e 8c91 2abf
000000e0: 23fb dabf 744c 423f bced 5c3f 4dc1 b33f
000000f0: b6f8 0c3d 496e 26be 3c72 94bf 08d5 0040
00000100: 732e b03f 7814 b8be 14dd c2bf 856f 503f
00000110: 448f da3f 893d e13f 43e2 bb3f 98d4 603e
00000120: 2506 ce3e 7d03 73bf 685c 473f 8fae 383e
00000130: 879b 2c3e da58 c8bf f69e 91bf 3866 873e
00000140: 5af8 413f 8e38 3d3f ca80 d03e b5a2 ddbe
00000150: 9116 bb3d 2bda 6fbe b4dd 843f bf85 ba3d
00000160: 615e fe3e ed1a 8cbf 13e0 e6be eeca f83e
00000170: bffe e43e d006 723e b82d ae3e 7113 abbe
00000180: 3f12 c43d fef6 28be 5b9b a23e 6cc3 f23c
00000190: 2e82 c63f 970c 5abf 799a 4cbf c545 94bf
000001a0: 8e63 413d 5ad2 8e3e 9e4a 0d3f 9692 6ebf
000001b0: 4845 03bd 8e27 cabe a2cf 8dbe c090 7bbf
000001c0: 30e6 87be 0b88 9ebe 122b 51bf 8a06 61bc
000001d0: 1c34 08be 53cd a43d 3f89 d0be ab93 a1bd
000001e0: 3fae 7abd 168e 43bf 05f9 9cbe 8795 b73e
000001f0: d846 49bf d2e1 ef3e 8f88 d43e 6fa9 933f
00000200: 8777 19be c1f4 25bf 7f80 0f3e 0e5b 083f
00000210: cc6b 8a3e aa98 13bf 8faa c0bf e4ed b8bf
00000220: b21e 0c3f c4fd b83f 88c7 0ebe d0c2 4cbf
00000230: 9f17 81be e346 4c3e ad1f 88bf b3e7 a5bd
00000240: 3ebd 92be a2b5 413f 9f1e 2b3f fbcf f83e
00000250: 7af0 0f3f e348 aebe 3cf2 993e 3dc7 9fbf
00000260: 412d 4abf a3ef 973e 29af 6f3e ecfd 93bd
00000270: 58d8 ca3d 9168 08bf a55b 5abf dc94 c7be
00000280: 9901 27bf 1bf0 503f 3d33 14be 6c28 9f3f
00000290: 6751 953f 6244 903d 9196 ef3e df6e 6b3e
000002a0: 2cce b13e 76a3 fbbe fda4 fdbc 8d95 f2be
000002b0: 3c47 273e cf64 b33e c380 263f 614d 09bf
000002c0: 6bdb 96be 3c3d 84be f46e 263c 4911 8bbf
000002d0: 380b 83bf baa0 ce3e 39c7 bb3e b525 533d
000002e0: 6cfc 0a3d 9938 6bbe c2d5 bbbc 0ab4 08bf
000002f0: 8d88 63bf 9d62 27bf 658e 7bbe 1788 1d3f
00000300: 5a8a d7be 7059 9dbe 0b79 2fbd fdac a53e
00000310: 36ce 6abd f863 0bbf 2088 00bf 85d5 563e
00000320: ea61 e83d decf adbe e598 4cbf 33b9 fc3e
00000330: 6cca 403f d580 243c e015 99be bf43 653d
00000340: 7b64 53bf 5b29 8abe 5f9a 0f3e affa 7fbe
00000350: b80f 5cbe dc61 b23d 1e83 3bbf f1ca 74bc
00000360: d02f bf3e f941 2f3e 155c 5cbe d62b 8f3e
00000370: 5226 07bf ff33 2d3d 784d 49be 53a7 cbbd
00000380: a055 053e 284d 10bf 42e0 12be 8483 9cbe
00000390: c18c 81be 5de7 db3c 88e2 c8bd 66ee 42be
000003a0: 8059 c6bd 636c 07be a6af acbd 54b8 4fbc
000003b0: f625 99bd af02 51be 61f4 b83e 9134 023e
000003c0: 1e7c c4be 58a7 19bf e67e 1bc0 9fda 3f40
000003d0: c92b 823f c117 e93e 48c0 03bf 588c 673f
000003e0: a2f9 c13e 923d 86bf 8286 bb3e 202f 4a3f
000003f0: db5a 333e 18ec 2fbf 43dd 16bf 2c7a a5bf
-0.3439197 0.6224444 -0.029864946 0.16981263 -0.9899387 1.0371052 -1.0095204 -1.2550405
-1.3379954 1.1584383 0.5848771 0.2992699 -0.5616055 0.48770094 0.6359135 -0.54300594
-0.83162194 -0.5131395 -0.7659422 -0.42188403 -0.8976498 0.2499907 -0.89078426 0.92314637
-0.4224184 0.022536188 0.102732204 0.40275905 -1.0810266 0.63063097 0.30814314 -0.13033439
-2.2023895 -0.8550853 1.2772961 1.1999903 -0.34864226 0.30735624 0.18816327 1.0974998
0.4518225 0.82322264 -0.63144904 -1.4892546 0.41942436 -0.6486809 -0.627155 1.7634238
1.0646167 1.0562594 1.5187731 0.44811884 0.3990763 -0.6789211 0.43444708 -0.66628337
-1.7107891 0.7589791 0.86300254 1.4043366 0.034416877 -0.16253008 -1.1597362 2.0130024
1.3764175 -0.35953116 -1.5223718 0.81420165 1.7074971 1.7596904 1.4678425 0.21956098
0.40239063 -0.949272 0.77875376 0.18035339 0.16856204 -1.5652115 -1.1376636 0.26445174
0.7576958 0.7391442 0.40723258 -0.43288198 0.091351636 -0.23423068 1.0380158 0.09107541
0.4968138 -1.0945717 -0.4509283 0.48592323 0.44725606 0.23635411 0.34019256 -0.3341327
0.09573793 -0.1650047 0.31759152 0.0296342 1.5508478 -0.8517546 -0.79923207 -1.1583792
0.047214083 0.2789486 0.5519198 -0.9319242 -0.032048494 -0.39483303 -0.27697474 -0.98267746
-0.26542807 -0.30963168 -0.81706345 -0.013734469 -0.13301128 0.08046975 -0.4072971 -0.078894936
-0.06120133 -0.7638868 -0.30658737 0.35856268 -0.78623724 0.46851975 0.41510436 1.1536082
-0.14987002 -0.6482659 0.14013861 0.5326394 0.27035367 -0.5765482 -1.505205 -1.4447598
0.5473434 1.4452443 -0.13943303 -0.7998476 -0.25213334 0.19948916 -1.0634667 -0.08100834
-0.28660005 0.75667775 0.668436 0.48596177 0.56226313 -0.34039983 0.30067623 -1.2482678
-0.789753 0.29675016 0.23406662 -0.07226166 0.099045455 -0.53284556 -0.8529609 -0.38980758
-0.6523681 0.8161637 -0.14472671 1.2434211 1.1665467 0.07044293 0.4679456 0.22991513
0.3472761 -0.49148148 -0.030962462 -0.47379723 0.16335768 0.35037848 0.65040225 -0.53633696
-0.29464278 -0.25827968 0.010158289 -1.086465 -1.0237799 0.40357 0.36675432 0.051549632
0.033932135 -0.22970809 -0.022929076 -0.5339972 -0.88880235 -0.65384847 -0.24566038 0.6153578
-0.4209774 -0.30732298 -0.042840045 0.32358542 -0.057325564 -0.54449415 -0.5020771 0.20979889
0.113468006 -0.33947653 -0.799208 0.49360046 0.7530887 0.010040482 -0.29899502 0.05597281
-0.82575196 -0.26984677 0.14023732 -0.24997972 -0.21490371 0.087100714 -0.73246944 -0.014940963
0.37341166 0.1711501 -0.21519502 0.27963132 -0.5279285 0.042285915 -0.19658458 -0.09944024
0.13020945 -0.5636773 -0.1434336 -0.30569088 -0.253027 0.026843721 -0.098088324 -0.19036254
-0.096850395 -0.1322494 -0.0843194 -0.012678225 -0.074779436 -0.2041118 0.36123946 0.12715365
-0.38375944 -0.6002097 -2.4296203 2.9977186 1.0169612 0.45525935 -0.5146527 0.9044852
0.37885767 -1.048754 0.3662606 0.7897816 0.17515127 -0.68719625 -0.5893137 -1.2927909

layers.0.bias f4 [32]
00000000: 6147 a23f 4b56 8a3e af98 d0be d246 213f
00000010: ec1f ed3e 5d34 c43f b413 fcbf 824c fcbe
00000020: 4a46 73bd d404 933f 70e9 553f 838e d33e
00000030: 47a4 e1be 73f9 373f 591f 1dbf 1fb9 5f3f
00000040: 64f5 363f 0a8f 12c0 8491 84be b769 1ebf
00000050: 0145 b9be ea72 aa3f 85aa 6dbf 4831 36be
00000060: 271f b1bf 8fde af3f 564a 903f ee14 c93f
00000070: 8425 c8bf 8e91 e3bf 7365 f63e a59d 5bbf
1.2678033 0.2701896 -0.40741488 0.6299869 0.46313417 1.532848 -1.9693513 -0.4927712
-0.059393205 1.1485848 0.8355932 0.41319665 -0.44070646 0.71865004 -0.6137596 0.8739185
0.71468186 -2.2899804 -0.2589227 -0.6188006 -0.36185458 1.3316319 -0.9283832 -0.17792237
-1.3837632 1.3739794 1.1272686 1.5709512 -1.5636449 -1.7778795 0.48124275 -0.8578742

layers.1.weight f4 [32]
00000000: 09e9 0d3f de21 c93f 751f 663f eddf 8a40
00000010: 3b48 473f ba6c 3540 85f9 c53e 3ba6 5440
00000020: d746 1140 aef5 f93f 291c 893f 3d2b 2b3f
00000030: 60f5 cd3f 3ac7 973f ea5f a33f 5b4e 353f
00000040: 5dbd 203f 9140 7d3f 4cd6 9e3f 2f7b e73f
00000050: e26b d33f 6f10 6c3f 7f0b d33f 0a25 e53f
00000060: f355 393f c5d2 903f 6069 6640 2cd4 233f
00000070: 133a 4040 5152 403f 0b51 91be 6746 5440
0.5543371 1.571346 0.8989175 4.3398347 0.7784459 2.8347611 0.3866693 3.322646
2.2699487 1.95281 1.0711719 0.6686285 1.6090508 1.1857674 1.2763646 0.70822686
0.62788945 0.98926646 1.2409148 1.8084468 1.6517298 0.92212576 1.6487883 1.7901928
0.72396773 1.1314322 3.6001816 0.63995624 3.0035446 0.75125605 -0.28382143 3.316797

layers.1.bias f4 [32]
00000000: 5f15 80bf 611a 88bf b135 0cc0 2c40 a23f
00000010: 0d47 0c40 438c 13c0 ef61 14c0 0ffb b13d
00000020: 0875 1940 83cb 8cbf fbf8 e2bf 3b2b 0540
00000030: 7f2e 2e3e 555d 8fbf e2a8 04c0 aa98 1540
00000040: bcb4 ee3f c59d f2bf fec2 1540 606a 0b3f
00000050: 667e ebbf 26e1 edbf eed2 edbf a9ef f23f
00000060: 7fa0 d7bf 0bdb 2d40 f2f6 ddbf 51b5 c9bf
00000070: 872d 7240 2685 b03f e930 883f 4e9b 8a3f
-1.0006522 -1.063305 -2.190777 1.2675834 2.1918366 -2.305436 -2.3184774 0.08690464
2.397768 -1.0999607 -1.7732233 2.0807636 0.17009924 -1.1200358 -2.0728078 2.3374429
1.8648906 -1.8954397 2.3400264 0.5445919 -1.8397949 -1.8584335 -1.8579996 1.8979388
-1.6845855 2.7164943 -1.7340987 -1.5758458 3.7840288 1.3790634 1.0639926 1.0828645

layers.1.running_mean f4 [32]
00000000: 1cf1 b83f 960f 563e a895 cfbe ff11 703f
00000010: fcb2 563f a70a d53f 111c 24c0 39b1 7cbe
00000020: 0294 72be 9770 ca3f 98d1 cf3e 4a5e b3bd
00000030: 6c76 27be 34c8 1e3f ee9f 45bf 294e 513f
00000040: 4273 913f ad82 24c0 1151 efbc e4c0 34bf
00000050: 4dae e7bd 2bab c33f b0a6 a4bf 4a6b 13be
00000060: 79a1 b0bf bd6a a73f 2b88 973f 85ac a43f
00000070: 662e edbf 8a28 a1bf f563 113e edb5 97bf
1.4448581 0.20904383 -0.40543866 0.9377746 0.8386686 1.6643876 -2.564213 -0.2467698
-0.23689273 1.581561 0.40589595 -0.087582186 -0.16353768 0.62024236 -0.7719716 0.8175989
1.1363299 -2.5704758 -0.02921346 -0.7060683 -0.11312542 1.5286611 -1.2863369 -0.14396396
-1.3799278 1.3079449 1.183843 1.2865149 -1.8529785 -1.2590497 0.14198287 -1.1852394

layers.1.running_var f4 [32]
00000000: 0afd 1d43 bcf5 1b43 98d7 3043 dc79 7c43
00000010: 9594 d343 ff4d 5243 7104 bd43 92d1 4643
00000020: 8295 6e43 fa0f 2943 da01 1443 2334 4543
00000030: ec58 2c43 3742 b542 d789 3343 4050 2a43
00000040: 5aeb fe42 b9d5 0543 ed02 f142 bfc3 1243
00000050: 7a65 ab43 f03e 0243 50e7 ce42 3c56 5c43
00000060: c3e8 d942 08d2 9042 66a6 9b43 8074 8b43
00000070: 2e2c e342 0210 a143 4624 2743 b18e f842
157.98843 155.9599 176.84216 252.47601 423.1608 210.30467 378.0347 198.81863
238.58401 169.06241 148.00723 197.20366 172.34735 90.629326 179.53844 170.31348
127.45967 133.83485 120.505714 146.76463 342.7928 130.24585 103.45178 220.33685
108.95461 72.41022 311.3 278.91016 113.58629 322.12506 167.1417 124.278694

layers.3.weight f4 [16, 32]
00000000: 77ee b8bd abd1 a83e b03b 9b3d 6006 a63b
00000010: c699 473f 0af3 9ebe 3c3f 3cc0 274e 943d
00000020: 7bcf 80be 040d 10be b707 683e dfa6 ebbf
00000030: 0a97 2abe 99b3 81be 876e 013f 1f69 53c0
00000040: 0c8f 543f fb7f f7bf 2ad7 f1bd a11f 78be
00000050: 664c a33e 54c0 0d40 cbd7 c5bf 6d6d 563e
00000060: 003d aabf 60b0 e43c ce19 4c3d b7b3 02bf
00000070: a6f3 87be ae0a 9abf 6b5e f5bc 5346 9f3d
00000080: 426f 913e 9453 303f 938e 3c3d 14f3 2b3f
00000090: 7ff6 b63f 712a e7be 9576 88c0 b8ab e23e
000000a0: b495 2ebc 5734 783d c5fd f7be 6a4b 86bf
000000b0: f49f 313e 58d8 83bc 78b9 853f 18cb 00c0
000000c0: 79ec 5e40 93b3 0d3e 76ea 423c 3427 1dbe
000000d0: 31ea 41be 3f56 fcbd 55dd f1bd 505d 2ebf
000000e0: 14d4 2bbb 32fc d6bd 572f d7be 21f6 05c0
000000f0: fe49 743e 127d 473f 799c 0fbf adf2 59be
00000100: 47eb d9bf 7313 c23e fa27 e43d c39b 8a3b
00000110: d459 183c 7da7 22bf f0c0 f3bd 4e04 b7bc
00000120: 55b7 923f 5511 b5be 0397 bf3f 99fc 2240
00000130: 2347 74bf 443c 8c3e b3be 26bc 74a0 af3f
00000140: b9c3 8abd a870 c83d c377 8b40 5b14 d9bc
00000150: 4ffe ba3d 14b4 c33d 180e df3b 3644 893d
00000160: 4a0c bbbb 02c0 c5bd 29a2 0abf 1e9c 053d
00000170: c61f 85be 3aa3 92bd 7648 423f 0706 f63e
00000180: d31b be3e 89f1 45be 7915 e6bd 72ca 08bf
00000190: 6f94 12c0 add6 1a3f c93b 8540 c7f7 433e
000001a0: b8f4 e33e 9da9 93bd 9813 58bf 99b6 be3f
000001b0: 9ea9 303e 3813 dd3e bc29 1bbf 00ad 5d40
000001c0: 031c a2bf 1437 0840 0de8 46be 8ff1 93bd
000001d0: fcd4 85be 526e 0cc0 60ac e1bd c606 80be
000001e0: 3c9c 5b3e e446 1abe 9aea 88be 7bda a63f
000001f0: 9e7e 483f b8b4 2c3e 9968 ba3e 6179 a93e
00000200: a55a 533c c557 d0bd 2d10 03bf ac7d 23bf
00000210: f028 4bc0 e6a4 fa3e df8e 7840 77b3 a53e
00000220: 15ef 5a3f 41b2 dd3e 09db bdbe 3ddd 723f
00000230: 9d5b 81be 82bf c73e 4cae eabf 394d 1a40
00000240: f2ce 02be 143a 0840 0b38 263e 8231 aabd
00000250: 9298 93bc 5607 34be 7e5e 1fbe dddf 563e
00000260: c4ce 25bf 4e25 93bc 8c20 e53e 6934 f23f
00000270: 033f e23d 3238 243e 85f7 9ebf 692a eb3e
00000280: 02b3 cfbf fe45 78be 0131 f23e b383 c23d
00000290: ff1e c23f 0340 b8be 0f0f 16bf e8c1 d6bc
000002a0: 3bba 1bbf 3f2a 4f3d 9b75 eabe 886f 35c0
000002b0: a834 83be 9bf5 f53d 282e 04bf c730 90c0
000002c0: 60c4 db3f e414 8e3e 1cee 9cbd 8802 11bf
000002d0: fdf4 db3e 6b23 b13e 7421 9ebe 2103 ea3e
000002e0: 5bc4 68bf e1f2 6f3e 76b0 bb3e 8be4 11bf
000002f0: 9e5c 84bf 6824 63bf cc8d 283f 3786 86be
00000300: 85f9 8a3f 161e b8be a53f d53f a614 11be
00000310: 5d2c bcbf 422c 4bbe ab5c 9f3f 91e3 473e
00000320: bfc4 5b3f bd1f bd3e 234f 773f c069 b9bf
00000330: 32e2 95be 8643 453e 4b13 223f 16aa b3bd
00000340: b56c 4fbe e3c4 a33f 385d 1a3f 30f0 edbe
00000350: ce51 f3be 8101 7dbf ef0d cfbe e768 a2be
00000360: 808b 913f 516b 5a40 9470 07bd 5411 f93e
00000370: 8317 0e3f 014b 863e 206a 0040 7312 743f
00000380: 0b67 a63d b564 40bc bd45 453f 1e14 0ebe
00000390: 4c47 ce3e 36c8 6ebe 289f 90be 1401 ff3e
000003a0: 7b56 9fbf f429 e43d 6db0 a9be 20cd 86c0
000003b0: 6986 4cbe 0ac6 ab3e 4782 f6bd 84d4 b8bf
000003c0: ddf0 c3be f50f e7bc d24c 7bbf c5a7 a5bd
000003d0: 09a5 6c3f b364 eb3e ff87 7e3e c1ba 363f
000003e0: 6ae1 d03e 1690 313f 4445 31be 4a8e 9abf
000003f0: be2c 373f cfa6 90bf 664b 0c3f 4fba 7dbe
-0.090298586 0.32972464 0.07579744 0.005066678 0.77969015 -0.310448 -2.9413595 0.07241469
-0.25158295 -0.14067465 0.22659193 -1.84103 -0.1665918 -0.25332335 0.50559276 -3.303291
0.8303077 -1.9335932 -0.118086174 -0.24230815 0.31894225 2.2148638 -1.545648 0.2094018
-1.3299866 0.027916133 0.049829297 -0.51055473 -0.26553077 -1.2034509 -0.029952249 0.07777085
0.28405195 0.6887753 0.046034407 0.6716778 1.4293975 -0.45149568 -4.2644753 0.44271636
-0.010655809 0.06059679 -0.48435798 -1.0491765 0.17346174 -0.016094372 1.0447226 -2.0123959
3.4831831 0.13838033 0.01189672 -0.15346986 -0.18936993 -0.12321138 -0.11809794 -0.68111134
-0.0026218938 -0.10497321 -0.42028305 -2.0931475 0.23856351 0.7792522 -0.56098133 -0.2128398
-1.7024926 0.37905464 0.111404374 0.004229994 0.00929876 -0.63536817 -0.11902034 -0.02234092
1.1462198 -0.35364786 1.496796 2.5466673 -0.95421046 0.2738973 -0.010177302 1.3720841
-0.067756124 0.097871125 4.3583694 -0.026498964 0.09130537 0.095558316 0.0068071 0.06702463
-0.005708252 -0.09655763 -0.54153687 0.032619588 -0.26000804 -0.07160039 0.75891817 0.48051473
0.37130603 -0.1933042 -0.11234564 -0.5343391 -2.2903097 0.6048382 4.163548 0.19137488
0.44522643 -0.072100855 -0.844049 1.4899474 0.17252204 0.43178725 -0.60610557 3.463684
-1.2664798 2.1283617 -0.19424458 -0.07223808 -0.26139057 -2.1942334 -0.11019206 -0.25005168
0.21446317 -0.15066105 -0.26741487 1.3035425 0.783182 0.16865814 0.36407927 0.33100417
0.012900029 -0.10172991 -0.5119656 -0.63863635 -3.1743736 0.48953933 3.8837202 0.32363483
0.8552106 0.4330006 -0.37081173 0.9486883 -0.25265208 0.39013296 -1.8334441 2.4109633
-0.12774256 2.1285448 0.16232316 -0.08310224 -0.018017087 -0.17580923 -0.1556339 0.20983835
-0.64768624 -0.017962124 0.44751394 1.8922244 0.11047175 0.16037062 -1.2419287 0.45930794
-1.6226504 -0.2424545 0.47303012 0.09497776 1.5165709 -0.35986337 -0.5861673 -0.026215509
-0.6083104 0.0505774 -0.4579285 -2.8349323 -0.2562611 0.12009736 -0.5163293 -4.5059543
1.7169304 0.27750313 -0.07662603 -0.5664449 0.4296035 0.34597334 -0.30884898 0.45705512
-0.90924615 0.23432495 0.36658067 -0.56989354 -1.0340765 -0.88727427 0.65841365 -0.26274273
1.0857397 -0.35960454 1.6660048 -0.14168033 -1.4701039 -0.19841102 1.2450155 0.19520403
0.85847086 0.36938277 0.9660513 -1.4485397 -0.29274136 0.1926404 0.6331069 -0.08772676
-0.20256312 1.279446 0.6029849 -0.4647231 -0.4752335 -0.9883042 -0.40440318 -0.3172066
1.1370697 3.4128 -0.033066347 0.48646033 0.55504626 0.26229098 2.0064774 0.9534065
0.08125123 -0.01174276 0.7705954 -0.13874862 0.4028877 -0.23318562 -0.28246427 0.4980551
-1.2448267 0.111408144 -0.33142415 -4.2125397 -0.19973148 0.3354953 -0.12036567 -1.4439855
-0.38269702 -0.028205851 -0.98164093 -0.0808864 0.92439324 0.45975265 0.24856566 0.71378714
0.40796977 0.6936048 -0.17311579 -1.2074673 0.71552646 -1.1300906 0.5480255 -0.24778102

layers.3.bias f4 [16]
00000000: c1f3 a8be 4b68 073e 9789 24c0 ecbb 0bbd
00000010: fa68 943d da5a 3a3f a8b9 673f ebb4 3b40
00000020: e5dc 683d b63d d7bf b5d3 9b3e 486c af3f
00000030: baa1 c3bf 5dec 3bc0 96d2 b13e 0065 f2bf
-0.3299847 0.13223378 -2.5708978 -0.034114763 0.07246585 0.7279488 0.90517664 2.9329174
0.056851286 -1.6815708 0.30434957 1.370492 -1.528373 -2.9363015 0.34730977 -1.8937073

layers.4.weight f4 [16]
00000000: 1deb 6d40 7a9a 6c40 1d8e 3240 3698 9640
00000010: 17eb 7e40 f304 4c40 bdc6 6c40 7cc7 6140
00000020: 4409 8340 b5a0 7d40 2920 a140 0ed7 0540
00000030: 3e95 1e40 cd7a 8440 f4ff 4e40 91d1 fb3f
3.7174752 3.6969285 2.789924 4.7060804 3.9830987 3.187802 3.69963 3.5278006
4.094881 3.9629338 5.035176 2.091251 2.477859 4.1399903 3.2343721 1.967333

layers.4.bias f4 [16]
00000000: 2fca 28bf 0983 bb3f 1a18 0f3e d614 02c0
00000010: 57b1 a3bf 0b25 c2bf 43e2 e43f ee99 70c0
00000020: 7dc8 d2bf 5c13 0240 e66b abbf 9ead 4f40
00000030: a988 623f 753a 13c0 151a d6bf 4c42 063f
-0.6593351 1.4649364 0.13974038 -2.0325217 -1.2788495 -1.5167555 1.788155 -3.7593951
-1.6467434 2.0324316 -1.3392303 3.2449718 0.88489777 -2.300443 -1.672671 0.5244491

layers.4.running_mean f4 [16]
00000000: c6b1 04bf f5f9 e740 3262 c740 d2ec fdbf
00000010: 4566 90c0 a5b4 e0bf a9e4 9dbf 18e9 69c0
00000020: a8fe 73bf c685 8340 6a1b a0c0 9fa3 8ac0
00000030: 491d 0841 675c 9840 3902 55c0 9fc6 a440
-0.5183376 7.2492623 6.2307367 -1.9837897 -4.512484 -1.7555128 -1.2335407 -3.654852
-0.9531045 4.11008 -5.0033464 -4.3324733 8.50715 4.7612796 -3.3282607 5.1492457

layers.4.running_var f4 [16]
00000000: a455 5c40 188d c140 12a9 ad40 410a b240
00000010: 1e55 a040 c30f 2540 a325 a840 e92e fd3f
00000020: f87a 9f40 7be8 9d40 7a70 8d40 d9f9 0c41
00000030: cd7c 9640 55b1 0341 82b8 5440 de33 a340
3.442727 6.0484734 5.4268885 5.5637517 5.0103903 2.579087 5.2545943 1.9779941
4.983761 4.934629 4.41998 8.810998 4.7027345 8.230794 3.3237615 5.1000814

layers.6.weight f4 [1, 16]
00000000: 0db4 e6c2 51c1 d642 e8b5 d542 edaf d3c2
00000010: 45d2 dac2 503e d0c2 c15a dd42 12d0 d0c2
00000020: c4e5 e8c2 82b3 f042 c765 e0c2 230a cc42
00000030: f080 cf42 5d30 b7c2 4bff cfc2 b01e d342
-115.35166 107.37757 106.855286 -105.843605 -109.41068 -104.121704 110.67725 -104.40639
-116.44876 120.3506 -112.198784 102.0198 103.75183 -91.59446 -103.99862 105.55994
