trained_models/NN_tuned/NN_32-16_leakyrelu.pth (torch, 38773 bytes, 13 tensors)

layers.0.weight f4 [32, 242]
00000000: bc3b 843e c958 74bf e2dc 8e3f f933 233f
00000010: 0e19 993f 96d6 90bf 956f 2a3e d654 75bf
00000020: d2b8 3d3c 1c02 9aba 1e3a 113d 7d81 e6be
00000030: cf02 36bc 5d84 0abf 5b74 67bf 5de9 9fbe
00000040: 2ec1 8dbf 1334 12bf 95e8 abbe bfa6 003f
00000050: 9d5a 773d cf53 963e dbe1 4dbf 5c9e d83d
00000060: 37db fc3e 617f 703e 9a7f 52be f20a eabe
00000070: c99a 97bf e05f 503d 74f7 803f d39e 493f
00000080: 926c 24bf 06fc d1bd 2bbf a5bd 402f d6be
00000090: 4fdc ffbe ef5e 8a3e 1d1f 8abe a267 8b3f
000000a0: 4710 4c3f 8749 aa3e 2fa4 d6be 8ef0 bf3e
000000b0: e424 2d3d 17f5 bcbd 5b67 c33d 8083 6a3e
000000c0: 2ca4 eabd 98eb 773d 0ba0 0e3f c301 5c3f
000000d0: be07 403f 4eac ad3e 9ac7 fa3c ad40 003e
000000e0: 5733 c7bf 3a4d dcbe 32a4 203e 107d febd
000000f0: 51ad 69bf f19a 94be 99f2 1b3e 7063 743f
00000100: d0f7 683e e21e eb3d ba4b 763f 4a91 a33e
00000110: bbb6 ca3e 944a 2fbf d2c8 01bf 6d88 1ebf
00000120: 241b 77be f5a5 88bd f418 43bf 74f4 6cbe
00000130: 9d34 b7be 8796 ed3e 3ba9 f4bd d057 673f
00000140: 0e54 463f 4414 193f 066c d13e 3364 19bd
00000150: 0d12 a73e c379 fa3e fb9c de3e c255 b63e
00000160: 1b96 0f3f fd15 05bf c54c 17bc ed13 83bf
00000170: e2c9 45bf d24b 9e3a 60ac 5ebe 3ebd db3e
00000180: a319 963e 5abe 8f3e 4fda 483e 8be3 47be
00000190: e813 493b a4ca 08bf e457 26bf 261a c33e
000001a0: f78c e43d bcaa 023f a839 a63e 48eb d33e
000001b0: 2203 cc3e ba8d 2c3e a665 cd3e 0f54 eabe
000001c0: 1b14 cbbb 2cc9 3abe 58cb 8f3e 1937 053e
000001d0: edfe 903e e874 a6be f832 a7be a6f8 eabe
000001e0: 9842 9ebe 0ad9 843e 3d14 0ebe c61e bb3e
000001f0: 7b14 4e3d 32a8 b13e f351 6b3f 91dd 15be
00000200: 2e48 2ebe a855 51bf e34f 77bd 5edf f1be
00000210: e931 24bd 2cb7 97be 9aa2 d8be ed68 ecbe
00000220: 2145 5ebe 031e a53e db72 c63e 5063 4abe
00000230: 3d09 073d b7a7 24bf 49b7 43bf 2834 3abe
00000240: 9119 50be 1564 36bd 7e75 d53d 87fe a13e
00000250: 211e 1fbe 07cc 84be 99b9 c6be a45d 9dbd
00000260: c241 543f d849 423e 6830 89bc 928e 793e
00000270: f14a e03e 25d8 afbe 6fd6 fabe dce9 dcbd
00000280: 26bf 17be c343 23bd 6468 e63e d5f7 4cbe
00000290: 248f 4dbf a917 0c3e c02b 18be 42b4 cf3e
000002a0: f43c d03e 79c2 603e 8d76 943e eae2 38bd
000002b0: e3b4 da3e 7282 c1bd f92e 843e c024 d7be
000002c0: 8781 36be 4ecb a8be 9301 443e 80fc ff3d
000002d0: e658 3ebd 99e1 72be 1951 af3e e40a 50be
000002e0: 34e0 3fbd 43f1 23bf e2b1 27bf cd1b 91be
000002f0: 0418 9cbe 8c5e 0f3e af51 85be 9881 ba3e
00000300: a385 523e 4d2f 5d3e 6078 373e 6ca2 a8be
00000310: 2a07 03bf 94b8 983d 7562 323c 5695 7c3d
00000320: 5ad7 913e 644f f3bd 4a62 cc3d 21cd 7abe
00000330: 633c 87be 2bc6 cc3d a06c ce3d 55c3 133e
00000340: 59db 793e 0d1a 25be e24b babe 0b9d ffbe
00000350: f74d 17be d4bf 0bbe ee0d 16bf 9d9c 98bd
00000360: 975e 313e 4bfc d83e 5e0b 07be 43aa 17bf
00000370: fb98 0bbf 968a 633e 0eb9 623e 31f8 b03e
00000380: f38a 693d ea93 8ebe 7bd9 34bd 63e7 c1bd
00000390: 93fa 20be 44ec a7bd 2745 983d e0c1 15be
000003a0: 02f2 c6bd 7c98 c73d 655b a2bd 44bb 80be
000003b0: f116 c0be ab96 0cbd 4d18 9bbe 1393 6a3d
000003c0: 6c02 703e 6319 35bf b8ba 263d 3d74 b53f
000003d0: fa60 27be 763f e63f 3602 e63e 7841 383f
000003e0: 7653 c13f 5bb1 8a3d 546c 3b3f 4b4d b3be
000003f0: f9d0 2739 a7f8 cbbd 3c5f 353e ca9d 89bf
0.25826824 -0.95447975 1.1161158 0.6375118 1.1960771 -1.1315486 0.16644128 -0.95832574
0.011579709 -0.0011749896 0.035455815 -0.45020667 -0.011109068 -0.5410822 -0.9041192 -0.3123273
-1.1074579 -0.5711071 -0.33575884 0.50254434 0.06038915 0.29360816 -0.80422753 0.1057708
0.49385998 0.23486091 -0.20556489 -0.45711476 -1.1844112 0.050872684 1.0075517 0.7875797
-0.64228165 -0.10253148 -0.08093103 -0.41832924 -0.4997277 0.27025554 -0.26976863 1.0891001
0.7971234 0.33259222 -0.41922137 0.37488216 0.04227151 -0.09226435 0.09541198 0.22901726
-0.114570946 0.060527414 0.55712956 0.8594019 0.75011814 0.3392052 0.030612756 0.12524672
-1.5562543 -0.4302767 0.15687636 -0.124261975 -0.91280085 -0.2902446 0.15229262 0.9546423
0.22750783 0.114805 0.962093 0.31946784 0.39592537 -0.6847317 -0.5069705 -0.6192692
-0.24131447 -0.06672279 -0.7620995 -0.23140126 -0.35782328 0.46403906 -0.11946341 0.90368366
0.7747201 0.5979655 0.40902728 -0.037449073 0.3263096 0.48921022 0.43479142 0.35612303
0.5608842 -0.51986676 -0.009234612 -1.0240456 -0.77261174 0.001207704 -0.21745443 0.42917818
0.29316434 0.28074914 0.19614528 -0.19520395 0.003068203 -0.53434205 -0.6497786 0.38105887
0.111596994 0.5104177 0.32465863 0.41390443 0.3984614 0.1685094 0.40116614 -0.45767257
-0.006197465 -0.18240803 0.28084826 0.130093 0.28319493 -0.32511067 -0.32656074 -0.4589283
-0.30910182 0.25946838 -0.13874908 0.36546916 0.0503125 0.34698635 0.9192192 -0.14635302
-0.17019722 -0.81771326 -0.06037892 -0.47240728 -0.04008666 -0.29631937 -0.42311555 -0.46173802
-0.21706058 0.3224946 0.38759503 -0.19764447 0.032967795 -0.6431841 -0.76451546 -0.18183959
-0.20322253 -0.04452904 0.104228005 0.316395 -0.15538837 -0.2593691 -0.38813475 -0.07683876
0.8291284 0.18973482 -0.016746715 0.24370793 0.43807176 -0.34344593 -0.48991725 -0.10786793
-0.14819011 -0.039859544 0.4500152 -0.20016415 -0.8029654 0.136809 -0.1486044 0.40567213
0.40671504 0.21949185 0.28996697 -0.045138277 0.4271613 -0.094487086 0.25817087 -0.42020226
-0.17822848 -0.3296761 0.19141226 0.124993324 -0.0464715 -0.23718871 0.3424156 -0.20316654
-0.046844676 -0.6404001 -0.655058 -0.28341523 -0.30487072 0.1400091 -0.26038882 0.36426997
0.20558791 0.21600075 0.17917013 -0.32936418 -0.51182806 0.074570805 0.010887732 0.061665855
0.28484613 -0.11880377 0.09979685 -0.24492313 -0.2641326 0.09998735 0.10079312 0.14429982
0.2440008 -0.16123219 -0.3638602 -0.49924502 -0.14775835 -0.13647395 -0.58615005 -0.074517466
0.1732124 0.42379984 -0.1318793 -0.59244174 -0.54530305 0.22220835 0.22140905 0.34564355
0.057017278 -0.27847224 -0.044152718 -0.09467962 -0.15720586 -0.08199361 0.07435065 -0.14624739
-0.09714128 0.09745881 -0.079275884 -0.25142872 -0.37517503 -0.034323376 -0.30291978 0.057269167
0.23438424 -0.7074186 0.040705413 1.4176098 -0.16345587 1.7988117 0.44923562 0.719749
1.5103595 0.06772109 0.7321217 -0.35019907 0.0001600421 -0.09959536 0.1771211 -1.0751278

layers.0.bias f4 [32]
00000000: 2b3a 3c3f 37a2 983b 5cea b7be 54f0 08bf
00000010: cad5 153f 67e2 3cbf 563a ebbd 0503 8f3c
00000020: 9233 33be 9aa0 6a3f 22bf e83e 394f a83e
00000030: 3369 1dbf 8283 9b3f fb5b 7a3e 0199 193e
00000040: 0141 2cbe 9753 80be 9b75 01be 62ab 86bf
00000050: c4b6 29bf 5dac ae3d a255 2ebd 4945 50be
00000060: 05d7 40bf 65d7 0abe 268b 2abf c868 6e3f
00000070: 4998 1c3f 0c00 773b a09e febe eea3 65bf
0.7352626 0.0046580094 -0.3592099 -0.5349171 0.5852934 -0.7378296 -0.11485736 0.017457495
-0.17500141 0.9165131 0.45458323 0.32872942 -0.61488646 1.2149508 0.2444915 0.14999773
-0.16821672 -0.25063774 -0.12642519 -1.0521052 -0.66294503 0.085289694 -0.042562135 -0.2033893
-0.75328094 -0.13558729 -0.66618574 0.93128633 0.6116987 0.0037689237 -0.49730396 -0.8970326

layers.1.weight f4 [32]
00000000: 3a93 bb3f 5f80 8340 e56c c73f 7b11 463f
00000010: a5ca 8f40 7431 2940 a64b 463f 454a 3f40
00000020: 4a7e 3840 5218 403f 0c20 843f ad17 5f40
00000030: ed6e 7740 a6e3 d23e 366b 023f 0cff 3a3f
00000040: e307 0a40 625d 853f 6c4d da3f 0d2d 963f
00000050: d3ac 033f 6e08 143f da8e c73f 7159 463f
00000060: 4c71 8040 cd73 e23f 067b 0d3f fb50 623f
00000070: 5eca ad3f 91b0 453f 035b 703f ecdf 363f
1.4654305 4.1094203 1.5580107 0.77370423 4.493487 2.6436434 0.7745918 2.988908
2.882708 0.7503711 1.032228 3.48582 3.8661454 0.41189307 0.5094484 0.7304542
2.1567314 1.0419123 1.7054877 1.1732498 0.51435584 0.5782536 1.559047 0.77480227
4.01383 1.769159 0.55265844 0.88404816 1.3577383 0.77222544 0.9388887 0.7143543

layers.1.bias f4 [32]
00000000: e89e 0cc0 7318 2240 e7e6 a6bf 9d0f 0740
00000010: 85f0 243f 1863 9d3f a73c 0ac0 10b5 a2bf
00000020: 47ee c63f 7a39 1040 2e1f 04c0 b36b 82be
00000030: d7fa e53f 8f11 1940 d30f aa3f ddef 0e40
00000040: 2f52 1d3e e840 b23f 74d1 0fc0 42e0 dbbf
00000050: b9aa 14c0 07ff b33f b181 1f3f 8d35 0bc0
00000060: 885d 943f c328 e5be 1c35 703f 3c83 babf
00000070: 9151 f0bf bfb5 1640 aa9d 11c0 6a18 bd3e
-2.1971989 2.5327423 -1.3039216 2.110328 0.64429504 1.2295866 -2.159952 -1.2711506
1.5541466 2.253508 -2.064403 -0.25472793 1.7967175 2.3916967 1.3286079 2.23339
0.15363382 1.3926058 -2.247159 -1.7177813 -2.32292 1.4062203 0.6230727 -2.1751435
1.1591043 -0.4475766 0.9383104 -1.45713 -1.8774892 2.354843 -2.275248 0.3693269

layers.1.running_mean f4 [32]
00000000: 7faf 023f c7ac 89bb d346 9bbe e78e 4fbf
00000010: 977a f23e 800f 57bf 433c 02bf cc6f 6e3e
00000020: 9236 b2be 6e4d 603f 7565 493e 9684 ff3e
00000030: aa60 04bf 3938 be3f e5df d03e c68d 193e
00000040: afcd c3be 6075 bbbe 2c4a afbe 37ce 84bf
00000050: f40d 8dbf d085 3fbd 103d bfbe 022e bf3d
00000060: c2a7 48bf 7dd8 3cbd c06a 58bf 1575 573f
00000070: ae0f 313f 0dfd 1abc 3873 f0be fdf6 6fbf
0.51049036 -0.004201505 -0.30327472 -0.81077427 0.47359154 -0.84008026 -0.508732 0.23284835
-0.3480726 0.8761815 0.19667609 0.49905843 -0.5171 1.4860908 0.40795818 0.14995489
-0.38242862 -0.36612988 -0.34236276 -1.0375432 -1.1019883 -0.046758473 -0.37351274 0.09334947
-0.7838098 -0.046104897 -0.8453789 0.8416303 0.6916455 -0.009459746 -0.46962905 -0.9373625

layers.1.running_var f4 [32]
00000000: a868 a842 d52d d942 a131 af42 3c27 8442
00000010: c63c fc42 650c e842 9932 2f43 8fed cb42
00000020: a3d3 a042 55ea ec42 71ea d742 8758 ca42
00000030: cf3d 0043 34bf 2e43 9bdb 1643 ff12 fc41
00000040: 447c 8e42 3677 c942 bf65 1543 d07a b342
00000050: fbce 8b43 5b4f e142 b1f8 fd42 726f c742
00000060: 47ef a042 a734 d442 7224 b442 0170 0743
00000070: 6c0c 3243 c19e 0543 69ba 8f42 8471 ea42
84.20441 108.589516 87.59693 66.07663 126.1187 116.02421 175.19765 101.96398
80.41335 118.45768 107.95789 101.172905 128.24144 174.74689 150.85783 31.509275
71.24271 100.732834 149.39745 89.73987 279.61703 112.65499 126.985725 99.71767
80.46734 106.10284 90.07118 135.43752 178.04852 133.62013 71.86408 117.22171

layers.3.weight f4 [16, 32]
00000000: 7bf2 dd3e a406 f33b 9900 c2bf 08d3 293e
00000010: 5cb4 c6bc db5e 073e 9a56 c03f ef87 f6bd
00000020: ec4e 88bd 737b 7f3d d711 11bf 1797 4abc
00000030: 7b9c ec3d 988e 35c0 81f3 7fbf b9f3 6dbd
00000040: 1fa1 1d3e cab7 203d eab0 773e ef9c 7d3e
00000050: 411b 1d3e c108 a33e 5035 bbbd de5e 263d
00000060: a87a 263d 5755 88be f2a1 d7bd cc41 7abc
00000070: 9bf0 93bd 4682 823f 52ce 98be cbef bc3e
00000080: 380c 88be 33ae 8e3d 45eb b3bd b0c6 9a3c
00000090: 7aa8 893c dff3 f93d 317b d3bf e8e1 1f3d
000000a0: 410b 223e 3215 e0bf 24fe a33d 261a 23bf
000000b0: 90e4 d03e a0ac 5940 5df2 253f 8e4e ecbd
000000c0: 5e53 1cbe 6cb9 d3be 14ec d7be 6228 ec3c
000000d0: 4ba1 90bf 3729 153f 028b 0b3e a908 dd3f
000000e0: 719b c9bd 1bb9 e13d 2908 ee3d 3ab9 b7be
000000f0: 56e7 f33c 9fbb 08bf 4695 7e3f addc 5f3e
00000100: df5f e9be 1538 743e 66a4 39bc 4b25 ad3f
00000110: b75b 773e 66b1 873e 7442 7f3e e1eb 2dbe
00000120: 8b19 44be 48c3 4cbf c955 21be 4761 a63e
00000130: 4e2a 043e 40e3 48bf 3784 dcbf b6db 0240
00000140: bce4 ce3c 9dd9 90bf 247d 00bf d800 013f
00000150: 9a6a 0940 febe 803f 2f5c 20be 2aed 7d3e
00000160: 4a11 0b3f cfe7 6bbc 0ffa db3d a4f5 983e
00000170: 6d71 8cbc 2179 123e ed27 a1be 73ea 27be
00000180: 6feb 3b3e 5fac dd3e 451e a23c 8c38 0abf
00000190: aaeb 013d 28c8 4cbe 092b dc3f 4ee6 463e
000001a0: a4a3 f03b 3991 cf3f c52c 59bf 03fa 89bd
000001b0: b38c a13c b56d 97bf f34d b3be fee2 cc3d
000001c0: 4064 a63e 1ac9 a3bd 4372 0abe 69f4 843d
000001d0: 576a 183f 219a f33e 536e 3abd d97d 03c0
000001e0: d363 a93e d2e4 1c3e 1e8d 04bf d9ae 35be
000001f0: 3515 fabe ebcb 2140 be4c b33e 4132 24be
00000200: 63ca 7c3d 04b6 02bd 295d 46bc c37e 8abf
00000210: 072b cdbc 0319 ec3c bab5 0440 ffd5 503e
00000220: cdb9 f2be 6762 633f f60b 213d 8524 b43e
00000230: fb7b 04bf b59a 23c0 c767 3b3e b51b 353f
00000240: a423 23bf 3a2d 963d e23c 133e 5d99 85be
00000250: f88c 1540 adb6 59be 128d 67be 3e6d b6be
00000260: 19b5 813e 5101 a4be 9b06 b33e 565c 093f
00000270: 5e6d 4c3d ab53 3a3c b013 aabd a44f df3d
00000280: d3e6 bd3e d88d 1f3d 93b3 753d 4773 9ebf
00000290: 94d0 603b c017 223a 384f 80bf 4b33 603e
000002a0: 3277 633d 29bd 92bf b6d8 8ebe d756 96b8
000002b0: a905 793e 1866 dc3f 8fbc a73f 2a2a 15bf
000002c0: ce69 a6bc ad16 5ebe 235b 863e bc1f eabf
000002d0: ff74 f9be 5e56 c93e a970 e9bc 2b6b 25be
000002e0: f548 b93c 128d c13d f000 acbc 016e 06bd
000002f0: f54a 783e e4a4 7bbf fe41 0040 d99c d2bd
00000300: bc7f 143c 3c5d 9ebb 70a2 bcbd 91a1 d93f
00000310: e5a3 48bd da8d 2e3f c7af fe3e 8d7e 6d3d
00000320: e088 47bc c27b d7bd 4c02 4d3e 084a 5c3e
00000330: 2776 a23d 87e4 1cc0 87b0 ccbf 35d6 5e3f
00000340: 49e5 d9bc bd0a 9abe b146 223f 41ce 48be
00000350: 5882 ed3f 3487 953e f8dc c03d d671 c83e
00000360: d166 b93d a93c efbd e606 113d e42b 56be
00000370: 19bb 34be 83ca 50be 0d79 243d 165b 9e3e
00000380: aadc b2be 20ae c13e f404 183b 8579 c2be
00000390: 1396 4b3d 8ef4 82bc 51e1 00bf f33a cabd
000003a0: 63ee 8ebe 218d 1240 fe2f c0be 80f4 f33e
000003b0: 42a8 8f3e e0ba ebbf bce8 eabe 949e fb3e
000003c0: 3e98 40be 7100 18be b854 9439 0978 4d3f
000003d0: 10f4 153f 38c4 fb3e 97b5 ad3d a1c9 babf
000003e0: bc7d ac3e ccf4 463d ce7c 29bc a6c3 8abd
000003f0: 3dc6 c63e bb62 e53f 3bb2 37bf 2b81 72bf
0.4334906 0.007416563 -1.5156432 0.16584408 -0.024255924 0.13219778 1.5026429 -0.12037646
-0.06655678 0.06237359 -0.56667846 -0.012365124 0.11553284 -2.8368282 -0.9998093 -0.05809376
0.15393494 0.039237775 0.24188581 0.24766897 0.15342428 0.31842616 -0.09141028 0.040617816
0.040644318 -0.2662761 -0.105289355 -0.015274476 -0.07223626 1.0196006 -0.2984491 0.36901698
-0.26571822 0.069668196 -0.087851085 0.01889357 0.016803969 0.12204718 -1.652197 0.0390338
0.15824606 -1.7506468 0.08007458 -0.63711774 0.4079938 3.4011612 0.6482294 -0.115384206
-0.15266177 -0.41352403 -0.421723 0.02882785 -1.1299223 0.58266014 0.13627246 1.7268268
-0.09844101 0.11021634 0.1162265 -0.35883504 0.029773396 -0.5341129 0.99446523 0.21861525
-0.45580956 0.23849519 -0.0113307 1.3527006 0.2415608 0.26502532 0.24927694 -0.16984512
-0.19150369 -0.79985476 -0.1575538 0.32496092 0.12906763 -0.78471756 -1.7227849 2.04466
0.025255553 -1.131641 -0.5019095 0.5039191 2.1471314 1.0058286 -0.15660165 0.24797502
0.54323256 -0.014398529 0.10741054 0.2987491 -0.01714393 0.1430402 -0.31475773 -0.16398029
0.1835153 0.4329557 0.019789824 -0.53992534 0.031718887 -0.19998229 1.7200633 0.19423792
0.007343726 1.6216193 -0.8483394 -0.06737139 0.01972041 -1.1830355 -0.35020408 0.10004233
0.3249836 -0.079973415 -0.1352015 0.0649193 0.5953726 0.4757853 -0.04551537 -2.0545561
0.33083972 0.15321663 -0.5177783 -0.1774248 -0.48844305 2.5280712 0.35019487 -0.16034795
0.06171645 -0.031911865 -0.012107172 -1.0819935 -0.025044931 0.02882052 2.0735917 0.20394133
-0.4740738 0.88822025 0.039318047 0.35184112 -0.5175168 -2.5563176 0.18301307 0.707454
-0.6372626 0.07332845 0.14378694 -0.2609357 2.336729 -0.21261092 -0.22612408 -0.3563022
0.2533348 -0.32032254 0.34965977 0.5365652 0.04990899 0.011372487 -0.08304536 0.10903862
0.37090167 0.038953632 0.05998571 -1.237893 0.003430401 0.00061833486 -1.0024176 0.21894567
0.055533595 -1.1463977 -0.27899712 -7.1687326e-05 0.24318565 1.7218657 1.3104419 -0.5826746
-0.020314123 -0.21688338 0.26241407 -1.8290935 -0.48722073 0.39323705 -0.028496103 -0.16154163
0.022617796 0.09450735 -0.02099654 -0.03281975 0.24247344 -0.9829848 2.0040278 -0.102838226
0.009063657 -0.0048328917 -0.0921067 1.7002431 -0.048984427 0.681852 0.49743482 0.057982016
-0.01217863 -0.10521652 0.20020407 0.21512616 0.07932692 -2.4514482 -1.5991372 0.87045604
-0.02659859 -0.30086318 0.63389117 -0.1960993 1.8555403 0.29204714 0.094171464 0.3914935
0.09052814 -0.11681492 0.03540697 -0.2091518 -0.17649497 -0.20389752 0.040154506 0.30928868
-0.34933978 0.3782816 0.0023196312 -0.37983337 0.04970367 -0.015985753 -0.50343806 -0.09874525
-0.2791625 2.2898638 -0.37536615 0.47647476 0.28058058 -1.8416405 -0.45880687 0.49144423
-0.18808076 -0.14843918 0.0002829188 0.80261284 0.58575535 0.4917314 0.08481901 -1.4592782
0.33689678 0.0485733 -0.010344697 -0.06775598 0.3882312 1.7920755 -0.71756333 -0.94728345

layers.3.bias f4 [16]
00000000: cb1f 53bf 9f0b b6be 3ae2 cd3c e5c4 063e
00000010: b74a 5b3f 65a7 eb3d 9f0b 3c3f c37e 6f3e
00000020: 8eef 12bf 8c1f aa3f 8d3a 9bbf dbee 17be
00000030: cc84 5b3f 92a8 da3d 18b5 61bf a1ae 703f
-0.8247039 -0.3555574 0.025132287 0.13161047 0.8566088 0.11506537 0.7345523 0.233882
-0.5739678 1.3290877 -1.2127243 -0.1483721 0.85749507 0.106766835 -0.8816695 0.9401646

layers.4.weight f4 [16]
00000000: 6ad1 a040 f264 8040 cff4 7e40 1616 8440
00000010: b804 6840 565c 3b40 c160 8740 8445 6d40
00000020: bd72 5c40 7ee1 8c40 3845 0140 fadd 7c40
00000030: d5d4 5140 3a70 9340 c2f6 9040 3b15 9640
5.0255632 4.0123224 3.983692 4.127696 3.625288 2.9275107 4.230561 3.707368
3.444503 4.402526 2.0198498 3.9510484 3.2786152 4.6074495 4.530122 4.6900916

layers.4.bias f4 [16]
00000000: 73b8 15c0 173a 0f40 1d9e 1540 0d96 9c3f
00000010: a781 66bf c508 14bf 20d1 a9c0 057d fa3f
00000020: 3aa0 263f ee12 3940 e996 6c3e d37a a2c0
00000030: a83f 2fc0 795d 4140 bb42 1140 4485 a2bf
-2.339383 2.2379205 2.3377755 1.2233292 -0.90041584 -0.5782588 -5.306778 1.9569403
0.65088236 2.8917804 0.23104443 -5.077493 -2.7382603 3.02133 2.269698 -1.269692

layers.4.running_mean f4 [16]
00000000: b44f 62c0 e681 2c40 a342 88bf b8e0 3b40
00000010: d9b5 afc0 667c 9fbd 405c 50c0 0768 7f40
00000020: a7b1 843f 675f 8ac0 d84c 6d40 a122 8cbf
00000030: 5a0e adbf 8292 7e40 953b 2840 ef4f 1d3f
-3.5361147 2.6954284 -1.0645336 2.9355907 -5.490948 -0.07787399 -3.2556305 3.9907243
1.0366715 -4.324146 3.7078152 -1.0948068 -1.3520005 3.9776921 2.6286366 0.61450094

layers.4.running_var f4 [16]
00000000: 70b5 1e40 089c 4240 c9d9 1940 4e84 c93f
00000010: 72e7 3340 da52 c73f da2a 2d40 eace e73f
00000020: 92a2 d93f 69a9 9b40 7f4b 0240 e229 3440
00000030: 5e31 4440 2dba 6840 e888 6040 b970 d83f
2.479824 3.0407734 2.4039176 1.5743501 2.8110013 1.5572159 2.7057405 1.811002
1.7002738 4.86443 2.035858 2.8150563 3.0655131 3.6363633 3.508356 1.69094

layers.6.weight f4 [1, 16]
00000000: 8fe4 e2c2 829f d042 20ea d342 a837 d442
00000010: bd37 d5c2 85dc e4c2 162c cec2 d76b da42
00000020: 19ee dd42 4715 ce42 ef8c d542 4f4b cec2
00000030: 0ee7 cac2 5fd9 d342 e78f d442 5543 e5c2
-113.4464 104.31154 105.957275 106.1087 -106.608864 -114.4307 -103.086105 109.210625
110.965034 103.04156 106.77526 -103.14709 -101.45128 105.92455 106.28106 -114.63151
