trained_models/NN_tuned/NN_32-16_relu.pth (torch, 38773 bytes, 13 tensors)

layers.0.weight f4 [32, 242]
00000000: c7bb 673e be15 cf3e 9fbc 7d3f b3fd f9be
00000010: 05ad 903e 32fc 0ebf 6fb5 28bd c86d 993f
00000020: 9a8b c83e 1c9a 11bf c5da 90be 514f c1be
00000030: 72c8 0abe 5bf9 b5bd b99c 15be 9d05 42bf
00000040: c77f 39be 852f 14bf 8e62 3bbe d92e a3be
00000050: 64c2 c1bf 0339 2c3e d2e9 013f 581d 65be
00000060: ba07 48bf 72d5 643d 8f96 e2be 972a 9f3e
00000070: cd41 dfbc d54b 583f c972 0cbf a9e0 e4be
00000080: 030b a83e facb 97be 9648 c6be 0760 09bf
00000090: bc30 493e 6dff 2d3e c2bb b9bd 6227 8b3e
000000a0: dab8 a23e c2cd c93d fbec 0c3f 3f68 1bbf
000000b0: 3e95 233e 1103 ef3d f0e1 ef3e c8b8 823e
000000c0: b2b4 0d3f f9c7 30be f5a4 cf3e e3d5 34bf
000000d0: cb59 233e 7a7b d6bd b3ea 34bf b23b a2bc
000000e0: 9521 a9bf c79b 33bc 7869 71bf cef2 ab3d
000000f0: b12c 683e b8b6 ccbe 1d84 023d 47a4 20be
00000100: d48d b8bc 8049 1e3e 3c11 f63e 65b0 163f
00000110: 2df2 513f 44d2 31bf fbe6 b6be 5cf6 24bf
00000120: b6a2 babe 480f 883e c5e0 d8bd f117 09bf
00000130: b260 c8bf 068a f2bd 8fbc dbbe daec b73f
00000140: 1daa 4a3f 228f 173f c625 de3e 7f59 12be
00000150: e30c f2be 0654 14bf ec06 353e 8e51 073e
00000160: 62f2 febe 7df3 0140 40bc 0040 a02c 65bf
00000170: 672c b0be fa57 4ebf f45a bfbb b953 c73c
00000180: c7e2 1ebf 99e0 413f e587 943f e715 5b3e
00000190: 0cee b8be b933 c3bf 89ac 24bf 6f89 513f
000001a0: 8272 cf3e 7939 423f e5ea 893f 7b91 aebe
000001b0: 0028 44bf 7623 29bf 9a57 f2bd 2cdb 573f
000001c0: 4dcc ad3f 8afe 6e3c 1277 48be de7f 81bf
000001d0: 6230 a5be 2d5c 693e 1f36 d63d a6c3 05bf
000001e0: 7b1d f4be bc7e 5dbf ffb6 113d bcbf 04be
000001f0: 9d3e bfbe 9650 e13c b11a 19bf 7e50 1fbf
00000200: ecf5 833c 08e2 343e ce43 6ebe bb7c d23d
00000210: 7388 b6be d082 303d e2ac 5dbe 4a1d 48bd
00000220: ac65 51be b496 963e 2031 35bd fbd8 89be
00000230: 159f c0bd 4362 2e3e a784 8fbe ad30 b53e
00000240: dd34 883e 921c f03d 593b d93c 63cb f4bd
00000250: 8919 033f 2e3a eebe 2332 5dbe 1670 5cbe
00000260: 2fb4 9cbe 4294 c5bd 2094 333d 7676 14bd
00000270: bf03 0e3f 1309 45be 5ba9 dcbe 112c 6ebc
00000280: 0b65 b4be 4341 1f3e fb3f d2bd c4eb 2c3f
00000290: 0568 963c abe7 2fbf c9e2 e33e 19a4 af3e
000002a0: 9af3 e2bd 2fac 5dbf 2aeb 7fbf 75a8 033f
000002b0: 4d13 b03e 7f06 c03e 3227 40be ea1b 52be
000002c0: a0db d9be 2a57 803f 73b5 613f 63c6 aa3e
000002d0: 6af8 cb3d fb34 88be c653 6d3d 868d d03e
000002e0: bffb e13e c79a b9be 53ae 6abe f31d 71be
000002f0: 6102 d43e 7ccd 22bc 94dc 4bbd e003 20bf
00000300: b001 edbe 170c 0dbe f2d3 c2be 4edb a7be
00000310: 216b e73d 9d43 c93b 0e3a 3abf a5bf 41be
00000320: 0896 c63e 69c6 403f 39ec d0be 1e9a 86be
00000330: 6859 8fbe 5975 dbbd 1f3b 67bb 5654 353d
00000340: 17f0 093e 01ff 8bbe ee7c 64be 4223 2a3e
00000350: fb7d 80bd 2815 13be 3a81 a3be ba24 29be
00000360: dad8 343e ebd7 bf3e 08be adbe 426b 36bd
00000370: 2796 4cbe b8b3 1e3e 9e8c 243e 16df cdbd
00000380: 30ef 73be e53f 96be 4f7d 8abd 7022 abbe
00000390: 875c 8bbd 1cc5 a53d ec8d b8bd b361 09bb
000003a0: df75 06bd e2c7 91bd e51a 0dbe 6a53 5c3c
000003b0: 99e1 93bd 203f 0fbe 4c85 4f3e aae1 cfbd
000003c0: e612 1f3d a62e c8bd 9229 14c0 8d56 b43f
000003d0: 7ad9 eabf e6bb ab3d efbc 17c0 c5f4 fb3e
000003e0: e506 e0bf 9738 843f 373a bbbf fc62 c43f
000003f0: c30f 44be 3d4f 2740 dbf2 2f3f 1b8d 8d3f
0.22630225 0.40446275 0.9911594 -0.4882637 0.28257003 -0.5585357 -0.041188654 1.1986628
0.39169008 -0.5687578 -0.28291908 -0.37755826 -0.13553026 -0.088854514 -0.14610566 -0.75789815
-0.1811515 -0.5788501 -0.18299314 -0.3187168 -1.5137448 0.16818623 0.50747406 -0.22374475
-0.7813679 0.05586762 -0.44255492 0.3108718 -0.027253056 0.8449071 -0.5486265 -0.44702652
0.328209 -0.2964781 -0.38727254 -0.5366215 0.19647497 0.16991968 -0.09069015 0.27178484
0.31781656 0.09853698 0.55049103 -0.6070594 0.159749 0.11670507 0.46852064 0.25531602
0.55353844 -0.17263784 0.4055554 -0.70638865 0.15952222 -0.1047277 -0.7067062 -0.019803856
-1.3213373 -0.010962433 -0.9430156 0.08395921 0.22673298 -0.39983153 0.031864274 -0.15687667
-0.022528566 0.15457726 0.48060024 0.58862907 0.82010156 -0.69461465 -0.357231 -0.64438415
-0.36452264 0.2657416 -0.105897464 -0.53552157 -1.5654509 -0.11842732 -0.42917296 1.4369156
0.7916582 0.5920278 0.43388194 -0.14291953 -0.47275457 -0.5794071 0.17678422 0.13214704
-0.49794298 2.0304863 2.0114899 -0.8952122 -0.34408876 -0.8060299 -0.0058397 0.024331914
-0.62064785 0.75733334 1.1603972 0.21395074 -0.36119115 -1.525016 -0.6432577 0.8185033
0.4051705 0.75868946 1.0774809 -0.34095368 -0.76623535 -0.66069734 -0.11833115 0.84318805
1.3577973 0.014587054 -0.19576672 -1.0117147 -0.32263476 0.22789069 0.104595415 -0.5225166
-0.47678742 -0.86521506 0.03557491 -0.12963766 -0.37352458 0.027504247 -0.5980635 -0.62232196
0.016108476 0.17664349 -0.23268053 0.10277697 -0.35650977 0.043093503 -0.21647981 -0.048856057
-0.20448941 0.29411852 -0.044236302 -0.26923355 -0.094053425 0.17029671 -0.28030893 0.353887
0.2660283 0.11724199 0.026517557 -0.119528554 0.5121084 -0.46528763 -0.21601157 -0.21527132
-0.3060622 -0.096474186 0.043842435 -0.036245786 0.55474466 -0.19241743 -0.43097958 -0.014536873
-0.3523334 0.15552239 -0.102661096 0.6754725 0.018360147 -0.6871287 0.4450896 0.34304884
-0.110816196 -0.86590856 -0.99968207 0.5142892 0.34389725 0.37504956 -0.18764952 -0.20518461
-0.42550373 1.00266 0.88167495 0.33354482 0.099594906 -0.2660292 0.05794122 0.40732974
0.4413738 -0.36250898 -0.22918062 -0.23546581 0.41408065 -0.009936687 -0.049770907 -0.6250591
-0.4629035 -0.13774143 -0.38052326 -0.32784504 0.1129973 0.0061420933 -0.72744834 -0.18920763
0.3878634 0.7530275 -0.40805224 -0.26289457 -0.279979 -0.10715742 -0.0035283042 0.044269882
0.13470493 -0.2734299 -0.22313282 0.16615012 -0.06274029 -0.14363539 -0.3193453 -0.16517916
0.17660847 0.3746942 -0.33934045 -0.044535883 -0.19979154 0.15498245 0.16069266 -0.10052316
-0.23821712 -0.29345623 -0.06762182 -0.3342471 -0.068047576 0.08094236 -0.090114444 -0.0020962774
-0.032827254 -0.07118203 -0.1377979 0.013447622 -0.07220764 -0.13988924 0.20265692 -0.10150464
0.038836382 -0.097745225 -2.3150373 1.4088913 -1.8347619 0.08385448 -2.3709066 0.49210182
-1.7502104 1.032977 -1.4627141 1.5342708 -0.19146638 2.6142113 0.68729943 1.1058687

layers.0.bias f4 [32]
00000000: 9333 843f db96 cabe 24db e13f 854f f33e
00000010: 7b86 5b3f 4e1f b0bf 47bc 3b3f 0aa1 203f
00000020: 5edb 2b3f b7ac 7d3f 3b55 de3f 5e77 1fbf
00000030: b806 623f 6fe5 4e3f 0fa4 e53f af1b 84bf
00000040: 3ddb 3e3f 5780 9e3e 896d 83bf fc5e aa3f
00000050: d804 b03f c46b 903e d0da b13e c0da 42be
00000060: 3e5f 503d 1650 22bf b250 0cbe 0a2f 6d3e
00000070: 182b 8c3f 1b74 db3e c2f4 f03f 604f a0bf
1.0328239 -0.3956822 1.7645001 0.47521606 0.85752076 -1.3759553 0.73334163 0.62745726
0.671316 0.99091667 1.736976 -0.62291515 0.882915 0.8081884 1.7940692 -1.0320948
0.7455328 0.3095729 -1.0267802 1.3310237 1.3751478 0.2820722 0.34737253 -0.19028759
0.05087208 -0.6340345 -0.13702658 0.23162475 1.0950651 0.4286202 1.8824694 -1.2524223

layers.1.weight f4 [32]
00000000: 766e 813e 92d8 723f 466a 3f3f 8479 073f
00000010: 0395 2b3f 67db b73f 9974 eb3e c014 3f3f
00000020: 4fc6 1c3f 8a89 5c3f 7a92 a13f 389e 733f
00000030: 300b 853f e21d 6d3f aa6e 483f ba79 713f
00000040: c883 e43e d06c 423f a802 b83f e5a6 403f
00000050: 2f7f 983f b192 6c3f 8664 4a3f 929c 433f
00000060: 0c7b e93e 41d7 843f f4b2 183f 3e03 1d3f
00000070: 2be8 8f3f ff84 213f 1adc 7a3f b3c2 9d3f
0.25279588 0.9486171 0.74771535 0.52919793 0.6702425 1.4363831 0.45987394 0.74641037
0.61240095 0.8614737 1.2622826 0.951633 1.0394039 0.9262372 0.7829386 0.94326365
0.4463179 0.75947285 1.4375811 0.7525466 1.1913813 0.92411333 0.79059637 0.7641078
0.4560169 1.037819 0.5964806 0.6133307 1.1242727 0.6309356 0.979921 1.2325042

layers.1.bias f4 [32]
00000000: 7b3c 833c 08ac 87bf 8bfb a6bd f48f 09bd
00000010: 1f69 2dbe a7e4 55bf f420 53bc 5f79 29be
00000020: da64 6fbd 1658 38bf 1033 38bf dc14 50bf
00000030: a232 cbbe 097b 29bf 322b fbbe d235 36bf
00000040: 8140 47bd 3ea5 13bf 4b0c 7ebf de71 96be
00000050: 104d 42bf b7c7 9ebf b92c 60be a225 3dbe
00000060: 336e e2bc 3447 3cbf 339c 8bbc 1775 a2bd
00000070: 2dc5 cdbe 3ad4 e6bd f52c 49bf d766 9cbf
0.01602005 -1.0599375 -0.08153447 -0.03358455 -0.16934632 -0.8355202 -0.012886275 -0.16550206
-0.05844579 -0.7200941 -0.71952915 -0.8128183 -0.39687067 -0.6620336 -0.49056393 -0.71175873
-0.0486455 -0.57674015 -0.9923751 -0.2938375 -0.7589884 -1.2404698 -0.2189206 -0.18471387
-0.027640438 -0.7354615 -0.017042255 -0.07932489 -0.40189496 -0.11270948 -0.78584224 -1.2218884

layers.1.running_mean f4 [32]
00000000: d4b4 703f 563a 4f3e 5df8 ba3f 9167 683f
00000010: a12c 833f 68fc 9ebf 0cd7 543f 51df 323f
00000020: 2c24 273e 4721 c13e bb12 f03f 3081 4fbe
00000030: e0ea 943f 97a5 f43e 4e0d df3f 39a5 87bf
00000040: 93b8 563f 67ec bc3e 3b41 9cbf fa7f d43f
00000050: d73d 8e3f 8a3d 363f 7b0d cd3e cee7 0abe
00000060: b553 1b3f 91ba 62bf 0fec 16bf a56c 713e
00000070: 045d 713f 0b79 56bd d29b f33f f9a3 a6bf
0.9402592 0.20237097 1.4607044 0.9078303 1.0247995 -1.2420778 0.83140635 0.69872004
0.16322392 0.377207 1.8755716 -0.20264125 1.1634178 0.47782585 1.7425935 -1.0597297
0.8387539 0.3689911 -1.2207407 1.6601555 1.1112622 0.7118765 0.40049347 -0.13564989
0.606746 -0.8856593 -0.58953947 0.23576601 0.94282556 -0.05236153 1.9031928 -1.301879

layers.1.running_var f4 [32]
00000000: d91b 9a42 008b 8a43 56cd 4043 5e3e 2243
00000010: 8c80 de42 47f5 d342 a48c 1843 e34c 0b43
00000020: 2b4f 4f43 b542 b043 b9b9 f942 e69f 4c43
00000030: ae1c 1643 153c 4143 82ae 2e43 b86d 2143
00000040: aa14 1443 5ae4 0743 390e 3843 c94d 2443
00000050: c534 d542 ca4c 8b43 0793 3d43 adfa 8443
00000060: 87ee 3343 9bf4 4c43 70cb 0a43 0f50 7243
00000070: e050 8843 bbd8 2643 81a8 4343 b4ac 6c42
77.05439 277.08594 192.8021 162.24362 111.25107 105.97906 152.54938 139.30034
207.30925 352.52115 124.86274 204.6246 150.11203 193.2347 174.68167 161.42859
148.08072 135.892 184.05556 164.30385 106.603065 278.5999 189.57433 265.9584
179.93175 204.95549 138.79468 242.31273 272.63184 166.8466 195.65822 59.168655

layers.3.weight f4 [16, 32]
00000000: 75da 61bc 21f5 14bf 6888 eabe 9efa a73d
00000010: 7492 253e 91a1 6b3f 6ca5 1cbe 25a1 743e
00000020: a0ff c43e f540 c5be a31a 133f 09a8 01bf
00000030: a2f0 df3b 6bd5 95be ed47 b13e 1f79 91bd
00000040: a96b 91bc 327a 2dbe 10f2 913f 617f 163e
00000050: f041 343f 0d2c bdbe 9dcf efbe 5902 cabe
00000060: 947c 9abe 2e97 c0be 68ba 1c3e 31ce 1dbf
00000070: 29f4 983e d5ea 983b 299c 2ebf 7798 783f
00000080: 9a6c 543e 7651 9e3d a8f7 a23e 0fb3 c8be
00000090: 905e fb3d 4e81 25bf ffbb 83bd e637 103f
000000a0: 250b 60be 0990 edbe f12e 49bf 1e22 5abf
000000b0: 40e6 8dbe 4ab2 ccbf 1b96 083f c6a7 54be
000000c0: 963e bdbe 5a2e 2dbf 2952 13bf 1db4 0ebf
000000d0: 1b11 e5be 2a2c 1bc0 5ca4 e53e 9702 5dbe
000000e0: 11a5 173e d3fc 393d b109 b53e c0df 3c3e
000000f0: dfa5 ccbe 47fb 87be 9260 febe 3a14 49bf
00000100: 8bc4 1dbe b707 073f 0d93 5abf e1a5 353f
00000110: 7ed7 e7be d213 763f 1a22 62be b630 fabd
00000120: b118 983d a1f6 663e 3098 413f 5bcf a03e
00000130: 49dd c2be faf2 dfbe 8046 0ebf a6e4 8c3d
00000140: 2632 cdbd 92e9 c6be 3770 933f 72b9 aebd
00000150: ad4d 553e 485a b1bd 7810 c3bd fc1a 34bf
00000160: a2fa a9be 316c e73e 0c71 5f3d dfde bcbe
00000170: 907d 34bf 0f70 1abe 041c efbb d89f bd3e
00000180: f65d 603e 17bf 18bf 9750 8dbe f6a6 febd
00000190: 12b6 a6be 8157 c23d 8500 4b3d 8b62 84be
000001a0: 5795 05bf b6a8 a6bf 2134 24bf 0a79 f6be
000001b0: bd98 30be f451 a5be 298b 8b3d c190 02be
000001c0: d908 0dbe f93d 4fbf 98f7 273f 558b 32bf
000001d0: 1b8c 45bf 240c cabe 8496 833f aedb fa3c
000001e0: f0ef d8be c956 f2be 38da 00be 3f1c d6be
000001f0: bdb4 8dbe a17f 1b3e 8f4b b9bf e885 52bf
00000200: e0ce 203f 0099 60bf ca1d dbbe 6723 58bf
00000210: bf39 4ebe fa2a 9c3e 7575 50bf e7d7 2dbe
00000220: 766f 58be ec92 13bf f21d 7abe 8f4d dbbe
00000230: c8e1 09be b006 e8be 2a11 8e3d 4d7c 8a3d
00000240: 5825 843e ea3a 97bc 54a3 3e3f af9f 4dbf
00000250: 8e2d a63f b669 c4be 0c10 0ebf 4ec0 bbbe
00000260: c415 023e f636 36bf 8d52 22bd d63a 09bf
00000270: fbd6 37bd 7f0b 82bd b856 5dbf 4642 c63d
00000280: 0154 743d 7ae0 b63e c0dc 0b3f c43e ecbe
00000290: ffb5 783f 6be6 febe 93cc 29bf 4eb1 2bbf
000002a0: 142f ecbe 10bb 6c3e 3d20 21bf bb98 7fbf
000002b0: f733 51bf 24a1 b8bc 4e97 f83b c6f2 2abe
000002c0: 0ea4 7dbe 7aa4 01bf 41dc fcbe e33d 333e
000002d0: 0dcc a8be 70d1 2dbd 6530 1d3b 4ce8 69bf
000002e0: 457b b43e f2bd 823f c474 08bf 186a 21be
000002f0: 4c67 38bf ae08 903e a8a2 863d e3a4 c9be
00000300: 5acb d13d fc0c 56be d5c3 66be bdb5 ecbe
00000310: 5876 aa3e 049e 3d3f 6930 943e ed2b 5e3e
00000320: e404 0f3f 1d97 c5bd 8e85 f33e de73 c13e
00000330: a8c2 a5be 5c54 0bbf e2bf d53d aaf8 013d
00000340: 25fa 57be df96 22be ccfe 9e3f 7bc1 773d
00000350: 7c3a 5e3f 1bb8 00bf c264 3dbf 4078 69bd
00000360: 088c f5be 980b 5fbd a1d8 3a3d 23d1 45bf
00000370: 994d edbd 9d78 dc3d 39df 9abe 60d1 683f
00000380: bd9b cebe 771d 773d 392a d8bd 164a 21bf
00000390: 9e4d 89bf 830c 93be 7ec6 95bf 30ad 06bf
000003a0: 3223 c1bd 29bc b8be bdb4 813e e310 24be
000003b0: f0e5 993f a739 bcbd 6ed1 88bf fd5c 39be
000003c0: 600f 8cbf 32ee c63d 22d8 13be c470 1dbf
000003d0: 92f2 a1be 5033 2b3d ddeb e33e 099f 09bd
000003e0: 9d25 753e 8671 18bf 942c 50bf d2a0 533e
000003f0: 7f33 c2be ce4e a2bf 872f b63d 625b 843e
-0.013784994 -0.5818654 -0.45807195 0.08202098 0.16169149 0.92043406 -0.15297478 0.23889597
0.38476276 -0.3852612 0.5746252 -0.50647026 0.0068341056 -0.29264387 0.34625188 -0.0710318
-0.017751532 -0.16941145 1.1401997 0.14697029 0.7041311 -0.3694767 -0.46838084 -0.39454916
-0.3017317 -0.3761534 0.15305483 -0.6164275 0.2987378 0.004666666 -0.6820703 0.9710764
0.20744553 0.07730381 0.31829572 -0.3919911 0.12273896 -0.6465043 -0.06432342 0.56335294
-0.21879251 -0.46398953 -0.7858725 -0.8520831 -0.2771473 -1.599191 0.5335404 -0.20767125
-0.36961812 -0.6764885 -0.5754724 -0.5574358 -0.44739613 -2.4245706 0.4485196 -0.21583019
0.14809062 0.045407128 0.35358956 0.18444729 -0.399703 -0.26558897 -0.49683052 -0.7854649
-0.15407006 0.52746147 -0.8538063 0.70956236 -0.45281595 0.96123993 -0.22083321 -0.12216322
0.074265845 0.22555019 0.75622845 0.314082 -0.38059452 -0.43740064 -0.55576324 0.06879549
-0.10019331 -0.38850075 1.151862 -0.08531465 0.20830412 -0.08659798 -0.095246255 -0.70353675
-0.3319903 0.4519973 0.05455117 -0.36888787 -0.70504093 -0.1508181 -0.007297041 0.37036014
0.21910843 -0.5966658 -0.27600548 -0.12434189 -0.32560784 0.09489346 0.049561042 -0.25856432
-0.52181 -1.3020236 -0.6414204 -0.4813922 -0.17245765 -0.32289088 0.06813652 -0.12750532
-0.13772906 -0.8095394 0.65612173 -0.69743854 -0.7716691 -0.39462388 1.0280309 0.03062233
-0.42370558 -0.47331837 -0.12583244 -0.41818425 -0.27676955 0.15185405 -1.4476184 -0.82235575
0.62815666 -0.8773346 -0.42796165 -0.8442902 -0.20139216 0.3050154 -0.81429225 -0.16976891
-0.21136269 -0.5764606 -0.24425486 -0.4283261 -0.13465035 -0.45317602 0.069368675 0.0676199
0.2580974 -0.01846071 0.7446797 -0.8032178 1.2982652 -0.383619 -0.55493236 -0.36670154
0.12703615 -0.71177614 -0.039629508 -0.536054 -0.044882756 -0.06349849 -0.8646045 0.096806094
0.059650425 0.35718137 0.5463371 -0.46141636 0.97152704 -0.4978517 -0.6632778 -0.6706742
-0.46129668 0.23118234 -0.62939817 -0.99842423 -0.8171992 -0.022537775 0.0075863963 -0.16694173
-0.24769613 -0.50641596 -0.4938679 0.17504077 -0.32968178 -0.042436063 0.0023985144 -0.9137008
0.35250297 1.0214217 -0.5330317 -0.15763128 -0.7203262 0.28131622 0.06573993 -0.3938361
0.10243864 -0.2090339 -0.22535641 -0.46232405 0.33293414 0.7406924 0.28943184 0.21696444
0.5586684 -0.09647963 0.47562832 0.37783712 -0.32375073 -0.544256 0.10436989 0.031731285
-0.21091516 -0.15877865 1.2421508 0.06048725 0.8680799 -0.5028092 -0.7398187 -0.056999445
-0.47958398 -0.054454416 0.04561675 -0.7727224 -0.11587066 0.10765193 -0.3024843 0.9094448
-0.40353194 0.060330834 -0.10554928 -0.6300367 -1.0726812 -0.28720483 -1.17012 -0.52608013
-0.09430541 -0.36081055 0.25333205 -0.16022067 1.2023296 -0.09190684 -1.0688913 -0.18101878
-1.0942192 0.09713401 -0.14437917 -0.6150019 -0.3163038 0.041796982 0.44515887 -0.033598933
0.2394013 -0.59548223 -0.8131802 0.20666817 -0.37929913 -1.2680299 0.08895784 0.2585097

layers.3.bias f4 [16]
00000000: 5b40 5bc0 3370 8fc0 420b 38c0 b5ac e9be
00000010: cc01 adbf 261b 803e fe2f 86c0 fc8f b13f
00000020: 8ff5 b6bf cb42 4a3f aa30 2ec0 4a08 2fbf
00000030: 8462 cbbd 5023 7bc0 ad04 2dbe f8f1 a9c0
-3.425803 -4.482446 -2.8756871 -0.45639578 -1.3516173 0.25020713 -4.1933584 1.3872066
-1.4293689 0.7900817 -2.7217202 -0.68372023 -0.099309 -3.9240303 -0.16896315 -5.310787

layers.4.weight f4 [16]
00000000: 81f3 1241 12ab 2f41 533b 3141 dadd 1d41
00000010: 8437 2141 1e6e 3041 1bcb 1541 2dcf cf40
00000020: ac69 2c41 ce86 2d41 f895 1741 0f19 5941
00000030: cd2c 1541 c5d2 1d41 09bb 5341 bd4f 3041
9.184449 10.979265 11.076983 9.866663 10.076054 11.026884 9.362086 6.49404
10.775799 10.845411 9.474113 13.568618 9.323438 9.863957 13.233163 11.019467

layers.4.bias f4 [16]
00000000: c612 0641 2b2e 70c0 860f 0441 8465 0841
00000010: 02eb 0341 5cda 0541 504f 0941 878a b040
00000020: 72db fe40 e148 dd40 cdf5 fd40 40ab 92c0
00000030: 8010 e1bf d6fd 0241 5cbe 1941 e39b 0141
8.379583 -3.7528179 8.25379 8.524784 8.244875 8.36581 8.581863 5.51691
7.9642878 6.9151464 7.936255 -4.5834045 -1.758316 8.186972 9.608974 8.100558

layers.4.running_mean f4 [16]
00000000: bba1 45c0 1950 b3c0 fe4e 3dc0 6069 cebf
00000010: 70fe 09c0 c06f 47bf 9a72 79c0 c71c e63c
00000020: 596d c2bf 1c30 6c3e d60d 0dc0 5fdb 063e
00000030: fd57 b1bd 8936 5bc0 2f85 3ebf 4031 9ec0
-3.0879962 -5.6035275 -2.9579463 -1.6125908 -2.1561546 -0.7790489 -3.8976197 0.028089894
-1.518962 0.23065227 -2.2039695 0.13169621 -0.086593606 -3.4252036 -0.7442197 -4.943512

layers.4.running_var f4 [16]
00000000: 0bcf ca3f d726 9f3f 85f8 bd3f 3883 a33f
00000010: 8061 0040 fd93 793f a9e1 d03f 4fc4 893f
00000020: fbc3 b33f 335d dc3f d3f1 ca3f 9e23 503f
00000030: afed 923f 57fe d43f d63b 4b3f 8012 bb3f
1.5844434 1.2433728 1.4841467 1.277442 2.005951 0.9749144 1.6318866 1.0763034
1.4044183 1.7215942 1.5855049 0.8130435 1.1478785 1.6640118 0.7938818 1.4615021

layers.6.weight f4 [1, 16]
00000000: 9a27 0341 5139 9bc1 11e4 1141 9b77 0641
00000010: d3c6 0341 7b42 0841 124f 0241 c282 bc40
00000020: babe 0241 543c 0e41 331d 0a41 a3ac 98c1
00000030: 6ba7 2bc1 ea61 0541 ceeb 2f41 17d6 0b41
8.197168 -19.402987 9.11818 8.404201 8.236041 8.516231 8.144304 5.8909616
8.171564 8.889729 8.632129 -19.084295 -10.728374 8.336405 10.9950695 8.739768
