trained_models/NN_tuned/NN_32-16_sigmoid.pth (torch, 38773 bytes, 13 tensors)

layers.0.weight f4 [32, 242]
00000000: ae87 623f 278a ed3f cd11 c33f dfa8 773f
00000010: ce0a 1340 0eff b4bb 3918 513f 804a 053e
00000020: 113a 6c3f b88a f4be aaf9 2c3f 2c4d 7dbf
00000030: 4e4f 08bf b090 80bf 3af9 79bf a5e1 01be
00000040: c732 20be 4438 193f 7737 a7be 9758 3b3e
00000050: 9c2f e13d 78ff 173f 6f80 f23e dc7c a13d
00000060: 3a27 b43e 50d7 1abf cead 03bf 74c4 863e
00000070: a1fe 433f 1c90 00bd 5a32 903d b4d4 ff3e
00000080: 59c9 de3e 0218 b4be f6f1 32be 70d8 d8be
00000090: 3952 923e ec88 f6bd ed8b 40be 4715 3bbe
000000a0: 50b2 103f 0e76 dc3e 84e9 8a3f 155a 51be
000000b0: 81b9 2b3f 529e 1fbf abe0 753f 5375 f4be
000000c0: 504b 853f d267 9cbf 2030 873f d77a d7bf
000000d0: 3168 63be b3af 3bc0 79f5 c9bf cddb d9bf
000000e0: 0137 6cbf f48e 3bbf d88d 1ebf 7dfa b63d
000000f0: c38a b23e 09a1 53bf 823d 1abf dc94 053e
00000100: f5e1 ef3e b90a 993c 5ac7 d0bd 84a6 01bf
00000110: 7cbf fabe 23ea 4fbf 25eb 8fbf 9fcf 54be
00000120: d8d8 05bf 2bb6 81bd c6c6 43bf 9e77 20be
00000130: c722 33bf 3d10 b33e eab6 3cbf c175 b13e
00000140: d6b8 41bf eb4d 123f c3d6 d1be 2a5f 313f
00000150: 9114 eabd c083 503f fdd5 a53e c17d 1d3f
00000160: 6bd8 263d 251b 913d 91c9 08bf 63b3 423f
00000170: b33e 3fbe ee8b 7c3f f806 82bc db9c c43f
00000180: 56df a73f 105e 833f e9a2 393f f491 2d3e
00000190: a703 8d3f a770 0e3f 8d24 d43f 2933 ffbe
000001a0: f468 f23e 6600 cebe cad2 c13e 1239 33bf
000001b0: a872 7fbe 2f14 07bf de6f d0bc e72d 97bd
000001c0: 48f3 11be ce81 febd c611 63bc 9195 fe3d
000001d0: 1d71 93bd 0a89 b83c 54fc d13d c99a 0ebd
000001e0: 3371 aabb ef3f 1cbe 15fb 9cbe af4e 07be
000001f0: 9e9c a1be 477e 213e 364d 4a3e c175 773e
00000200: 21c6 323e 0adc fbba f7e6 e9be 3459 2bbe
00000210: 6fcb 72bb e085 2f3f 21b8 e33e 7cb4 dbbe
00000220: 534c d6bd 064a 5abd 498d 44be a361 123f
00000230: a3d9 d8bd 6818 b6bc 7ac5 0c3f 055f 5c3e
00000240: fc87 48bd 806f f3bd c125 3dbe f2c2 3cbb
00000250: 5b78 893e 5067 933e cdee 9f3e 6fad b03d
00000260: c49d afbe ef82 c1be f662 cdbe e050 51be
00000270: e3a9 923c 3e0d 253e 3c54 e2be 0bdc 963d
00000280: 33fd 7c3e f15e 423f e52a ad3e c037 d53e
00000290: 5701 2d3f 393a 0ebe 6c3e 4c3f ea05 27be
000002a0: 2907 003d 6196 fabe e02b c9bd c2d1 6cbd
000002b0: 7850 843e f8c5 36be 06b5 643e 9a28 e2be
000002c0: b496 0e3e 5862 e2be 8bcc 81bd 044a 48be
000002d0: 2bd5 d9be d453 04be 1107 a4be f25b e0bc
000002e0: 1317 183e df16 d4bc 19cc c6be 6aea 3ebe
000002f0: 4fcf 13be 5f15 5cbd aa98 90be 7f31 46bd
00000300: 9b45 943d c4c2 7e3e 5914 d8bd 74b9 c2bd
00000310: 0e2c 283e 423f 95bd d88c 05bf 051a 63be
00000320: 726c c9bc 9986 c7be 099f b9be f08c 18bd
00000330: cfbb 27be 4ab9 ca3e 4cee a0bd 1c73 dc3e
00000340: a24b 963d 37d9 a93e 4cab 933d e600 94be
00000350: 3dd9 05be e4cd 8abd 73f0 0fbe 7f83 573e
00000360: 5c94 ba3d 5432 5c3e 36b2 063d 2324 0dbd
00000370: 8e86 2a3e f106 8abd 4c8a 223d 49c3 34be
00000380: 0694 173d 5c09 b6be 2557 94be 5a91 3a3d
00000390: cc38 3b3e 2f86 0d3e 6624 a4bd 9d73 b6be
000003a0: 5e29 363e 6143 253f e772 ef3e b9eb 00be
000003b0: fbc3 10be e0d5 cdbd 3e00 843e 9731 863e
000003c0: 4018 753e 8c5c eebe 86da d3be 8c50 58be
000003d0: abf1 b53d 5b4d c33e 936c 64bf 585f 3e3f
000003e0: 9542 2e3f 6cc4 d23f 55f8 1dbe 6d1f 643e
000003f0: 7c1a a33e db64 343f 1094 f33e 18fe 5e3f
0.8848828 1.8557786 1.5239807 0.9674205 2.2975345 -0.005523569 0.81677586 0.130167
0.922761 -0.47762084 0.6756846 -0.9894588 -0.5324601 -1.0044155 -0.97645915 -0.12683733
-0.1564437 0.5985148 -0.32659504 0.18295513 0.10995409 0.5937419 0.47363612 0.07885143
0.35186177 -0.6048479 -0.5143708 0.26321757 0.7656041 -0.031387433 0.07040854 0.49966967
0.4351299 -0.35174567 -0.17475113 -0.4235263 0.28578356 -0.120378345 -0.18803377 -0.18269835
0.56522083 0.4305882 1.0852513 -0.2044452 0.6707993 -0.6235095 0.9604594 -0.4774576
1.0413609 -1.2219183 1.0561562 -1.6834363 -0.22207715 -2.9325988 -1.5778037 -1.7020203
-0.9227143 -0.73265004 -0.61935186 0.089344956 0.34871492 -0.82667595 -0.60250103 0.13045067
0.4685208 0.01868187 -0.10194273 -0.5064471 -0.48974216 -0.8121664 -1.1243635 -0.20782326
-0.52284 -0.06333574 -0.7647518 -0.1567063 -0.6997494 0.34973326 -0.73716605 0.34660152
-0.7567266 0.57150143 -0.40984163 0.69285834 -0.11429704 0.81451035 0.32389823 0.6152001
0.040733736 0.070852555 -0.53432566 0.7605497 -0.18676262 0.98651016 -0.015872464 1.5360368
1.3115032 1.0263081 0.72514206 0.16950208 1.101674 0.55640644 1.6573654 -0.4984372
0.47345698 -0.4023468 0.37856132 -0.7000896 -0.24946082 -0.5276517 -0.025443967 -0.07381802
-0.1425296 -0.12427102 -0.013859218 0.12430871 -0.07199309 0.022526283 0.10253206 -0.034815583
-0.0052014827 -0.15258764 -0.3066031 -0.13213609 -0.31564802 0.15770827 0.19756016 0.24166013
0.17458393 -0.0019215357 -0.45684025 -0.16733247 -0.0037047525 0.6856365 0.44476417 -0.42911136
-0.104637764 -0.05329325 -0.19194521 0.5718023 -0.10588386 -0.022228435 0.54988825 0.21520622
-0.04895781 -0.11886501 -0.18471433 -0.002880272 0.26849636 0.2878976 0.31236878 0.0862683
-0.34300053 -0.37795207 -0.40114564 -0.20441008 0.017903274 0.16118333 -0.4420489 0.073661886
0.24705963 0.7592612 0.33821788 0.41644096 0.6758017 -0.13889398 0.7978275 -0.1631085
0.03125683 -0.48942855 -0.098228216 -0.05781723 0.25842643 -0.17848957 0.2233468 -0.44171602
0.13924676 -0.44215655 -0.063378416 -0.19559485 -0.42545447 -0.12922603 -0.3203664 -0.027387593
0.14852552 -0.025889812 -0.3882759 -0.1864411 -0.1443455 -0.05373132 -0.28241473 -0.048387047
0.07239839 0.24878985 -0.10550756 -0.095080286 0.16423056 -0.07287456 -0.52168036 -0.22177894
-0.024587844 -0.38969877 -0.36254147 -0.037243783 -0.16380237 0.3959449 -0.078579515 0.4305657
0.073386446 0.33173534 0.07210407 -0.28906935 -0.13071151 -0.06777552 -0.14056568 0.21046256
0.091103286 0.21503574 0.0328848 -0.03445829 0.16652891 -0.06739605 0.03968267 -0.1765262
0.0370064 -0.35554016 -0.28972736 0.045548774 0.18283385 0.13820718 -0.08014755 -0.3563508
0.17789218 0.6455594 0.4676735 -0.12589921 -0.1413726 -0.10050559 0.25781435 0.2620971
0.23935032 -0.46554983 -0.41377658 -0.21124476 0.08883985 0.38144955 -0.8922817 0.74364233
0.68070346 1.6466193 -0.15426762 0.22277613 0.31856143 0.70466393 0.475739 0.87106466

layers.0.bias f4 [32]
00000000: 1dd6 253f 9665 50be f58c 78bf 66e6 8c3e
00000010: 1011 81bf bdb1 a93f 852b 7fbe 2570 06be
00000020: 754b 893e 507f 8fbe 1519 673e 1204 febc
00000030: 5611 263f 9d43 903d b472 113f 502c d0bd
00000040: ad2a 67bf 5241 bf3e 4773 37be a861 5c3f
00000050: 5d01 d33f d898 bcbe 9bf8 b83f 57b3 ed3e
00000060: 1a15 d2be c89c 0ebf f4aa 1dbf c259 01c0
00000070: 35f0 2e3f 7b4a 01bf 3d4c c13e 9aba 1dbf
0.64779836 -0.20351252 -0.97090083 0.2751953 -1.0083332 1.3257366 -0.24918945 -0.13128717
0.26815382 -0.2802682 0.22568162 -0.0310078 0.648702 0.07044146 0.5681565 -0.10164702
-0.90299493 0.37354523 -0.17915069 0.8608651 1.6484791 -0.3683536 1.4450868 0.46425888
-0.41031724 -0.5570798 -0.6158898 -2.0211034 0.68335277 -0.50504273 0.37753478 -0.61612856

layers.1.weight f4 [32]
00000000: ac3d b43f a033 ec3f 1325 ce40 78f4 0340
00000010: d180 c73f c7dc 8b3f aad8 963f cf70 6940
00000020: 6ef8 c440 7d62 8d40 c577 8c40 8731 4540
00000030: 9487 c53f cb22 8c40 15b3 9c3f 49cc be3f
00000040: fa0d 5740 5db1 0440 f2ba 8a40 3ee3 6e40
00000050: 3798 8940 f001 a040 ad92 c53f 51a3 b13f
00000060: c631 ba3f ec0f eb3f 604b 4440 3264 1f3f
00000070: c971 cf3f 70b0 d83f e83e db3f 221e 6940
1.4081321 1.8453255 6.4420257 2.0617962 1.5586187 1.0926751 1.1784871 3.6475103
6.155326 4.4182725 4.3896203 3.081148 1.5432 4.379247 1.2242151 1.4906093
3.360228 2.0733254 4.3353205 3.7326198 4.299831 5.0002365 1.5435387 1.3877965
1.454644 1.8364234 3.0671005 0.6226226 1.62066 1.6928844 1.7128572 3.6424642

layers.1.bias f4 [32]
00000000: 3559 6ac0 ba2b 5740 488b 8fbe 4f89 1c3f
00000010: f8f3 5b40 e5e9 0ac0 36cc 2740 b142 8740
00000020: d7e3 ff3f 7c5a 2a40 6941 76c0 8685 3840
00000030: f760 8040 c342 6cc0 4316 64c0 4e22 8440
00000040: 313e 87c0 2410 54c0 83ba af3f e638 64c0
00000050: fb05 7cc0 91fd 25c0 31fb 4c40 e79a 50c0
00000060: aaea 33c0 a879 5040 2204 83c0 781c 85c0
00000070: b7ab 0840 ac26 5e40 f30b 52c0 82b6 2e40
-3.6616948 3.3620439 -0.2803595 0.61147016 3.4367657 -2.1705258 2.621839 4.226891
1.9991406 2.6617727 -3.8477423 2.8831496 4.0118365 -3.6915748 -3.5638587 4.1291876
-4.2263417 -3.3134851 1.3728794 -3.5659728 -3.937865 -2.5936015 3.2028315 -3.2594545
-2.8111978 3.2574253 -4.0942545 -4.159725 2.1354806 3.4711103 -3.2819793 2.7298894

layers.1.running_mean f4 [32]
00000000: 10de 7d3f 541d 05bf e584 8fbf c64d 0c3f
00000010: ef0c 33bf b309 593f c62e cebe 714c d13c
00000020: 2f29 4e3d d81e 80be 9a15 0c3f 5e89 ccbd
00000030: a700 ab3e b02e d3bc a7de 1e3f 28d5 e3be
00000040: ab13 e0be c479 983e 05e2 82be dbe0 793f
00000050: 7046 d03f 7cb0 9e3c 118a c03f a3a9 e83e
00000060: 7939 80be 01e9 0fbf 75a7 f4be 4c9f a4bf
00000070: ccf9 663f e670 d2bd 0297 e13e 97da 14bf
0.99166965 -0.51997876 -1.1212431 0.5480617 -0.6994161 0.84780425 -0.4027006 0.025549145
0.050332244 -0.25023532 0.5472046 -0.09987138 0.33398935 -0.025779098 0.6205849 -0.44498563
-0.43765005 0.297804 -0.25563064 0.9760873 1.6271496 0.019371264 1.5042135 0.45441923
-0.25043848 -0.5621491 -0.4778401 -1.2861114 0.9022491 -0.1027544 0.44060522 -0.5814604

layers.1.running_var f4 [32]
00000000: c7c5 8a43 fa1a d142 87c1 c542 9c14 d542
00000010: 1c1c 1143 8e37 2944 a93e 9542 c5f3 2b43
00000020: 5e50 ab42 81a4 0c43 03d6 6143 43aa 8642
00000030: 47a7 9b43 b9f0 2243 293e 8f43 aba8 4643
00000040: e18f f942 503f 0843 91db c642 48d4 1943
00000050: 55d7 3e43 eac5 2143 d540 d742 89c0 b943
00000060: 4fab 1544 f2b8 c142 f8a1 3043 d52b 2344
00000070: defd c942 bdbe 8d43 6700 5b43 783a 8342
277.54514 104.55269 98.87798 106.54025 145.1098 676.86804 74.62238 171.95222
85.65697 140.6426 225.83598 67.33254 311.30685 162.94032 286.48563 198.65886
124.78101 136.24731 99.42884 153.82922 190.84114 161.7731 107.626625 371.50418
598.6767 96.86122 176.63269 652.6849 100.995834 283.49014 219.00157 65.6142

layers.3.weight f4 [16, 32]
00000000: c9ac 0bbe 7b98 a6be cfe6 6cbd 9959 123e
00000010: 1695 203e a689 e4bd 85b6 813f ec9b 76bd
00000020: aa1e 0fbe a095 12be 46f0 5a3d f95e d9be
00000030: 7f92 f13e fa72 323e d8d4 12c0 9297 87be
00000040: d127 ca3f 2cf1 8f3f 628e 37bb 08e8 ffbc
00000050: 204f 2e3d a5d5 59bd 33f5 353f f9e9 263e
00000060: 0185 15be 1cfb 7f3d 15ae 0fbd 7a8d 85c0
00000070: ae70 be3d 2f8e 7fbe 2582 123e 3418 cbbd
00000080: 262c 1ebf 7c15 52bf 9ba8 18be 1bfc 3e3d
00000090: e2c8 213f 4992 10bf 3ba0 e03e 7d18 f8bd
000000a0: e45c 943e 622c d43e ea75 a5be fa28 733e
000000b0: cb77 bdbb f92a 34be 9450 08bf 58c0 ab3f
000000c0: d355 b8bd 085a 48bf 8073 c0be 79c2 183e
000000d0: 10e5 87be 5600 88be 9459 b8bf b6e7 b3bf
000000e0: 086d 04bf 6ec7 eebf bad6 a4be 0562 dc3e
000000f0: efcc 6d3d ee6b 9d3f 554b ea3d cf0f 4abe
00000100: cc16 80bf b164 33bb 95b2 2abf 0d70 6cbe
00000110: 0b8e 8dbe c828 91be 8db4 b4bf 35b2 8b3e
00000120: ef31 9bbe afd9 023e 223e c73d 73bb 343d
00000130: 403a 9b3f e1a0 d4be d0d3 8bbf 2381 1c3f
00000140: 5975 413e c9c3 ff3d 7436 d03e d547 c7be
00000150: ce86 71be 4506 4c3e cd4e cbbe 5951 08c0
00000160: b0e3 cbbf 626e 92bf ee4d 75be 3e1d cc3f
00000170: 4710 ebbe 5f21 eb3f 2217 2fbf f844 913e
00000180: fb1a b3bf e604 23bf d630 0abd 6a94 b23c
00000190: 2b7c 8cbe b91c 91bc 1b2d 65bf 678e 3f3f
000001a0: 5787 293e 3d65 54bd cecd ee3d 26b6 903e
000001b0: 7204 6f3f bb96 0bbf b3c6 1f3f 4f61 6d3f
000001c0: 953b b33e 6177 32be 56bf 8c3e f498 95bd
000001d0: 5084 eebe a0b7 053c c7f7 f0bf 1102 cabf
000001e0: ca2e a4bf c3d7 dabd e953 e5be 596f debe
000001f0: b6f1 883e bb4e 933f 11e0 59bf e6f6 c33c
00000200: 22b8 ebbf 91a5 2dbe 8b34 91be b0a1 7dbd
00000210: 1a7e 653f 69bd b0bf 0b40 dcbf 5379 c23d
00000220: 82cb 3dbe b46a 273d 3cbb e1bc 1374 8a3e
00000230: ebb5 443f 1bce 91bc 65d2 46bf 8964 383f
00000240: 579c 293f ddc8 963e 5101 d93e 4aaf 3bbf
00000250: cdb6 e0be e085 2e3e 435e 28bf 2824 bbbe
00000260: 4a47 e7bf fc67 0ebe 57d9 3fbf 119d 8b3f
00000270: c188 573d f3d5 f03f d3f7 a4bf 0726 3b3e
00000280: 1b82 99bf afd6 3e3f ecfb 423e ec00 eebd
00000290: 6a1a af3f fa11 a2bf bb2c 58bf 8967 4cbf
000002a0: 25fe e33e 1688 503e 77ba 03bf e917 943e
000002b0: 9b8f 1040 2fb7 893e 2f6b 27bf 1077 07bf
000002c0: 1de8 44bd 5a3d 473e 3e18 f1bd 2f9f a73e
000002d0: fd65 a13e cd20 1cbf 0f13 3cbe cf60 2cbf
000002e0: b9c3 84be 8005 cbbf 30f4 02be dd7b 0ec0
000002f0: 818e 9d3e 0f4b 68bf 75b8 d43e 6dff 3dbe
00000300: 2b45 f5be 871b 59be 1bfd 963d a3ec 59be
00000310: 7d03 283e 0929 1bbf 5a72 44bf f4d2 19bd
00000320: 0ff7 973e fc90 703e 9f2c a63d 6771 263d
00000330: 6c83 963e 3655 17be a437 38bf 1284 a03f
00000340: 814f 95bd 7ab7 78bf 8115 843b 1a51 cf3c
00000350: fc78 e2be 9da2 debd f5ae c4bf 9511 7fbf
00000360: 904e 82bf 14ad bcbf ebd1 31bf c91b a13e
00000370: fd13 3f3e b41e 4f3f 2eda 8fbf 27a6 86be
00000380: a302 94be 49ef c73e d3e8 d23b d0a7 6f3e
00000390: 65f2 553f 65b9 b9bf cc3d 463f 7a3d 513e
000003a0: d1f6 ccbe bd9b 23bd a9a8 913e fb3b aabe
000003b0: 94d3 ce3c b5b1 cf3d fb80 d0bf 5c63 103f
000003c0: 6f61 0540 998a 1a3c 5a0f 3c3e 804b af3e
000003d0: 0199 97be b9bb b1bd 9e69 ce3e a5a6 2ebd
000003e0: a293 c23d 6865 f4bd dacb 54be 5f0c 69c0
000003f0: c714 4d3e ce60 f8bd 1006 2bbe 736e 173e
-0.13640131 -0.32538208 -0.057837304 0.14291991 0.15681872 -0.11159067 1.0133826 -0.060207292
-0.13976541 -0.1431489 0.0534518 -0.4245527 0.4718208 0.17426673 -2.294241 -0.26482826
1.5793401 1.1245475 -0.002800845 -0.03123857 0.04255593 -0.053182263 0.7107727 0.16300191
-0.14601518 0.062495336 -0.035078127 -4.17352 0.09298836 -0.24956582 0.14307459 -0.09916726
-0.61786115 -0.8206403 -0.14908068 0.046627145 0.6319715 -0.56473213 0.43872246 -0.12114046
0.2897712 0.4144011 -0.32316524 0.237461 -0.0057821027 -0.17594518 -0.5324795 1.3418074
-0.09000745 -0.78262377 -0.3758812 0.14917935 -0.26541948 -0.26562756 -1.4402337 -1.4055088
-0.5172887 -1.8654611 -0.32195073 0.43043533 0.058056768 1.2298563 0.1144015 -0.19732593
-1.0006957 -0.002737325 -0.66678745 -0.23089619 -0.27647433 -0.28351426 -1.41176 0.272844
-0.30311534 0.12778352 0.09728648 0.044124078 1.2127151 -0.4152899 -1.0924015 0.61134547
0.18892421 0.12488515 0.40666544 -0.3892199 -0.2358658 0.19924267 -0.39708558 -2.129965
-1.592886 -1.1439936 -0.23955509 1.5946424 -0.45910856 1.8369559 -0.6839467 0.2837293
-1.3992609 -0.6367935 -0.03373798 0.021799285 -0.27438483 -0.017713891 -0.8952195 0.74826664
0.16555534 -0.05185436 0.11660348 0.28263968 0.9336616 -0.5452687 0.62412566 0.92726606
0.35006395 -0.17428352 0.27489728 -0.07304564 -0.4658532 0.008161455 -1.8825616 -1.5781881
-1.2826779 -0.106856845 -0.4479058 -0.43444327 0.2674691 1.1508402 -0.85107523 0.023921441
-1.8415568 -0.1695769 -0.283604 -0.061921775 0.8964554 -1.3807803 -1.7207044 0.09495797
-0.18534663 0.040873244 -0.0275551 0.27041683 0.76840085 -0.017798474 -0.77664787 0.72028404
0.6625418 0.29450122 0.42383817 -0.73314345 -0.43889466 0.17043257 -0.6576883 -0.36551023
-1.8068631 -0.13906854 -0.7494101 1.0907308 0.052620653 1.8815292 -1.288813 0.18276225
-1.199283 0.7454633 0.19041413 -0.116212696 1.3679936 -1.2661736 -0.84443253 -0.7984548
0.44529834 0.20364413 -0.514564 0.28924492 2.258765 0.2689757 -0.65397924 -0.5291605
-0.048072923 0.19456998 -0.11772202 0.32738635 0.31523123 -0.6098755 -0.18366645 -0.6733522
-0.25930575 -1.5861053 -0.12788463 -2.22631 0.30772784 -0.9073953 0.4154698 -0.18554468
-0.47904333 -0.21201907 0.07372495 -0.21281676 0.1640758 -0.6060949 -0.76736987 -0.037554696
0.29680678 0.23492807 0.081139795 0.040635493 0.29397142 -0.14778599 -0.719599 1.2540305
-0.07290555 -0.97154963 0.004030884 0.025307227 -0.4423293 -0.1087086 -1.5365893 -0.99636203
-1.0180225 -1.4740319 -0.69460934 0.3146651 0.18659969 0.80906224 -1.1238458 -0.2629864
-0.28908262 0.39049748 0.006436446 0.23403859 0.8357299 -1.4509703 0.77438045 0.20433608
-0.40032056 -0.039943445 0.2844899 -0.33248886 0.025247373 0.10141317 -1.6289362 0.5640161
2.0840719 0.009432458 0.18365231 0.3423729 -0.2960892 -0.086783834 0.40314955 -0.042639393
0.09500815 -0.11933404 -0.20780888 -3.64138 0.20027457 -0.12127839 -0.16701531 0.14788227

layers.3.bias f4 [16]
00000000: f2d5 bfbe 86e7 8d40 53fd dc3f 1186 4f40
00000010: e510 9840 4b4c 4540 5cea 5340 d95e f23f
00000020: 1907 893f 6031 3c40 1fec 3d40 a3c4 6a40
00000030: 89ff ca3f c607 e83f c9d5 483f b881 9240
-0.37467915 4.434512 1.7264808 3.2425578 4.7520623 3.0827816 3.3111792 1.8935195
1.0705291 2.9405136 2.9675367 3.6682518 1.5859233 1.8127372 0.7845121 4.578335

layers.4.weight f4 [16]
00000000: bcbc e940 4d64 2d41 728a b740 1a7c 0c41
00000010: cdd4 0b41 3ea3 3041 219b 3141 3222 2c41
00000020: 31f2 2341 d6ed 0540 6f33 1a41 cbb2 0341
00000030: 6d72 e340 53ee d140 6847 1341 209b 8641
7.304289 10.8369875 5.73565 8.780298 8.739453 11.039854 11.100373 10.758348
10.246629 2.0926414 9.637557 8.231151 7.107718 6.5603423 9.204933 16.825745

layers.4.bias f4 [16]
00000000: b3f2 2440 3da3 a3be 4ee6 a1bf 13bb e5bf
00000010: 42b4 c8bc 9d61 1340 d554 bbbf 6d55 c63f
00000020: 537c bcbf 70ea c13e 36af 0f3f 2afb 343b
00000030: 6714 3b3f 0e1f 653f 8b9f fabf 46e5 debf
2.5773132 -0.31960478 -1.2648408 -1.7947716 -0.024500016 2.3028328 -1.4635264 1.549482
-1.4725441 0.37874174 0.56126726 0.0027615526 0.73078007 0.8950051 -1.9579939 -1.7413719

layers.4.running_mean f4 [16]
00000000: e0c2 313f 7fdc 6c40 2dae c23f 377e 5b40
00000010: 0797 c240 5fdc 4040 aa65 ca3f bce6 9140
00000020: 6fe3 e23f aaae 4b40 c9be 0941 ae67 1b41
00000030: 2e79 0440 34b0 3f40 236d 0e40 6d11 cf40
0.6943798 3.700958 1.5209404 3.4295785 6.080936 3.0134504 1.5812275 4.559416
1.7725657 3.1825356 8.609078 9.712812 2.0698962 2.9951296 2.2254112 6.470877

layers.4.running_var f4 [16]
00000000: 8b77 e63e 70c2 0c3f 142c 233f c59c bc3e
00000010: 3a5d 1e3f d158 013f 96d9 e23e c304 393f
00000020: 989d ee3e 3a46 b93e 0459 343f bbc2 3b3f
00000030: 3984 dd3e 6f1c 243f 3f36 f43e 8867 133f
0.4501308 0.5498419 0.6373913 0.36838356 0.61861 0.5052615 0.4430663 0.7227289
0.4660461 0.3618639 0.7044833 0.7334401 0.4326494 0.64105886 0.47697636 0.5757985

layers.6.weight f4 [1, 16]
00000000: f853 e342 eab0 e742 2594 e242 f7f1 e142
00000010: 7940 e042 b365 dc42 2bdc e342 7999 e542
00000020: da31 e442 0c13 e342 6000 e142 7dbb e342
00000030: e994 dc42 4947 dd42 b2ad e542 195a e742
113.664 115.845535 113.289345 112.97259 112.12592 110.19863 113.930016 114.79975
114.09737 113.5372 112.50073 113.86619 110.29084 110.63923 114.83925 115.67597
