trained_models/NN_tuned_nonorm/NN_32-16_sigmoid.pth (torch, 35287 bytes, 5 tensors)

layers.0.weight f4 [32, 242]
00000000: 5334 273e d3a9 223f 39de 21bf a6a6 0740
00000010: f603 98be 68f6 843d 2c79 87be b1a8 213f
00000020: 8944 f4be ce59 cf3f 3fbf 093f d6a4 ba3e
00000030: f74a e63e 0799 db3e 2a42 cc3e 08c6 3e3f
00000040: 30b4 ee3e 4e68 7fbd 84bc 723f c4f7 87bc
00000050: fad1 683f bce1 0bbf 6454 763d 966c 18bf
00000060: 9cba 82bf 4f21 41bf 695c 5ebe bc35 8abf
00000070: 5c62 47bd 38f6 6f3e 65ee 78bf 5ba1 82bf
00000080: ab49 3dbf 646b 523f 0c69 08bf e1d8 3fbf
00000090: 02b5 14bf 738e babe 3036 a3be 7925 2dbe
000000a0: 5363 63be 6e62 eabd 789d 33bf 1ebd 533e
000000b0: 57fd 583a 0934 01bf e545 a3bf 4619 1d3f
000000c0: 2878 a8be c06b e83f 682d 2f3f 0d68 f4bd
000000d0: 8d69 093f b5ee 263e a1ce 463e e6db 83bf
000000e0: 1936 2d3d a073 8fbd 95d2 43be 90fb 17bf
000000f0: f944 1ebd d95f febe 4703 91bf 071c e9be
00000100: 082b d83b 16ae 2fbf bb89 58bf 70af 13bf
00000110: 0afb 34bf 38bf 493f afb0 78bf 351a 573f
00000120: 1ca0 85be 00ca 173f 1e66 b5be 539e a23f
00000130: 3bb8 3d3f 0ad5 a73f e1de bd3f 8e85 de3e
00000140: e5a6 fb3e 3ead 32be 73e1 513f f27f 133e
00000150: 8f2b 2f3f 5104 263e a3bf 923e 0f70 f0be
00000160: 46e1 8abe 0a2d 023f 30b2 de3d 7b6b fc3e
00000170: 7301 603e 28c5 603f 8112 5a3f 0c59 bf3f
00000180: 6a57 1640 a89a 2dbe f5a8 303f 78c2 81bf
00000190: 2fdb 673e 40e1 40bf 736a ad3e 9feb 87be
000001a0: 7ea5 063f ae76 2cbf a75e 053f 0c4d cabe
000001b0: 47a3 0b3f 9b3b 4bbf e6be 98bd c448 31bf
000001c0: 6360 503e 0721 e8be 40dd 03bf bd3a 43be
000001d0: f2be d4be f301 90bd cc2c aabd 1a67 553e
000001e0: 42f7 a63c 28ec 2dbd 8f11 b9bc 56f9 2c3f
000001f0: 0ad7 8a3f 9620 20bf 2bba c83e 8b58 3abe
00000200: d887 cf3e d3ce 48bf 1a45 cf3d 3060 e2bd
00000210: 3800 dfbc b657 22bf 5d4f 89be 4826 4ebe
00000220: 2c70 9ebd 9b9d 8abe c297 193f 3f93 52bf
00000230: 5109 0dbf 301a 6fbd 9d88 68be 807a 8fbe
00000240: 58ac 57be 6143 4b3e 7d7f d4be 0001 25be
00000250: 8784 1d3f 3fe4 93be 0cff cbbc 5f29 913e
00000260: 463b 26bf 07dc 02bd 9c48 ca3e 3163 443e
00000270: ef85 813f 20cf 50be 296d 713e 2b18 5abe
00000280: 4127 7ebc bdef 8ebe 2816 06be fe08 fdbb
00000290: 21a2 a6be dc98 00be 5db2 ab3e 51a1 013f
000002a0: 75a1 bb3e b268 ccbe dde5 ccbd 6439 9ebd
000002b0: 6381 423f 3014 b6bb 15ab 83be c00d 17bf
000002c0: ba0b 143e 3956 673d 13a5 573d c0da eebd
000002d0: acec 87be 42bd b8be 16cd 853e ceea ec3d
000002e0: bd27 84bc f3ae 14bf c64f a0be 4086 063f
000002f0: c65e 423e 4df5 a9bd 4643 9b3e 017a 81be
00000300: f4e4 163c 0a01 1dbf 5cc5 16be d445 93be
00000310: a457 9abd 5594 7cbe 3d1f 1ebe 68e4 c1be
00000320: a70d 9e3e f721 c53d 7cdb 41bd 4e9c c7be
00000330: e140 35be 68f6 37bd 30dd cd3e 9ac9 1fbe
00000340: 9349 6b3e 5df9 6ebe 75c8 043d 36fc 0d3e
00000350: 3719 94be e2b6 6c3d 1133 ab3c 5c9e a4be
00000360: 02a8 2d3e 258f 20be ac64 afbd 3ab4 90be
00000370: bed8 10ba 71a1 acbc b8d1 b9bd f171 ffbd
00000380: b663 733d 3027 49be fa00 c1be d7ae f8bd
00000390: 203e ec3e 745b 89bc 896d 743e 4f81 e6be
000003a0: c272 2e3e c930 283e 6592 103f 9da5 45be
000003b0: 90ae f43d d70e b4bd 8e71 283f 3468 213e
000003c0: e781 05bc fc5f b43e 31f2 d63e bdf0 ecbe
000003d0: 33ea 4f3e a1c2 7e3e 94ec 563f 809e b8be
000003e0: f826 12bf dbd1 12bf 6da2 883f 2d61 2dbf
000003f0: 5763 b3be 7acf 18bf 9334 11be 914f 87bf
0.16328554 0.6354038 -0.6322971 2.1195464 -0.29690522 0.06492311 -0.26459634 0.6314803
-0.47708538 1.6199281 0.53807443 0.36453885 0.4497907 0.42890188 0.3989423 0.7452092
0.46621847 -0.062355332 0.948189 -0.016597636 0.909454 -0.5464132 0.060139075 -0.5954069
-1.0213199 -0.7544145 -0.21714939 -1.0797648 -0.048677787 0.23433769 -0.9723876 -1.0205492
-0.73940533 0.82195115 -0.5328529 -0.74940306 -0.58088696 -0.36436805 -0.3187728 -0.16908826
-0.22205858 -0.11444555 -0.70162153 0.20677611 0.00082774967 -0.50470024 -1.2755705 0.6136669
-0.32904172 1.8157883 0.6842866 -0.119339086 0.5367668 0.16301997 0.1941476 -1.0301483
0.04228792 -0.070044756 -0.191233 -0.5936823 -0.038639996 -0.496825 -1.1329125 -0.45529196
0.0065969266 -0.6862501 -0.8458516 -0.5768957 -0.70695555 0.788074 -0.971446 0.84024364
-0.26098716 0.592926 -0.35429472 1.2704567 0.7410924 1.3111889 1.4833642 0.4346127
0.49150768 -0.17448899 0.81984633 0.14404276 0.6842584 0.16212584 0.28661832 -0.46960494
-0.27124995 0.50849974 0.1087383 0.4930075 0.21875553 0.87800837 0.85184485 1.494905
2.3490853 -0.16953528 0.6900781 -1.0137472 0.22642206 -0.75343704 0.33870277 -0.26546952
0.5259627 -0.6736859 0.52097553 -0.39511907 0.54546016 -0.79387826 -0.07458286 -0.69251657
0.20349269 -0.45337698 -0.51509476 -0.19065376 -0.4155193 -0.07031622 -0.083093256 0.20840111
0.020381574 -0.042461544 -0.02259138 0.67567956 1.0846875 -0.6254972 0.39204535 -0.18197839
0.40533328 -0.7844059 0.10120602 -0.110535026 -0.027221784 -0.63415086 -0.26818362 -0.2013179
-0.07736239 -0.27073368 0.5999719 -0.8225593 -0.5509234 -0.058374584 -0.22708364 -0.28023148
-0.21061838 0.19849922 -0.41503516 -0.16113663 0.61530346 -0.28885075 -0.02490189 0.28351876
-0.64934194 -0.031948116 0.39508522 0.19178464 1.0118998 -0.20391512 0.23576798 -0.21298282
-0.015512289 -0.2791728 -0.1309439 -0.007722019 -0.3254557 -0.12558311 0.33534518 0.50636774
0.3664662 -0.39923626 -0.100047804 -0.0772579 0.7597868 -0.0055566058 -0.25716463 -0.59005356
0.14457598 0.056478713 0.05264766 -0.11662817 -0.26547754 -0.36081892 0.2613303 0.11568223
-0.01613223 -0.5807945 -0.31310862 0.525486 0.18981466 -0.082987405 0.30324763 -0.25288394
0.00920986 -0.6132971 -0.14723724 -0.28764212 -0.075362474 -0.24665959 -0.15441604 -0.37869573
0.3086979 0.09625619 -0.047328457 -0.3898644 -0.1770053 -0.044912726 0.40207815 -0.15604249
0.22977285 -0.23337312 0.032417733 0.13865742 -0.28925487 0.0577916 0.020898374 -0.3215207
0.16958621 -0.15679605 -0.085641235 -0.28262502 -0.0005525461 -0.021073075 -0.09073204 -0.124729045
0.059421264 -0.19643855 -0.37696058 -0.12142723 0.46141148 -0.016767241 0.2386991 -0.4502053
0.17035964 0.1642486 0.5647338 -0.19301458 0.11947358 -0.08791893 0.6579827 0.15762407
-0.008148647 0.3522948 0.41981652 -0.4627742 0.20304184 0.24878933 0.8395474 -0.36058426
-0.5709071 -0.57351464 1.0674568 -0.67726403 -0.35036728 -0.59691584 -0.14180212 -1.0571157

layers.0.bias f4 [32]
00000000: da42 5940 5b60 2540 daf7 cd3f d456 6040
00000010: 0d28 4b3d ae51 5840 eee6 ccbd c0b2 f0bf
00000020: cb77 2040 7d86 1e3f b9d7 2e40 06b8 133f
00000030: f3d3 8640 4280 7a40 c206 733f 8d36 643f
00000040: fcdc 6ac0 c4b7 22c0 30ca 5f40 221a c140
00000050: 0773 1840 47e0 4f40 a778 0240 03a1 cc40
00000060: 602b e5bf 03b7 2640 2c51 cebe c9b9 983e
00000070: 0e20 68c0 7892 4fc0 9d63 8740 62b1 ffbd
3.3947053 2.584006 1.6091263 3.5052996 0.049598742 3.3799853 -0.10004984 -1.880455
2.5073116 0.6192396 2.7319167 0.5770267 4.2133727 3.9140782 0.94932187 0.8914574
-3.6697378 -2.5424662 3.4967155 6.03444 2.3820207 3.2480638 2.038614 6.3946548
-1.7903862 2.6049201 -0.40296304 0.29829243 -3.6269565 -3.2433147 4.23091 -0.12485005

layers.2.weight f4 [16, 32]
00000000: f0ec 1040 0b4e 2640 41d2 0040 98fa 1dbf
00000010: 3cc5 963f f8e0 14c0 23c7 aa3f c080 47bf
00000020: 26f0 b8bf c1d9 7d3f 53e3 c93f cd80 bd3e
00000030: e2d3 2940 4ad9 ed3e e59f 1abe c56c febf
00000040: f521 abc0 f141 0f40 6024 7c3e 4f2d 5ebf
00000050: fd8a 46bf d21f ecbf dbdb 9f3f c03f 2d40
00000060: 32c2 a33f a405 163e 4b69 a5bd 9f4e a7bf
00000070: 75e8 81c0 d85f 1e40 e633 e03f 7397 4f3f
00000080: 2b26 9fbf b1a0 ad3f 0e15 f13e 7fbc fcbf
00000090: c43c dc3f 3d62 8ebf 7af1 1cbf 91f6 4cc0
000000a0: 3744 ee3f 6ec8 513f c9fc a9be 345a f540
000000b0: 5d05 53bf 5a9a 89bf 3713 e2be e318 f83f
000000c0: 00f8 43bf 45f3 04c0 c4bb 1240 af27 f5be
000000d0: b827 77bf a393 bf3f c3eb e33e 6c78 1641
000000e0: 5ce3 afbf 246c c2bf eb5d b5bf d002 97bf
000000f0: a9ed 133f f0ec dbbf 2759 0a3f bdc7 4bbe
00000100: 9fa1 e3bf 4b8d 9b3f 5512 6d3e 0f42 09bf
00000110: e371 14c0 982d 80be bad5 d03e 1a0a b43e
00000120: fe57 b7bf 75fc 02c0 e3f5 84be 1232 8abe
00000130: 7e75 8740 8cd7 0fc0 3302 adbf 1db6 b83f
00000140: 17d6 7bbf 1d11 2b3f a7c8 a53e a1cd 3640
00000150: e66a 3cbf 1845 7ec0 43c7 32be 11f5 823f
00000160: 513c 803f 0435 d63e efa8 da40 cbb0 bc3f
00000170: 31c4 d2bf 2234 4c40 6529 6440 c806 9d3f
00000180: 554d 6ebf ba33 363f c7e4 f2bf 3727 3dc0
00000190: 2cf2 bd3f 78db 86c0 c0a7 343f 4005 03c0
000001a0: ed48 23c0 935a 3e40 0fa5 f83e 58ff 4d40
000001b0: abeb 45bf f7be 563e 74e4 45bf 8b9e 1f40
000001c0: e900 4340 dee9 e33f 3e1d 023f 74e4 2fc0
000001d0: de6f dcbf 338d 023f fd91 b0bf 1c1b 1340
000001e0: 337d 0240 912c 5240 5f12 06bd 0b9c f1bf
000001f0: 038f 203f de79 5040 6977 44bf e7e4 56c0
00000200: eca8 cbbf e060 8f3f 1c21 93bf 7e34 47c0
00000210: 8c19 2a40 c83e 96c0 f862 ab3f 6a7e 6ec0
00000220: ca7e 97bf aff7 3340 8ca9 babf af27 863f
00000230: fd63 8f3f 6e53 a0bf f1cc 2640 2bcb fe3f
00000240: 16f7 24c0 20da 2540 7d86 a0be d00a edbf
00000250: bbd2 0540 87ab 83bf b053 14c0 3224 1a40
00000260: af15 1940 0e13 3640 10b1 d53e 9656 83c0
00000270: f0db 8e3f fe18 e23f e064 933f f384 a1c0
00000280: 7f97 893f 2608 a23f f321 13bf f6a1 8340
00000290: 19cd 14c0 2a40 fa3b bbd4 b5bf 3d42 8a40
000002a0: 2102 813e f3ac 313f 4763 e8bf 427f 22c0
000002b0: 93e4 3640 97a0 fe3f bb29 593f 9d6b b8bf
000002c0: 4ee9 42c0 93fb 1f3f 07af b93e d372 8840
000002d0: ad54 813e b99e 08c0 cb8f 5c40 9210 79c0
000002e0: e2f1 bdbf 3572 033f 0d18 0e3f 2f9f d93e
000002f0: 08bb dfbf 88e1 03c0 7ae7 04bf 8e23 9c3d
00000300: de59 9c3f c8dd 3b40 76b9 ca3e 458b e33f
00000310: dc26 513f 6a2b 7dbe 0e66 5c3f 7e6c 2ebf
00000320: 65c0 823f e195 8440 d1b4 2940 21c8 113d
00000330: 69a6 a4bd e698 9d3f e1f6 ef3f 9fdf 05bf
00000340: 8e4a 5dbc db7e 783f 4788 28c0 5b60 23c0
00000350: 163c fa3f d04b ddc0 7e90 10c0 c700 13bf
00000360: 0c46 a73f 7f20 db40 e9de 2f3e c3ec d6bf
00000370: 83f9 43c0 d486 9540 5808 74be d0e2 52bf
00000380: 20f8 0c40 07d8 d33e 900d 70bf 93f4 0cbe
00000390: ae70 02c0 cd9b 3c3f 530d 373f d57f c63f
000003a0: 514d 413d 70f6 40be fbc0 fd3f 3fe4 6bbe
000003b0: 29b7 0040 926f bd3f 0e5a 91bf d646 6bbf
000003c0: f67b 9dc0 7c7f 623f 00f6 da3f 0b30 7e40
000003d0: 6936 16c0 c6b2 44c0 ea00 a13f 8745 c5be
000003e0: 56e0 c7be 3d15 92bf 89a5 d03f ff13 553f
000003f0: 2085 f5bf bb9a 3e40 edd5 81be d1c5 a03f
2.2644615 2.5985134 2.0128329 -0.617105 1.1778941 -2.326231 1.3342022 -0.7793083
-1.4448287 0.9916039 1.5772499 0.3701233 2.6535573 0.4645484 -0.15100057 -1.9876944
-5.347895 2.2383997 0.24623251 -0.86787885 -0.7755583 -1.8447211 1.248897 2.707016
1.2793639 0.14650589 -0.08076724 -1.3070868 -4.059626 2.4745998 1.7515838 0.8109047
-1.2433523 1.3564664 0.47086376 -1.9745024 1.7206044 -1.112373 -0.61305964 -3.2025492
1.8614568 0.81946456 -0.33200672 7.667261 -0.8243006 -1.0750229 -0.44155285 1.9382595
-0.7655029 -2.077348 2.2927103 -0.4788184 -0.9654498 1.496693 0.4451581 9.4044
-1.374126 -1.5189252 -1.4169286 -1.1797733 0.57784516 -1.7181683 0.54042286 -0.19900413
-1.7783698 1.2152494 0.23151524 -0.5361642 -2.319451 -0.25034785 0.4078806 0.35163957
-1.4323728 -2.0466588 -0.25968847 -0.26991326 4.2330923 -2.247531 -1.3516296 1.4430577
-0.9837355 0.6682299 0.32379648 2.8563006 -0.73600614 -3.9729671 -0.17458825 1.0231038
1.0018407 0.41837323 6.833122 1.4741453 -1.6466123 3.190682 3.5650265 1.2267694
-0.9308675 0.7117268 -1.8976067 -2.9555185 1.483953 -4.2142906 0.70568466 -2.0471954
-2.551326 2.9742782 0.4856343 3.21871 -0.77312726 0.20971285 -0.77301717 2.4940517
3.0469306 1.7805746 0.5082587 -2.7483187 -1.7221639 0.509967 -1.3794552 2.2985296
2.0388916 3.28397 -0.032732364 -1.8875746 0.6271822 3.2574382 -0.76744705 -3.357721
-1.5910926 1.1201439 -1.1494479 -3.1125789 2.6578093 -4.6951637 1.3389578 -3.7264657
-1.1835568 2.8119924 -1.4582992 1.048086 1.1202389 -1.2525461 2.6062586 1.9905752
-2.577581 2.5914383 -0.31352606 -1.8518925 2.090987 -1.0286721 -2.3176079 2.4084592
2.3919485 2.844913 0.4173665 -4.1043196 1.116087 1.7663877 1.151516 -5.047479
1.0749358 1.2658737 -0.5747368 4.1135206 -2.3250182 0.0076370435 -1.4205545 4.3205857
0.25196937 0.69404525 -1.8155297 -2.5390172 2.857701 1.9892758 0.848293 -1.4407841
-3.0454898 0.62493247 0.36266348 4.2640166 0.25259915 -2.1346877 3.4462764 -3.8916364
-1.4839442 0.5134614 0.5550545 0.4250426 -1.7478952 -2.0606403 -0.51915705 0.07623969
1.2214925 2.9354115 0.3959462 1.7776877 0.8169992 -0.24723592 0.86093223 -0.68134296
1.0214964 4.143296 2.6516612 0.03559125 -0.08039553 1.2312286 1.8747216 -0.52294344
-0.013506545 0.97068566 -2.6333177 -2.552756 1.9549587 -6.9155045 -2.258819 -0.5742306
1.3068252 6.847717 0.17174877 -1.6791004 -3.062104 4.6727085 -0.23831308 -0.8237734
2.2026443 0.41375753 -0.93770695 -0.13765173 -2.0381274 0.73675233 0.71504706 1.5507761
0.047192875 -0.18844008 1.9824518 -0.23036288 2.0111792 1.4799674 -1.1355608 -0.9190496
-4.921382 0.88475776 1.7106323 3.9716823 -2.347071 -3.0734115 1.2578404 -0.38529608
-0.39038342 -1.1412731 1.6300517 0.83233637 -1.9181252 2.978194 -0.25358525 1.2560369

layers.2.bias f4 [16]
00000000: 0f6b d6c0 1e69 85c0 33c3 a9c0 f1be 3340
00000010: 5825 d93f 1b54 afc0 6cb6 99c0 b746 19c1
00000020: d29b a540 f51e 93c0 69c7 3ac0 d4ca 87c0
00000030: 3502 adc0 ec4b 19c1 13a2 4e40 b2be abc0
-6.7005687 -4.1690817 -5.305078 2.8085291 1.6964521 -5.479017 -4.8035183 -9.579764
5.175271 -4.597529 -2.918421 -4.2435093 -5.4065194 -9.581036 3.2286422 -5.367028

layers.4.weight f4 [1, 16]
00000000: 4ab8 0f43 e8fe 0443 0c8d 1243 3675 bac2
00000010: d6d2 bec2 590d 0f43 a622 0b43 7ea9 1943
00000020: 42dc bcc2 da95 0443 2042 0943 a71a 0b43
00000030: 98f2 0b43 091f 1843 03c2 aac2 e5ce ff42
143.71988 132.99573 146.55096 -93.22893 -95.41179 143.05214 139.13535 153.66208
-94.43019 132.58536 137.2583 139.10411 139.94763 152.12123 -85.37893 127.90409
