trained_models/CNN/cnn_baseline.pth (torch, 37767 bytes, 17 tensors)

conv1.weight f4 [8, 1, 22]
00000000: 5190 16bf 696e 323e 9f75 89be 3a1a 943e
00000010: 9ec0 47bf d40c 7f3f 0adc d8bd f5b8 a83e
00000020: a9aa c73e db64 f3be c3e4 d9bd 4c1c 05bf
00000030: 312e b43d 4731 07bf 4e53 0c3f 98b2 29be
00000040: a7ce 623f d175 413e b648 963d 90b4 57be
00000050: ae0f d3be 71b3 fabd bdd6 4abd ded6 d93d
00000060: 0577 8fbe af25 26bd 2a0c 7a3e 3174 ff3e
00000070: 30d2 8dbd a285 39bc d71b a53e 3af4 3d3d
00000080: c2f2 db3d 7964 89bf 33d9 0ebf d11f c8bf
00000090: b791 dc3e 54fb 0dbf 054d 7a3e 4721 6cbd
000000a0: b78c c33e e90b 1b3f ebab f93d f021 5a3d
000000b0: 6995 7d3e 00c0 463f c5d4 0f3e c5dc 613f
000000c0: 3f2c f43e 046f 163f 8490 cb3e aa57 573d
000000d0: f3f3 043e fbbd 0abf a5e1 b5be c734 71bf
000000e0: b2f2 7ebe 0910 2cbf e70f a3bd 6bab 4ebe
000000f0: dcc4 4b3d 88a7 1ebe 42ea 6dbe d990 3e3f
00000100: 071f 1b3e 0d81 c83e 27f4 5a3e f2f2 04bd
00000110: c41b 2f3e af3b bf3e 796a 1c3e c15f c43e
00000120: 935f f1bc a92d e53e 1bcd 41be 152b c73e
00000130: e9ec acbe 284e 9fbe 3ff8 08be e576 12bf
00000140: 06f9 b3be b5f8 1abf 0e7a f2bd d944 2fbf
00000150: 9c48 edbe 023f a0be 007b c6be f0e6 86be
00000160: 0049 8bbe 2837 f63e 6a56 95be 687c d63e
00000170: d52b ab3e 314a 043d 09d6 71be 6b03 55bd
00000180: fcfc 37bf 923b 30bd fedd 1abb efbf b1be
00000190: a466 a73f 0ff8 a3be b280 2c3f 9cef ffbe
000001a0: 9dfd 013f d88b 0dbf d522 cbbe 58e7 a2be
000001b0: e712 e83c e848 66bd df04 c9be 08ea 9f3e
000001c0: 2dd5 c93e dff1 6abe 2554 603e 00aa 153f
000001d0: eac6 6a3f a7f3 8f3f a650 eb3e 5eef 663e
000001e0: d33e 713e 5d0d de3c 65bb 52be 749d 2dbf
000001f0: 0a75 0ebf a542 98bf d24f 19be 378e 38bf
00000200: ebe5 55be 5ccf ffbe c14c a23e c1cd 9d3e
00000210: d0aa b9be fe84 a73b 1d42 4bbe 6cd0 843e
00000220: 4a91 b6ba 5a1c d43f d649 ec3e ccc2 803d
00000230: 8431 c53e e4a7 503e 039f 3fbf b452 e6be
00000240: b569 5d3e 4824 3bbf b0b8 99bd 0af0 a5bf
00000250: 1ecb 4e3e e61f c8be c589 623f 126b a3be
00000260: a5d7 0a3f d3a5 1f3d 1a11 b1bc 0625 563d
00000270: 01a3 44be 1928 663e 9f04 47bf a6bb 2c3d
00000280: 619f aabe d2dc 6b3e d74d c63d 5ece 223f
00000290: ab41 313f 5736 7fbe 8ff1 5e3f ce07 49bf
000002a0: fe0b a4bd 944a f9be a785 013f 35b9 86bf
000002b0: 2202 d83e 3e63 c13c 227c eb3e f9dd 183e
-0.5881396 0.1742493 -0.2684755 0.2892626 -0.78028286 0.9962895 -0.10588844 0.3295361
0.3899739 -0.47537884 -0.10639336 -0.519963 0.08797873 -0.52809566 0.5481461 -0.16572034
0.88596576 0.188926 0.07338087 -0.21064973 -0.412229 -0.12241257 -0.049521197 0.10636686
-0.28020492 -0.04056328 0.24418703 0.49893335 -0.06924856 -0.011323364 0.32247803 0.04637549
0.10739662 -1.0733787 -0.5580017 -1.563471 0.43079922 -0.5546162 0.24443443 -0.057648923
0.38193294 0.6056505 0.12190994 0.05325502 0.24764027 0.7763672 0.14046009 0.8822749
0.47690007 0.58763146 0.39758694 0.052573837 0.12983684 -0.5419614 -0.35523716 -0.94221157
-0.24897268 -0.6721197 -0.079620175 -0.20182578 0.049748287 -0.15493596 -0.23233894 0.7443977
0.15148555 0.39160958 0.21382199 -0.032458253 0.17100435 0.37350222 0.15274991 0.38354304
-0.029464519 0.44761398 -0.18925898 0.38900056 -0.33774498 -0.31114316 -0.13375948 -0.5721267
-0.35150927 -0.60535747 -0.11839686 -0.6846443 -0.4634446 -0.3129807 -0.38765717 -0.26348066
-0.27204132 0.48088956 -0.2916749 0.4189179 0.3343188 0.032297317 -0.23616804 -0.052005213
-0.718704 -0.04302556 -0.0023630853 -0.34716746 1.3078198 -0.3202519 0.67383873 -0.49987495
0.5077761 -0.5529151 -0.39675012 -0.31817126 0.028329326 -0.056221873 -0.3926153 0.3123324
0.39420453 -0.22943829 0.21907099 0.58462524 0.9170977 1.1246232 0.45959967 0.22552249
0.23559122 0.027105981 -0.20579298 -0.6781838 -0.5564734 -1.1895338 -0.14971855 -0.72092
-0.20888488 -0.4996289 0.31699184 0.3082104 -0.36263132 0.0051122895 -0.19849439 0.25940263
-0.0013928798 1.6571152 0.46150082 0.062871546 0.3851434 0.20376545 -0.7485201 -0.44984972
0.21622355 -0.73102236 -0.075059295 -1.2963879 0.2019467 -0.39086837 0.8849147 -0.31917626
0.542353 0.0389765 -0.0216146 0.052281402 -0.19202806 0.22476234 -0.77741426 0.042171143
-0.3332472 0.23033455 0.096828155 0.6359614 0.69240826 -0.24923073 0.8708734 -0.78527534
-0.080101 -0.4868971 0.5059456 -1.0525271 0.42189127 0.023606893 0.45993143 0.14928426

conv1.bias f4 [8]
00000000: 58ab 1abf da6c 243e fdae c53f bacc b13f
00000010: d663 39bf f685 373f 3a6b f0bd 2400 dabd
-0.604177 0.16057149 1.5444027 1.3890603 -0.7241796 0.71688783 -0.11739202 -0.10644558

conv2.weight f4 [16, 8, 3]
00000000: 0238 fcbe 3206 47bf 1e02 5e3e 79bd 8c3c
00000010: a549 c83f 72ea edbf 698d 7c3d 584a 6dbe
00000020: f9c9 84bf 11a3 383f 95af d73f 1c0b ad3c
00000030: 5885 c7be ace2 9e3d adf0 733f 7f48 9abd
00000040: 1bfa cf3f 982e d2be a98e 04be 2adf 0f40
00000050: 0e61 21bf 8358 a7bf 5325 bf3f fadc 563f
00000060: a816 97be ecfb a83e 6a36 823f 26c0 46be
00000070: c92a b03e 32a0 503f e5f5 95bf 5038 f9bd
00000080: 83a3 1fbf 7005 5ebf 14c3 0abf 40d1 f83e
00000090: daab fcbd 79d1 233f 46ed 9c3e bd10 abbe
000000a0: beae 1abf 4030 233f bf83 08be 5163 39bc
000000b0: 5fa8 993e 2b75 db3e e367 783e bd1f 4f3f
000000c0: 9966 82bf cc5b 903f 4352 f43d b61b 2d3f
000000d0: 8c72 553e acf2 48bf d12c a5bf b4b1 553f
000000e0: 27a8 473f 2ca0 2d3f 4974 97be c704 20bf
000000f0: 7c24 10c0 4124 b63e 981c 123f 6ece 2e3e
00000100: de72 bf3e 7d72 273c c3c5 90bf 59c0 3d3f
00000110: d766 a8bd 6e16 f93e 51c0 70be 89d0 33bf
00000120: 404f 2cbf ca8e afbe 00cb 363f 3b49 91be
00000130: 0cf7 2f3f fa18 53be a03f ddbe 2217 f9be
00000140: e9de 10bf fe19 96be d201 383d beb9 88be
00000150: 239a 73bf 2593 b8be 50f2 c83e 30bf 4abe
00000160: 4985 613f 57d6 353e 417d f1be bb4b 983f
00000170: de39 d3be a302 adbf 0a6a 883f d8b4 d23d
00000180: e6b1 7a3e ce52 813f 65c3 b63e b36b fdbe
00000190: 89fe 243f b573 c7be 1c50 a6be 2a84 9bbc
000001a0: 1631 41bf 7098 80be 6fde 78bf 4410 c4be
000001b0: 55c7 453f 66c7 923f 356d d6bc 526c f1bd
000001c0: b5a9 35bf f98b 67be 4178 6dbe 783f d33e
000001d0: f341 eebd e685 ffbb 9271 5d3f 38cd 133f
000001e0: f66c 18be aae1 1940 19b0 81be 8a0d 7e3d
000001f0: 28fc 883f c5b9 73bf 2f1d 6a3f c639 b7bc
00000200: 3305 8dbf 81bf 233f 8829 6d3f 9eed 78bf
00000210: 6cee 1bbf 6661 5340 b961 acbf 444b 353f
00000220: a212 333f 6172 abbf a873 66bd 4f3c 9f3e
00000230: 10e4 5bbc e3b8 703e 9d6a c23f 86a7 553f
00000240: 654c 3cbf 5dae 853f 34d0 153f d580 463f
00000250: c672 d13e ba4a 2bbf e2a7 b43f a197 adbe
00000260: 10b5 a7be b462 de3f f580 08bf c9c2 b2bf
00000270: 015d e4bf aa39 3d40 0bd8 5fbf 1aba 543e
00000280: ae12 08bf ed93 cebf 694b 143f 3644 453f
00000290: 83f4 7b3f bec8 99bf 02f8 1640 981d 823f
000002a0: 39b4 5e3d e1d1 5c3f 6942 f4bf 146a e6bd
000002b0: a189 33bd d140 27bf 439e b3be d5f8 c9bd
000002c0: f8ce 55be edc9 12bf 19b1 913e ef46 b6bd
000002d0: 12b5 2e3f d14c fcbd 6379 d8bf 2bcb 94be
000002e0: d809 593f 7b8f 0bbf 161f d93e ea61 6c3f
000002f0: ca87 67bf c522 2f3e ee47 6dbe a65f 96bf
00000300: 0067 c03f 510e 0840 27db 003f e5e8 a23f
00000310: 28ff 413e 34b6 d4bd 9abf 64bd b06d 51bf
00000320: ef8f 043f 509d 92bd 2968 0bbd c349 443e
00000330: 6c7e c9bf 3095 873f 1abf 9d3f d7fa f8be
00000340: 7c16 063d fbff 27be 30b4 e63e b0c3 333f
00000350: 13f0 213e 93df dfbe fb02 9abf b911 cebe
00000360: e123 89bf 70fa 5cbf b641 bdbf e351 b43f
00000370: 18f0 2c3f 794c 97bf ccba 82bd 0e43 efbd
00000380: f590 c5bd a5d5 ce3f f154 253f b1df a9bd
00000390: a5c3 0e3e 2b33 b53e 54c4 383f 9fd7 743f
000003a0: 3a6a ebbe 816c 13bf 0570 5bbf beac 47bf
000003b0: 844b 9e3e 86c2 7440 4443 9f3f 48a3 33be
000003c0: 9929 81bf 0a73 70be 9590 d73f 52ea 93bf
000003d0: 2acf 283f 2084 babf 5ce2 e3bd d608 0640
000003e0: 9457 563e 541b 393e 771c 963f d898 34bf
000003f0: 89ff 1a40 ad04 50bf ef30 b83f aff6 e4bd
-0.4926148 -0.7774383 0.21680495 0.017180191 1.5647475 -1.8587172 0.061658297 -0.23172891
-1.0374137 0.7212382 1.6850458 0.021123461 -0.3896892 0.07758078 0.9528912 -0.07533359
1.6248201 -0.41051173 -0.12945046 2.2479959 -0.6303872 -1.3073887 1.4933265 0.83930933
-0.29509473 0.330047 1.0172856 -0.19409236 0.34407642 0.8149444 -1.1715666 -0.12168944
-0.62358874 -0.86727047 -0.54203916 0.48597145 -0.123374656 0.63991505 0.30649775 -0.33411208
-0.60422885 0.637455 -0.13331507 -0.011315183 0.3001127 0.4286283 0.2425838 0.80907804
-1.018756 1.1278014 0.11929753 0.6762041 0.20844477 -0.7849529 -1.2904302 0.8347428
0.77990955 0.6782253 -0.29580906 -0.6250729 -2.2522268 0.35574535 0.5707488 0.17070934
0.37392324 0.010220167 -1.1310352 0.74121624 -0.0822274 0.48649925 -0.23510863 -0.70240074
-0.67308426 -0.34288627 0.71403503 -0.28376183 0.6873634 -0.20614997 -0.43212605 -0.4865046
-0.56590134 -0.29316705 0.04492361 -0.2670421 -0.9515707 -0.36049762 0.3924737 -0.19799495
0.88094 0.17757545 -0.47165874 1.1898111 -0.41255087 -1.351643 1.065736 0.102883995
0.24481925 1.0103395 0.3569595 -0.4949623 0.6445089 -0.38955465 -0.32482994 -0.01898392
-0.75465524 -0.251163 -0.97214407 -0.3829366 0.7725728 1.1467102 -0.02617512 -0.117882386
-0.7096208 -0.22611989 -0.23190404 0.4125936 -0.116336726 -0.0077979444 0.8650142 0.57735014
-0.14885315 2.4043984 -0.25329664 0.06202463 1.0701952 -0.95205337 0.9145078 -0.022366416
-1.1017212 0.63964087 0.92641497 -0.97237575 -0.6091068 3.3028197 -1.3467323 0.7081797
0.69950306 -1.3394281 -0.056262642 0.311007 -0.013421074 0.23508029 1.5188786 0.83458745
-0.7355407 1.0443836 0.5852082 0.7754033 0.40907878 -0.669109 1.4113734 -0.33904746
-0.32755327 1.7373872 -0.5332177 -1.3965694 -1.7840883 2.9566445 -0.8743903 0.20774117
-0.531535 -1.6138893 0.57927567 0.77057207 0.9841997 -1.2014387 2.3588872 1.0165281
0.054371092 0.8625775 -1.9082767 -0.112507015 -0.043832425 -0.65333277 -0.35081682 -0.09861914
-0.20879734 -0.57339364 0.28455427 -0.08900248 0.6824504 -0.12319339 -1.6912044 -0.29061255
0.84780645 -0.5451581 0.4240653 0.92336905 -0.9044157 0.17103107 -0.2317197 -1.174794
1.5031433 2.1258738 0.503344 1.2727324 0.1894499 -0.10386315 -0.055846788 -0.81807995
0.51782125 -0.07158911 -0.03403488 0.19168763 -1.5741706 1.0592403 1.2323945 -0.48628876
0.032736287 -0.16406243 0.45059347 0.7022047 0.15814237 -0.4372526 -1.203216 -0.40247896
-1.0714074 -0.8631964 -1.4785678 1.408749 0.67553854 -1.1820213 -0.06383285 -0.116827115
-0.09646789 1.6158949 0.64582735 -0.08294619 0.1394182 0.353906 0.7217457 0.9564151
-0.45979482 -0.5758744 -0.85717803 -0.7799796 0.3091699 3.8243728 1.2442403 -0.17542756
-1.009082 -0.23481384 1.6840998 -1.1555884 0.6594111 -1.4571571 -0.11127159 2.0942893
0.20931846 0.18076831 1.1727437 -0.7054572 2.4218466 -0.81257135 1.4389933 -0.11179864

conv2.bias f4 [16]
00000000: 28e3 cbbe ff44 2dbf 6760 0ebf 5017 12be
00000010: 48e6 28bf 6bba 80bd 2e8a 0f3f d243 1bbe
00000020: 0f9a c23e 6a7d 1bbe 176d 49bf 0542 91be
00000030: 1a76 35bf a61f 5cbf e8e7 80bf 21e5 19be
-0.39821744 -0.67683405 -0.5561585 -0.14266706 -0.6597638 -0.062855564 0.5607022 -0.1516259
0.38008162 -0.1518456 -0.7868208 -0.2837068 -0.70883334 -0.8598579 -1.0070772 -0.15028812

conv3.weight f4 [32, 16, 3]
00000000: 0c14 f93e 9664 413c b87a 7abe 0b62 c4be
00000010: 08a7 043f 3b3c 37bf 70b2 d83e 3524 ec3e
00000020: 3f32 87be 2f6f cf3f d5d8 23bf 9d3a 13bf
00000030: f735 2cc0 bc38 43bf e6d9 7cbd f2a5 4d3f
00000040: 692b bcbd b14f ca3e e76a e3be 035e 0b3f
00000050: fad4 ed3e 0323 17c0 3d46 47bf 6590 10c0
00000060: bf3b a4bf a427 913e 8e6b 9f3f 4c11 1ebf
00000070: 52d4 77bf 4de8 c2bc 6ff4 f8be 97bc ab3e
00000080: a15d 53bf 8052 693f f335 033f 3858 533f
00000090: 861d c73f 656a fd3f 92e0 4c3e c46c a7bf
000000a0: 020c b3be c25f 893e 8a6f 693f a08a 68bd
000000b0: 042a 1b3e 7ea8 e6bf ef37 19bf 97b8 853f
000000c0: dc22 4a3f 2a45 7c3f f6de ae3f 1d62 4f3e
000000d0: 6cf4 34be 3152 58bf 2ffd bd3f 309b debe
000000e0: 1ed9 ed3e 8102 ddbf e881 c2bf 8c88 0bbd
000000f0: acab 0cbf 4647 4dbf eb77 6a3d ecad 25be
00000100: 3f4e 643e df64 f2bd c0ab 3b3e d7c9 2abd
00000110: b4fd d63e e017 04c0 7424 253f 9389 16c0
00000120: 3e9f efbe d522 c7bf 6d02 d4bf 4c5d a33f
00000130: 2ee8 a63d 47c2 6fbe d82d 0b3f cea5 b5bf
00000140: 7f8d 84bd 57b7 473e aff1 3bbd a559 8b3e
00000150: 9bf3 ccbf b7c1 05c0 1559 30c0 56bb d93f
00000160: e6ad e83d f320 13bf 9726 783f 3b93 423f
00000170: cffc ba3e bd49 adbd f317 57c0 4875 c8bf
00000180: 2952 d0bd 966d 7abd 2d61 893d 96a6 2ebe
00000190: 9880 8a3f 2da3 0ebf d0d6 afbf e8db acbf
000001a0: 9f1b 07bf b6f1 013f 8b36 2abe e37b 303f
000001b0: 3ecc d0bf 4bae 083f 6803 283a b5c2 3d3f
000001c0: 3a07 a43f 4418 973e 911d 923e 212a e73f
000001d0: 1e74 813e 2088 b3c0 9aff 8ac0 bdf1 03c0
000001e0: ebed 6bbf 1553 1fbf 6eaf 3abf f402 ff3e
000001f0: 4557 08be 4d49 a8be dc6f 393d 2512 17bf
00000200: 79d9 c6be b03e 713f a2bc 45bf 33b0 8f3f
00000210: e289 5abf 9e20 823f 1956 0dbe 91ea bebd
00000220: 671e 32bf 6226 ae3e 6faf ea3e f50b efbe
00000230: 4513 543f fd91 b13e b997 0d3f c323 8f3e
00000240: 848a 08bd 74af fabd 82c5 9f3e 287e 343f
00000250: 84ef 19bf 3356 06be 0b5e a7bd 8482 bebf
00000260: cac9 5d3d 181f 343f 3a94 d9bf 2fa1 5e3f
00000270: b080 b63f c675 9cbf 059d ba3c 7922 25bf
00000280: 63c3 5abf 109e 443e 56b3 333e d4df a3bf
00000290: ddb0 733e cb80 6bbf df46 d43f 3744 223f
000002a0: 308c a03e 35ad 9fbc 8886 96be d460 02be
000002b0: 556f b4be 2a8f b6be 55f1 c83e f6fc 3dbe
000002c0: 6fc3 503d e2cf ffbe 9724 dabc 39f6 973c
000002d0: 056c a7bf 162e e3be 7c2e adbf 2228 173f
000002e0: 2d14 923e 3c62 553e 8c40 f03e 993d 69bf
000002f0: e2dc 8d3e 1f16 64bf 0407 473f 5273 523e
00000300: 68ef 863f 1c13 9abe 4e72 fd3e 4a6f ea3f
00000310: 8545 b3be 320e 5ebf 4a63 823f 9a0c bebf
00000320: a1e1 d3be 8ce4 01bf 9b36 e1be ec71 edbd
00000330: 2d14 0b40 c3ac cebe 12bf 603e e9ac 5b3f
00000340: 345c 52bf 96b7 59be 3a5d 173f bce5 b9bf
00000350: 5ce5 11bf bcb6 1e3e e0cb a13f 43c7 cdbf
00000360: c82b 52be b13b 1f3f f9da cdbe a6c4 ff3e
00000370: b9a7 70bf 1546 153f 64d5 543f f4d1 c7be
00000380: 0068 a73f 7fad 883f 9917 12bf c489 e8bd
00000390: 5165 b0bf f631 7b3f a2b5 743f 5680 993f
000003a0: e136 5cbe 4ea6 06bf 7481 323f bb1d 4fbf
000003b0: bf8d 90be 0f1e 4fbf fc58 59bf 484a fc3f
000003c0: 6245 8c3f 0670 14bf e5e8 803e d03f b7bf
000003d0: b542 a8be 2519 84bf 5cb0 b6bf d495 293f
000003e0: 091c ec3e 332f 00c0 22a7 89c0 b475 673e
000003f0: d37f 48be 67dc 7abf 8628 83bf 2e23 e93e
0.48648107 0.011803767 -0.24460876 -0.3835605 0.5181737 -0.7157628 0.42323637 0.46121374
-0.26405522 1.6205806 -0.64002734 -0.5751131 -2.6907938 -0.76258445 -0.06173124 0.8033134
-0.09187967 0.39513925 -0.44417498 0.54440325 0.4645155 -2.361512 -0.7784155 -2.2588131
-1.2830733 0.28350556 1.2454698 -0.6174514 -0.9680835 -0.02379241 -0.48623988 0.3354232
-0.8256474 0.9114151 0.51254195 0.82556486 1.5555885 1.9798094 0.20007542 -1.3080068
-0.349701 0.2683087 0.9118582 -0.056772828 0.15152746 -1.802017 -0.5985097 1.0446957
0.7895944 0.98543036 1.3661792 0.20252271 -0.17671365 -0.84500414 1.484289 -0.43477774
0.4645471 -1.7266389 -1.5195894 -0.034065768 -0.5494945 -0.8018688 0.05724327 -0.16179627
0.22295474 -0.11835646 0.18327236 -0.041696396 0.41990435 -2.0639572 0.6450875 -2.3521469
-0.4680118 -1.5557505 -1.656324 1.2762847 0.081497535 -0.23413955 0.54366827 -1.4191225
-0.06472301 0.19503532 -0.045884784 0.2721683 -1.6011842 -2.0899484 -2.7554371 1.7010295
0.113612935 -0.5747215 0.96933883 0.76005906 0.36521003 -0.0846133 -3.3608367 -1.5660791
-0.10171921 -0.061139666 0.06707988 -0.17055735 1.0820494 -0.55717736 -1.373743 -1.350461
-0.5277652 0.50759447 -0.16622369 0.68939036 -1.631233 0.5339095 0.0006409199 0.74125224
1.2814705 0.295107 0.28538182 1.8059732 0.25283903 -5.610367 -4.3437014 -2.0616295
-0.9215991 -0.6223615 -0.72923934 0.4980694 -0.1331454 -0.32868424 0.045272693 -0.5901206
-0.38837793 0.9423628 -0.77240956 1.1225647 -0.8536664 1.0166204 -0.13802375 -0.09322084
-0.6957764 0.3401366 0.4583697 -0.4668881 0.828419 0.34681693 0.55309635 0.27956972
-0.033335224 -0.12240496 0.31205374 0.70505 -0.60131097 -0.1311882 -0.08172234 -1.488358
0.05414752 0.70359945 -1.699836 0.86964697 1.4258022 -1.2223442 0.02277995 -0.64505726
-0.85454386 0.19200921 0.1754888 -1.2802682 0.23797937 -0.919934 1.6584128 0.6338534
0.31356955 -0.019491771 -0.29399514 -0.1273225 -0.3524119 -0.356561 0.39246622 -0.18553528
0.05096763 -0.4996329 -0.026628776 0.018550025 -1.307984 -0.44371098 -1.3529811 0.5904561
0.28531018 0.20838255 0.46924245 -0.91109616 0.27707583 -0.89096254 0.7774508 0.20551804
1.0541811 -0.30092704 0.4950127 1.8315213 -0.35013977 -0.8674041 1.0186551 -1.4847596
-0.4138308 -0.5073936 -0.43986973 -0.115939945 2.1731064 -0.40366182 0.21947888 0.85810715
-0.8217194 -0.21261439 0.5912663 -1.4523234 -0.569906 0.15499395 1.2640343 -1.6076435
-0.20524514 0.62200457 -0.40206125 0.49954718 -0.94005924 0.5831006 0.8313811 -0.3902737
1.3078613 1.0677947 -0.5706726 -0.11354402 -1.3780919 0.9812311 0.9558965 1.199229
-0.2150531 -0.5259751 0.6972878 -0.8090474 -0.28233144 -0.8090524 -0.84901404 1.9710169
1.0958674 -0.57983434 0.25177684 -1.4316349 -0.32863393 -1.0320174 -1.4272571 0.66244245
0.4611514 -2.0028808 -4.301652 0.22603494 -0.19580011 -0.9799256 -1.0246742 0.45534652

conv3.bias f4 [32]
00000000: 04b3 62be 9165 15bf 4a41 31bf f1ff 85be
00000010: bd0d 3e3d 8b12 28be 3469 80bd 926a 84be
00000020: 0ca9 ae3e 48d8 cabe aabb 37be fc36 a2be
00000030: b43b bb3e 8b8b f9bc ad20 94be 2f86 a2be
00000040: 78d2 12bf 1f92 1dbf aaaf 8dbe 2508 a7bb
00000050: 0439 913d 3b74 edbd ca4c 98be f86c 10bf
00000060: 7c74 2fbf 83ce 09bf 1809 f0be c203 e0be
00000070: a604 2cbf bcc8 28be 1bce aebe 6fb5 14bf
-0.22138602 -0.58358103 -0.6924025 -0.2617183 0.04639982 -0.16413324 -0.06270066 -0.25862557
0.34113348 -0.39618134 -0.17942682 -0.31682575 0.36568987 -0.030462047 -0.2893118 -0.31743
-0.573524 -0.6155109 -0.27673084 -0.0050974065 0.07090953 -0.11594435 -0.29746085 -0.56416273
-0.68537116 -0.53830737 -0.46881938 -0.43752867 -0.6719459 -0.16482824 -0.3414162 -0.58089346

conv4.weight f4 [64, 32, 3]
00000000: 7137 9c3e f789 9b3f 727a 65be b74f 013f
00000010: 5785 9f3e 528e eabd 3f72 4640 ebe0 04bf
00000020: 9c1a b9bf 41b0 0ac0 2721 0d40 a62b c3be
00000030: bdc3 fd3f 7da4 253f 88cd 7fbf fe53 d53f
00000040: bdb9 34bf 2dfe c73e e6a2 bc3f 3832 5ebf
00000050: af49 913f 7ba2 ba3f f530 d3bf 554d 953e
00000060: 4fa8 b6bf bfe4 b8bf cbaf a2bf 7f21 4e40
00000070: ae02 d2bf 3051 22bf db89 ac3f d3d1 1a3e
00000080: 3791 a13f 2806 263e 87f7 bbbe 5981 083d
00000090: 16cd a5bf 3134 afbf 297a a4bf cb61 48c0
000000a0: 96f1 523f 9c5d ecbf a5f6 09c0 b0dc 87bf
000000b0: 9cdd 1ebf 614f c73f ab37 343f 4c4d b4be
000000c0: 31ed ad3f 2763 2f3f 2621 803f 43ab 4d3e
000000d0: cfcc a93f 5e6d 8a3f e5a3 d23e bb56 8abe
000000e0: cd2f 1140 56ab 20c0 c2d8 973e ec88 5ebe
000000f0: 3f5b ac3f 1926 5abf 2418 0ebf 762a 12c0
00000100: b516 ea3c c4f5 72be 909b c03f 529a 1340
00000110: 5d43 05bf d11f 873f 71c7 59bf 4d9c 1a3f
00000120: 6627 d33f ac9b e53f afc7 a43f 79f9 4140
00000130: b7ba cbba 8657 cd3e 9ca4 b8bf 75c5 06be
00000140: 6803 353f c4d4 eb3f 733d b3be cbde f2be
00000150: b9b6 3340 0938 a3bf e7ff 443d 0e2d 01c0
00000160: f382 84be db15 063e be37 0e40 e691 7ebe
00000170: 39dd 4c3f 5ee8 abbf 8472 003f f8ce 7f3f
00000180: a0be 8f3f 8f66 473e ce57 4bbf 588f 7dbf
00000190: e4b5 363f 59d4 51bf 4aad 48bd 099a 6d3f
000001a0: aef2 05bf 2dd2 4fc0 1668 47c0 5cc8 b9be
000001b0: dc41 39be 0ee2 0ebd fae7 053e c25c d840
000001c0: cd4e 22bf 7589 9dbf a6b4 c6bf f095 7bbf
000001d0: e567 79bf b556 e7bf 136e ef3f ad63 93bf
000001e0: d458 93bf dd6d 41bf 6f56 55bf bcc8 8ebf
000001f0: 1204 4c3f ec41 09be 77f7 623f f09d 473c
00000200: a453 253e 43ad 2c3f 47f5 89bf fa5a 07bf
00000210: 4f26 99bf 8a92 5fbf d9eb 8bbf 173c edc0
00000220: 729c 4c3f 9850 f93e c72c 5d40 a0fb 4040
00000230: a74d b8bd faba e73e 3c22 29bf 658f e9be
00000240: a150 ad3f 8aa3 7cbe dbd4 2a3f cc06 0640
00000250: c815 1dbf dff2 933f 1664 343f ef18 8dbf
00000260: d8fe 993d 0d66 033f 6bc0 c83f 47cf aa3e
00000270: 43d4 fbbe 7d36 48bf 01cb 91be b137 173e
00000280: 4c8c 0d40 08a8 ad3e 35b0 5c40 0fac f13f
00000290: 88f1 c5be 36ae 243f 4a20 873e f7f1 b9be
000002a0: 7d8b 1940 1090 883f ea5a 6a3f de6a cd3f
000002b0: 8a7a 20bf 0649 283f d5ff fbbe fd1e d23e
000002c0: 276c c83e d80e 043e 4b0e 503d 18c2 bfbe
000002d0: 3399 1f3f e04c 923f 83e2 9fbe 90f8 2140
000002e0: 685e 803f 32e5 58bf 2bd2 2abe 0106 36be
000002f0: a5ae 5abe dacc 3040 56d3 f53f 5f27 383f
00000300: d4f6 3dbf 79af f0be 9938 c6be 905f c73f
00000310: f8ef 74bf e8f6 683f 3924 1140 40f9 623e
00000320: fd99 56bf 0951 17c0 4f4d cdbd 971c 16c0
00000330: f934 983e 20ec 313e 906d 1b3f 00cc 0340
00000340: 7b59 983f 83cb 2abf d4a2 dcbf b76e 95bd
00000350: a618 9d3d ef21 0340 e339 07bf 24ed 8a3f
00000360: 3d16 6abf 9b43 22bf 4453 47bf 17ec c53f
00000370: 5755 e7bd ea3b 373f b2c5 e53d 2a27 b43e
00000380: c061 193f b7e7 2d3f 15f1 fabd 2d28 f2bc
00000390: 5053 3dbf 127c 16bf f4a0 34bf 421e 66c0
000003a0: 2628 2c3c 0e19 303f 5a19 233e 1f0b 8d3f
000003b0: 88e6 a1bf 310a 33bf 7882 8d3f 5019 413f
000003c0: 12b3 51bf 0a85 43bf b3a6 13bf 0719 b93f
000003d0: aede ccbf 3c60 423f 07e0 cfbf f28c 423f
000003e0: 595e 613e 4089 8abf 4109 1fbf a54b 45bf
000003f0: cebb 633f 5aa5 e2be b69b f4bd 3161 d53e
0.30511048 1.2151479 -0.2240999 0.5051226 0.31156418 -0.11452927 3.100723 -0.519057
-1.4461246 -2.1670077 2.2051485 -0.3811924 1.982536 0.64704114 -0.9992299 1.6666257
-0.70595914 0.39061108 1.4737213 -0.8679538 1.1350611 1.4580835 -1.6499316 0.29160562
-1.4270114 -1.4444808 -1.2709898 3.2207944 -1.6407068 -0.6340513 1.347957 0.15119104
1.2622441 0.16213286 -0.36712286 0.03332648 -1.2953212 -1.3687803 -1.284978 -3.1309688
0.8239988 -1.8466067 -2.155679 -1.0614223 -0.620569 1.55711 0.7039744 -0.35215223
1.358801 0.6851067 1.0010116 0.20084862 1.3265628 1.0814626 0.41140667 -0.27019295
2.2685425 -2.5104575 0.2965756 -0.21731919 1.3465346 -0.8521438 -0.55505586 -2.2838416
0.02857528 -0.23726565 1.5047474 2.306294 -0.52055913 1.0556585 -0.8506995 0.60394746
1.6496398 1.7938132 1.2873439 3.0308516 -0.0015543316 0.40105838 -1.4425235 -0.13161261
0.7070832 1.8424306 -0.3500782 -0.47435603 2.8080275 -1.2751476 0.04809561 -2.018375
-0.25881156 0.13094275 2.2221522 -0.24860343 0.8002506 -1.3430288 0.50174737 0.99925184
1.1230049 0.19472717 -0.79430854 -0.9904685 0.71371293 -0.8196464 -0.048993386 0.92813164
-0.52323425 -3.247203 -3.115728 -0.36285675 -0.1809153 -0.03488355 0.13076773 6.761323
-0.6340149 -1.2307574 -1.552388 -0.9827566 -0.97424155 -1.8073336 1.8705467 -1.1514794
-1.1511483 -0.75558263 -0.8333501 -1.1155009 0.7969371 -0.13404053 0.8865885 0.012183651
0.16145188 0.67451876 -1.0777978 -0.52873194 -1.1964816 -0.87332976 -1.093135 -7.413585
0.79926217 0.486943 3.455858 3.015358 -0.08999186 0.4525984 -0.6606786 -0.45617214
1.3540231 -0.2467176 0.6673104 2.0941648 -0.6136136 1.1558493 0.7046522 -1.1023234
0.07519311 0.5132759 1.5683721 0.33361265 -0.4918538 -0.7820814 -0.28475192 0.14767338
2.211688 0.3391726 3.4482548 1.8880633 -0.38660836 0.64328325 0.26391822 -0.36317417
2.3991387 1.0668964 0.91544974 1.6048238 -0.6268698 0.65736425 -0.49218622 0.41039267
0.39145014 0.12896287 0.05079488 -0.3745277 0.6234314 1.142971 -0.31227502 2.530796
1.002881 -0.84724724 -0.16681735 -0.17775728 -0.21355684 2.7625031 1.920512 0.71935076
-0.74204755 -0.47008875 -0.38715056 1.5576038 -0.95678663 0.9100175 2.2678359 0.22165394
-0.8382872 -2.364321 -0.10024511 -2.345495 0.29727915 0.17375231 0.60714054 2.0593262
1.1902307 -0.66716784 -1.7237191 -0.07296508 0.07670717 2.0489461 -0.52822703 1.085362
-0.9144018 -0.6338441 -0.7786143 1.5462674 -0.11295574 0.71575797 0.11219348 0.3518613
0.5991478 0.67931694 -0.12253014 -0.029560173 -0.7395525 -0.58783066 -0.70558095 -3.5955968
0.010507619 0.6878823 0.1592764 1.1019019 -1.2648478 -0.69937426 1.1055441 0.7542925
-0.81913865 -0.76374876 -0.5767624 1.4460763 -1.6005456 0.7592809 -1.6240243 0.75996315
0.22008647 -1.0823135 -0.62123495 -0.7706855 0.8895844 -0.44266778 -0.11943762 0.41675714

conv4.bias f4 [64]
00000000: c11b a5bf ce37 5dbf 6337 27bf fe37 65bf
00000010: fd4f 52bd 229b 98bf 881e 44bf 3f5d 64bf
00000020: a74b 41bf ac6c 5ebf b5d1 66bf ad0a 5cbf
00000030: a776 6fbf 7a77 eabe 632e 48bf b07d 6bbf
00000040: eeb0 2ebf b8c2 12bf 68c5 3dbf a50f 9b3f
00000050: fd3c ccbe ea43 5bbf 0471 953f 0b49 15bf
00000060: 2dc7 83bf 0cce a0bf 518a 5a3f c331 f1be
00000070: 0ff2 acbe e4ed 85bf 7ca4 5cbf 1e9d 6cbf
00000080: f526 7bbc a9d6 33bf 9552 59bf 48ed 11bf
00000090: c865 96bf 1470 1ebf 06e9 833f b78b 27bf
000000a0: 20a0 62bf 62b5 1fbf 29f6 56bf ff15 71bf
000000b0: ce55 2ebf d834 7bbf b63f febe d2f1 85bf
000000c0: 2cd2 40bf e656 59bf 7457 e5be 48df 20bf
000000d0: 8691 4dbf d47d 4bbf a167 4bbf 3d62 fcbe
000000e0: cbbf 6bbe 5762 193f 76bd 1dbf d1a0 0abf
000000f0: a0d3 48bf 78aa afbf 200b 2ebf 8a6f 60bf
-1.2899095 -0.86413276 -0.6531889 -0.8953856 -0.051345814 -1.1922343 -0.76609087 -0.8920478
-0.7550606 -0.8688457 -0.9016374 -0.8595379 -0.93540424 -0.45794278 -0.7819578 -0.9198866
-0.68238723 -0.5732837 -0.74129343 1.2114149 -0.3989028 -0.85650504 1.1675115 -0.5831458
-1.0295159 -1.256288 0.85367304 -0.47108278 -0.33778426 -1.0463223 -0.86188483 -0.9242724
-0.015329112 -0.7024942 -0.84891635 -0.5700269 -1.1749811 -0.6188977 1.0305488 -0.6544756
-0.8852558 -0.62386143 -0.8396936 -0.9417419 -0.6809968 -0.9812751 -0.49657983 -1.0464423
-0.75320697 -0.8489822 -0.44793284 -0.628407 -0.80300176 -0.79488873 -0.79455 -0.492937
-0.23022382 0.5991568 -0.6161722 -0.54151636 -0.78447914 -1.3723898 -0.67985725 -0.87670195

fc.weight f4 [1, 128]
00000000: a13b 6e41 75ba 6041 c65d 7441 0841 6041
00000010: e7b9 6d41 63d1 5241 273d 8341 824b 6041
00000020: ba79 2f41 538e 2541 6830 7441 fa44 6041
00000030: 5e9a 6941 cb21 5f41 7f33 7c41 2b70 6541
00000040: 6785 9041 9c2b 6541 4128 8241 18af 6741
00000050: 841f 9a41 0fab 6f41 1ccd 8841 ce8e 6041
00000060: b8ff 7f41 aae9 6a41 6d28 7741 d5c9 6741
00000070: 2f59 4941 eb4f 3b41 3e80 8341 134d 6741
00000080: 7153 d041 6c26 6141 6e4f 6141 62b0 4e41
00000090: 355c 7441 0eee 5e41 8269 afc0 3315 16c0
000000a0: 06f8 5d41 b89b 5741 d65c 7441 e057 7441
000000b0: 71b1 cec0 9175 fcbf bea2 e541 a9b7 6741
000000c0: 3a54 5a41 1946 4741 70ca 6a41 5462 5441
000000d0: 0788 d2c0 650e fcbf 8201 5e41 98aa 4b41
000000e0: 9457 6341 c1c2 5641 ee5c 7441 643f 6a41
000000f0: 5fb5 9a41 a612 6e41 1c34 5c41 49d3 4b41
00000100: 6088 2e41 8391 2341 6b96 6141 e86f 6241
00000110: 5d12 7641 b321 6441 f47e 4f41 fb44 4841
00000120: e126 7241 da1e 5041 6ac5 2942 04b7 6541
00000130: 2b5d ebc0 0b50 48c0 42d7 7c41 051a 7241
00000140: 3b61 8641 2bf7 6541 0675 c641 39f8 6941
00000150: 2f5d 7441 30e6 5241 e259 7941 e69b 6541
00000160: 4643 9641 237e 6041 e915 8541 5ba7 6c41
00000170: 2c62 6441 4b72 5e41 6217 5d41 bc61 5441
00000180: dd5a 9941 5d19 5e41 97dc 7641 7be5 6541
00000190: 6ca0 5241 0255 4441 c42c 8241 b416 5a41
000001a0: 0355 9c41 27b7 6141 6c49 9741 a8b9 6b41
000001b0: d614 6d41 417b 4a41 4d35 a341 2da7 5b41
000001c0: 18b1 6441 e34b 5e41 f4ee 04c1 8562 a2bf
000001d0: 647f da41 01b0 7441 740c 5e41 50c7 5d41
000001e0: dfd4 6e41 5022 5e41 4b38 7441 d459 6141
000001f0: 1b3c f141 2791 7541 5590 7b41 7322 6041
14.889558 14.045522 15.272894 14.015877 14.857886 13.17612 16.40486 14.018435
10.967218 10.347247 15.261818 14.01684 14.600187 13.94575 15.762572 14.339885
18.065138 14.323147 16.269655 14.4802475 19.265388 14.979262 17.100151 14.034864
15.999931 14.682047 15.44737 14.486775 12.584273 11.707011 16.437618 14.456317
26.040743 14.07188 14.081892 12.918062 15.2725115 13.933119 -5.4816294 -2.345044
13.873053 13.475517 15.272665 15.271454 -6.4591603 -1.9723378 28.704464 14.482339
13.645563 12.454614 14.674423 13.274006 -6.579105 -1.9691893 13.875368 12.729149
14.208881 13.422547 15.272688 14.640476 19.33856 14.879553 13.762722 12.739083
10.908295 10.223025 14.099223 14.152321 15.379483 14.258227 12.968494 12.516841
15.134492 13.007532 42.442787 14.357182 -7.355123 -3.1298854 15.802553 15.131352
16.797476 14.372844 24.80714 14.623101 15.27275 13.181198 15.584444 14.350561
18.782848 14.030795 16.635698 14.790858 14.273968 13.902904 13.818209 13.273861
19.169367 13.881192 15.428855 14.3685255 13.1641655 12.270754 16.271858 13.630543
19.54151 14.107215 18.91085 14.732826 14.817587 12.655091 20.401026 13.728314
14.293236 13.893527 -8.308338 -1.2686316 27.312202 15.29297 13.87804 13.86116
14.9269705 13.883377 15.263743 14.084431 30.154348 15.347938 15.722737 14.00841

conv_block1.0.weight f4 [8, 1, 22]
00000000: 5190 16bf 696e 323e 9f75 89be 3a1a 943e
00000010: 9ec0 47bf d40c 7f3f 0adc d8bd f5b8 a83e
00000020: a9aa c73e db64 f3be c3e4 d9bd 4c1c 05bf
00000030: 312e b43d 4731 07bf 4e53 0c3f 98b2 29be
00000040: a7ce 623f d175 413e b648 963d 90b4 57be
00000050: ae0f d3be 71b3 fabd bdd6 4abd ded6 d93d
00000060: 0577 8fbe af25 26bd 2a0c 7a3e 3174 ff3e
00000070: 30d2 8dbd a285 39bc d71b a53e 3af4 3d3d
00000080: c2f2 db3d 7964 89bf 33d9 0ebf d11f c8bf
00000090: b791 dc3e 54fb 0dbf 054d 7a3e 4721 6cbd
000000a0: b78c c33e e90b 1b3f ebab f93d f021 5a3d
000000b0: 6995 7d3e 00c0 463f c5d4 0f3e c5dc 613f
000000c0: 3f2c f43e 046f 163f 8490 cb3e aa57 573d
000000d0: f3f3 043e fbbd 0abf a5e1 b5be c734 71bf
000000e0: b2f2 7ebe 0910 2cbf e70f a3bd 6bab 4ebe
000000f0: dcc4 4b3d 88a7 1ebe 42ea 6dbe d990 3e3f
00000100: 071f 1b3e 0d81 c83e 27f4 5a3e f2f2 04bd
00000110: c41b 2f3e af3b bf3e 796a 1c3e c15f c43e
00000120: 935f f1bc a92d e53e 1bcd 41be 152b c73e
00000130: e9ec acbe 284e 9fbe 3ff8 08be e576 12bf
00000140: 06f9 b3be b5f8 1abf 0e7a f2bd d944 2fbf
00000150: 9c48 edbe 023f a0be 007b c6be f0e6 86be
00000160: 0049 8bbe 2837 f63e 6a56 95be 687c d63e
00000170: d52b ab3e 314a 043d 09d6 71be 6b03 55bd
00000180: fcfc 37bf 923b 30bd fedd 1abb efbf b1be
00000190: a466 a73f 0ff8 a3be b280 2c3f 9cef ffbe
000001a0: 9dfd 013f d88b 0dbf d522 cbbe 58e7 a2be
000001b0: e712 e83c e848 66bd df04 c9be 08ea 9f3e
000001c0: 2dd5 c93e dff1 6abe 2554 603e 00aa 153f
000001d0: eac6 6a3f a7f3 8f3f a650 eb3e 5eef 663e
000001e0: d33e 713e 5d0d de3c 65bb 52be 749d 2dbf
000001f0: 0a75 0ebf a542 98bf d24f 19be 378e 38bf
00000200: ebe5 55be 5ccf ffbe c14c a23e c1cd 9d3e
00000210: d0aa b9be fe84 a73b 1d42 4bbe 6cd0 843e
00000220: 4a91 b6ba 5a1c d43f d649 ec3e ccc2 803d
00000230: 8431 c53e e4a7 503e 039f 3fbf b452 e6be
00000240: b569 5d3e 4824 3bbf b0b8 99bd 0af0 a5bf
00000250: 1ecb 4e3e e61f c8be c589 623f 126b a3be
00000260: a5d7 0a3f d3a5 1f3d 1a11 b1bc 0625 563d
00000270: 01a3 44be 1928 663e 9f04 47bf a6bb 2c3d
00000280: 619f aabe d2dc 6b3e d74d c63d 5ece 223f
00000290: ab41 313f 5736 7fbe 8ff1 5e3f ce07 49bf
000002a0: fe0b a4bd 944a f9be a785 013f 35b9 86bf
000002b0: 2202 d83e 3e63 c13c 227c eb3e f9dd 183e
-0.5881396 0.1742493 -0.2684755 0.2892626 -0.78028286 0.9962895 -0.10588844 0.3295361
0.3899739 -0.47537884 -0.10639336 -0.519963 0.08797873 -0.52809566 0.5481461 -0.16572034
0.88596576 0.188926 0.07338087 -0.21064973 -0.412229 -0.12241257 -0.049521197 0.10636686
-0.28020492 -0.04056328 0.24418703 0.49893335 -0.06924856 -0.011323364 0.32247803 0.04637549
0.10739662 -1.0733787 -0.5580017 -1.563471 0.43079922 -0.5546162 0.24443443 -0.057648923
0.38193294 0.6056505 0.12190994 0.05325502 0.24764027 0.7763672 0.14046009 0.8822749
0.47690007 0.58763146 0.39758694 0.052573837 0.12983684 -0.5419614 -0.35523716 -0.94221157
-0.24897268 -0.6721197 -0.079620175 -0.20182578 0.049748287 -0.15493596 -0.23233894 0.7443977
0.15148555 0.39160958 0.21382199 -0.032458253 0.17100435 0.37350222 0.15274991 0.38354304
-0.029464519 0.44761398 -0.18925898 0.38900056 -0.33774498 -0.31114316 -0.13375948 -0.5721267
-0.35150927 -0.60535747 -0.11839686 -0.6846443 -0.4634446 -0.3129807 -0.38765717 -0.26348066
-0.27204132 0.48088956 -0.2916749 0.4189179 0.3343188 0.032297317 -0.23616804 -0.052005213
-0.718704 -0.04302556 -0.0023630853 -0.34716746 1.3078198 -0.3202519 0.67383873 -0.49987495
0.5077761 -0.5529151 -0.39675012 -0.31817126 0.028329326 -0.056221873 -0.3926153 0.3123324
0.39420453 -0.22943829 0.21907099 0.58462524 0.9170977 1.1246232 0.45959967 0.22552249
0.23559122 0.027105981 -0.20579298 -0.6781838 -0.5564734 -1.1895338 -0.14971855 -0.72092
-0.20888488 -0.4996289 0.31699184 0.3082104 -0.36263132 0.0051122895 -0.19849439 0.25940263
-0.0013928798 1.6571152 0.46150082 0.062871546 0.3851434 0.20376545 -0.7485201 -0.44984972
0.21622355 -0.73102236 -0.075059295 -1.2963879 0.2019467 -0.39086837 0.8849147 -0.31917626
0.542353 0.0389765 -0.0216146 0.052281402 -0.19202806 0.22476234 -0.77741426 0.042171143
-0.3332472 0.23033455 0.096828155 0.6359614 0.69240826 -0.24923073 0.8708734 -0.78527534
-0.080101 -0.4868971 0.5059456 -1.0525271 0.42189127 0.023606893 0.45993143 0.14928426

conv_block1.0.bias f4 [8]
00000000: 58ab 1abf da6c 243e fdae c53f bacc b13f
00000010: d663 39bf f685 373f 3a6b f0bd 2400 dabd
-0.604177 0.16057149 1.5444027 1.3890603 -0.7241796 0.71688783 -0.11739202 -0.10644558

conv_block2.0.weight f4 [16, 8, 3]
00000000: 0238 fcbe 3206 47bf 1e02 5e3e 79bd 8c3c
00000010: a549 c83f 72ea edbf 698d 7c3d 584a 6dbe
00000020: f9c9 84bf 11a3 383f 95af d73f 1c0b ad3c
00000030: 5885 c7be ace2 9e3d adf0 733f 7f48 9abd
00000040: 1bfa cf3f 982e d2be a98e 04be 2adf 0f40
00000050: 0e61 21bf 8358 a7bf 5325 bf3f fadc 563f
00000060: a816 97be ecfb a83e 6a36 823f 26c0 46be
00000070: c92a b03e 32a0 503f e5f5 95bf 5038 f9bd
00000080: 83a3 1fbf 7005 5ebf 14c3 0abf 40d1 f83e
00000090: daab fcbd 79d1 233f 46ed 9c3e bd10 abbe
000000a0: beae 1abf 4030 233f bf83 08be 5163 39bc
000000b0: 5fa8 993e 2b75 db3e e367 783e bd1f 4f3f
000000c0: 9966 82bf cc5b 903f 4352 f43d b61b 2d3f
000000d0: 8c72 553e acf2 48bf d12c a5bf b4b1 553f
000000e0: 27a8 473f 2ca0 2d3f 4974 97be c704 20bf
000000f0: 7c24 10c0 4124 b63e 981c 123f 6ece 2e3e
00000100: de72 bf3e 7d72 273c c3c5 90bf 59c0 3d3f
00000110: d766 a8bd 6e16 f93e 51c0 70be 89d0 33bf
00000120: 404f 2cbf ca8e afbe 00cb 363f 3b49 91be
00000130: 0cf7 2f3f fa18 53be a03f ddbe 2217 f9be
00000140: e9de 10bf fe19 96be d201 383d beb9 88be
00000150: 239a 73bf 2593 b8be 50f2 c83e 30bf 4abe
00000160: 4985 613f 57d6 353e 417d f1be bb4b 983f
00000170: de39 d3be a302 adbf 0a6a 883f d8b4 d23d
00000180: e6b1 7a3e ce52 813f 65c3 b63e b36b fdbe
00000190: 89fe 243f b573 c7be 1c50 a6be 2a84 9bbc
000001a0: 1631 41bf 7098 80be 6fde 78bf 4410 c4be
000001b0: 55c7 453f 66c7 923f 356d d6bc 526c f1bd
000001c0: b5a9 35bf f98b 67be 4178 6dbe 783f d33e
000001d0: f341 eebd e685 ffbb 9271 5d3f 38cd 133f
000001e0: f66c 18be aae1 1940 19b0 81be 8a0d 7e3d
000001f0: 28fc 883f c5b9 73bf 2f1d 6a3f c639 b7bc
00000200: 3305 8dbf 81bf 233f 8829 6d3f 9eed 78bf
00000210: 6cee 1bbf 6661 5340 b961 acbf 444b 353f
00000220: a212 333f 6172 abbf a873 66bd 4f3c 9f3e
00000230: 10e4 5bbc e3b8 703e 9d6a c23f 86a7 553f
00000240: 654c 3cbf 5dae 853f 34d0 153f d580 463f
00000250: c672 d13e ba4a 2bbf e2a7 b43f a197 adbe
00000260: 10b5 a7be b462 de3f f580 08bf c9c2 b2bf
00000270: 015d e4bf aa39 3d40 0bd8 5fbf 1aba 543e
00000280: ae12 08bf ed93 cebf 694b 143f 3644 453f
00000290: 83f4 7b3f bec8 99bf 02f8 1640 981d 823f
000002a0: 39b4 5e3d e1d1 5c3f 6942 f4bf 146a e6bd
000002b0: a189 33bd d140 27bf 439e b3be d5f8 c9bd
000002c0: f8ce 55be edc9 12bf 19b1 913e ef46 b6bd
000002d0: 12b5 2e3f d14c fcbd 6379 d8bf 2bcb 94be
000002e0: d809 593f 7b8f 0bbf 161f d93e ea61 6c3f
000002f0: ca87 67bf c522 2f3e ee47 6dbe a65f 96bf
00000300: 0067 c03f 510e 0840 27db 003f e5e8 a23f
00000310: 28ff 413e 34b6 d4bd 9abf 64bd b06d 51bf
00000320: ef8f 043f 509d 92bd 2968 0bbd c349 443e
00000330: 6c7e c9bf 3095 873f 1abf 9d3f d7fa f8be
00000340: 7c16 063d fbff 27be 30b4 e63e b0c3 333f
00000350: 13f0 213e 93df dfbe fb02 9abf b911 cebe
00000360: e123 89bf 70fa 5cbf b641 bdbf e351 b43f
00000370: 18f0 2c3f 794c 97bf ccba 82bd 0e43 efbd
00000380: f590 c5bd a5d5 ce3f f154 253f b1df a9bd
00000390: a5c3 0e3e 2b33 b53e 54c4 383f 9fd7 743f
000003a0: 3a6a ebbe 816c 13bf 0570 5bbf beac 47bf
000003b0: 844b 9e3e 86c2 7440 4443 9f3f 48a3 33be
000003c0: 9929 81bf 0a73 70be 9590 d73f 52ea 93bf
000003d0: 2acf 283f 2084 babf 5ce2 e3bd d608 0640
000003e0: 9457 563e 541b 393e 771c 963f d898 34bf
000003f0: 89ff 1a40 ad04 50bf ef30 b83f aff6 e4bd
-0.4926148 -0.7774383 0.21680495 0.017180191 1.5647475 -1.8587172 0.061658297 -0.23172891
-1.0374137 0.7212382 1.6850458 0.021123461 -0.3896892 0.07758078 0.9528912 -0.07533359
1.6248201 -0.41051173 -0.12945046 2.2479959 -0.6303872 -1.3073887 1.4933265 0.83930933
-0.29509473 0.330047 1.0172856 -0.19409236 0.34407642 0.8149444 -1.1715666 -0.12168944
-0.62358874 -0.86727047 -0.54203916 0.48597145 -0.123374656 0.63991505 0.30649775 -0.33411208
-0.60422885 0.637455 -0.13331507 -0.011315183 0.3001127 0.4286283 0.2425838 0.80907804
-1.018756 1.1278014 0.11929753 0.6762041 0.20844477 -0.7849529 -1.2904302 0.8347428
0.77990955 0.6782253 -0.29580906 -0.6250729 -2.2522268 0.35574535 0.5707488 0.17070934
0.37392324 0.010220167 -1.1310352 0.74121624 -0.0822274 0.48649925 -0.23510863 -0.70240074
-0.67308426 -0.34288627 0.71403503 -0.28376183 0.6873634 -0.20614997 -0.43212605 -0.4865046
-0.56590134 -0.29316705 0.04492361 -0.2670421 -0.9515707 -0.36049762 0.3924737 -0.19799495
0.88094 0.17757545 -0.47165874 1.1898111 -0.41255087 -1.351643 1.065736 0.102883995
0.24481925 1.0103395 0.3569595 -0.4949623 0.6445089 -0.38955465 -0.32482994 -0.01898392
-0.75465524 -0.251163 -0.97214407 -0.3829366 0.7725728 1.1467102 -0.02617512 -0.117882386
-0.7096208 -0.22611989 -0.23190404 0.4125936 -0.116336726 -0.0077979444 0.8650142 0.57735014
-0.14885315 2.4043984 -0.25329664 0.06202463 1.0701952 -0.95205337 0.9145078 -0.022366416
-1.1017212 0.63964087 0.92641497 -0.97237575 -0.6091068 3.3028197 -1.3467323 0.7081797
0.69950306 -1.3394281 -0.056262642 0.311007 -0.013421074 0.23508029 1.5188786 0.83458745
-0.7355407 1.0443836 0.5852082 0.7754033 0.40907878 -0.669109 1.4113734 -0.33904746
-0.32755327 1.7373872 -0.5332177 -1.3965694 -1.7840883 2.9566445 -0.8743903 0.20774117
-0.531535 -1.6138893 0.57927567 0.77057207 0.9841997 -1.2014387 2.3588872 1.0165281
0.054371092 0.8625775 -1.9082767 -0.112507015 -0.043832425 -0.65333277 -0.35081682 -0.09861914
-0.20879734 -0.57339364 0.28455427 -0.08900248 0.6824504 -0.12319339 -1.6912044 -0.29061255
0.84780645 -0.5451581 0.4240653 0.92336905 -0.9044157 0.17103107 -0.2317197 -1.174794
1.5031433 2.1258738 0.503344 1.2727324 0.1894499 -0.10386315 -0.055846788 -0.81807995
0.51782125 -0.07158911 -0.03403488 0.19168763 -1.5741706 1.0592403 1.2323945 -0.48628876
0.032736287 -0.16406243 0.45059347 0.7022047 0.15814237 -0.4372526 -1.203216 -0.40247896
-1.0714074 -0.8631964 -1.4785678 1.408749 0.67553854 -1.1820213 -0.06383285 -0.116827115
-0.09646789 1.6158949 0.64582735 -0.08294619 0.1394182 0.353906 0.7217457 0.9564151
-0.45979482 -0.5758744 -0.85717803 -0.7799796 0.3091699 3.8243728 1.2442403 -0.17542756
-1.009082 -0.23481384 1.6840998 -1.1555884 0.6594111 -1.4571571 -0.11127159 2.0942893
0.20931846 0.18076831 1.1727437 -0.7054572 2.4218466 -0.81257135 1.4389933 -0.11179864

conv_block2.0.bias f4 [16]
00000000: 28e3 cbbe ff44 2dbf 6760 0ebf 5017 12be
00000010: 48e6 28bf 6bba 80bd 2e8a 0f3f d243 1bbe
00000020: 0f9a c23e 6a7d 1bbe 176d 49bf 0542 91be
00000030: 1a76 35bf a61f 5cbf e8e7 80bf 21e5 19be
-0.39821744 -0.67683405 -0.5561585 -0.14266706 -0.6597638 -0.062855564 0.5607022 -0.1516259
0.38008162 -0.1518456 -0.7868208 -0.2837068 -0.70883334 -0.8598579 -1.0070772 -0.15028812

conv_block3.0.weight f4 [32, 16, 3]
00000000: 0c14 f93e 9664 413c b87a 7abe 0b62 c4be
00000010: 08a7 043f 3b3c 37bf 70b2 d83e 3524 ec3e
00000020: 3f32 87be 2f6f cf3f d5d8 23bf 9d3a 13bf
00000030: f735 2cc0 bc38 43bf e6d9 7cbd f2a5 4d3f
00000040: 692b bcbd b14f ca3e e76a e3be 035e 0b3f
00000050: fad4 ed3e 0323 17c0 3d46 47bf 6590 10c0
00000060: bf3b a4bf a427 913e 8e6b 9f3f 4c11 1ebf
00000070: 52d4 77bf 4de8 c2bc 6ff4 f8be 97bc ab3e
00000080: a15d 53bf 8052 693f f335 033f 3858 533f
00000090: 861d c73f 656a fd3f 92e0 4c3e c46c a7bf
000000a0: 020c b3be c25f 893e 8a6f 693f a08a 68bd
000000b0: 042a 1b3e 7ea8 e6bf ef37 19bf 97b8 853f
000000c0: dc22 4a3f 2a45 7c3f f6de ae3f 1d62 4f3e
000000d0: 6cf4 34be 3152 58bf 2ffd bd3f 309b debe
000000e0: 1ed9 ed3e 8102 ddbf e881 c2bf 8c88 0bbd
000000f0: acab 0cbf 4647 4dbf eb77 6a3d ecad 25be
00000100: 3f4e 643e df64 f2bd c0ab 3b3e d7c9 2abd
00000110: b4fd d63e e017 04c0 7424 253f 9389 16c0
00000120: 3e9f efbe d522 c7bf 6d02 d4bf 4c5d a33f
00000130: 2ee8 a63d 47c2 6fbe d82d 0b3f cea5 b5bf
00000140: 7f8d 84bd 57b7 473e aff1 3bbd a559 8b3e
00000150: 9bf3 ccbf b7c1 05c0 1559 30c0 56bb d93f
00000160: e6ad e83d f320 13bf 9726 783f 3b93 423f
00000170: cffc ba3e bd49 adbd f317 57c0 4875 c8bf
00000180: 2952 d0bd 966d 7abd 2d61 893d 96a6 2ebe
00000190: 9880 8a3f 2da3 0ebf d0d6 afbf e8db acbf
000001a0: 9f1b 07bf b6f1 013f 8b36 2abe e37b 303f
000001b0: 3ecc d0bf 4bae 083f 6803 283a b5c2 3d3f
000001c0: 3a07 a43f 4418 973e 911d 923e 212a e73f
000001d0: 1e74 813e 2088 b3c0 9aff 8ac0 bdf1 03c0
000001e0: ebed 6bbf 1553 1fbf 6eaf 3abf f402 ff3e
000001f0: 4557 08be 4d49 a8be dc6f 393d 2512 17bf
00000200: 79d9 c6be b03e 713f a2bc 45bf 33b0 8f3f
00000210: e289 5abf 9e20 823f 1956 0dbe 91ea bebd
00000220: 671e 32bf 6226 ae3e 6faf ea3e f50b efbe
00000230: 4513 543f fd91 b13e b997 0d3f c323 8f3e
00000240: 848a 08bd 74af fabd 82c5 9f3e 287e 343f
00000250: 84ef 19bf 3356 06be 0b5e a7bd 8482 bebf
00000260: cac9 5d3d 181f 343f 3a94 d9bf 2fa1 5e3f
00000270: b080 b63f c675 9cbf 059d ba3c 7922 25bf
00000280: 63c3 5abf 109e 443e 56b3 333e d4df a3bf
00000290: ddb0 733e cb80 6bbf df46 d43f 3744 223f
000002a0: 308c a03e 35ad 9fbc 8886 96be d460 02be
000002b0: 556f b4be 2a8f b6be 55f1 c83e f6fc 3dbe
000002c0: 6fc3 503d e2cf ffbe 9724 dabc 39f6 973c
000002d0: 056c a7bf 162e e3be 7c2e adbf 2228 173f
000002e0: 2d14 923e 3c62 553e 8c40 f03e 993d 69bf
000002f0: e2dc 8d3e 1f16 64bf 0407 473f 5273 523e
00000300: 68ef 863f 1c13 9abe 4e72 fd3e 4a6f ea3f
00000310: 8545 b3be 320e 5ebf 4a63 823f 9a0c bebf
00000320: a1e1 d3be 8ce4 01bf 9b36 e1be ec71 edbd
00000330: 2d14 0b40 c3ac cebe 12bf 603e e9ac 5b3f
00000340: 345c 52bf 96b7 59be 3a5d 173f bce5 b9bf
00000350: 5ce5 11bf bcb6 1e3e e0cb a13f 43c7 cdbf
00000360: c82b 52be b13b 1f3f f9da cdbe a6c4 ff3e
00000370: b9a7 70bf 1546 153f 64d5 543f f4d1 c7be
00000380: 0068 a73f 7fad 883f 9917 12bf c489 e8bd
00000390: 5165 b0bf f631 7b3f a2b5 743f 5680 993f
000003a0: e136 5cbe 4ea6 06bf 7481 323f bb1d 4fbf
000003b0: bf8d 90be 0f1e 4fbf fc58 59bf 484a fc3f
000003c0: 6245 8c3f 0670 14bf e5e8 803e d03f b7bf
000003d0: b542 a8be 2519 84bf 5cb0 b6bf d495 293f
000003e0: 091c ec3e 332f 00c0 22a7 89c0 b475 673e
000003f0: d37f 48be 67dc 7abf 8628 83bf 2e23 e93e
0.48648107 0.011803767 -0.24460876 -0.3835605 0.5181737 -0.7157628 0.42323637 0.46121374
-0.26405522 1.6205806 -0.64002734 -0.5751131 -2.6907938 -0.76258445 -0.06173124 0.8033134
-0.09187967 0.39513925 -0.44417498 0.54440325 0.4645155 -2.361512 -0.7784155 -2.2588131
-1.2830733 0.28350556 1.2454698 -0.6174514 -0.9680835 -0.02379241 -0.48623988 0.3354232
-0.8256474 0.9114151 0.51254195 0.82556486 1.5555885 1.9798094 0.20007542 -1.3080068
-0.349701 0.2683087 0.9118582 -0.056772828 0.15152746 -1.802017 -0.5985097 1.0446957
0.7895944 0.98543036 1.3661792 0.20252271 -0.17671365 -0.84500414 1.484289 -0.43477774
0.4645471 -1.7266389 -1.5195894 -0.034065768 -0.5494945 -0.8018688 0.05724327 -0.16179627
0.22295474 -0.11835646 0.18327236 -0.041696396 0.41990435 -2.0639572 0.6450875 -2.3521469
-0.4680118 -1.5557505 -1.656324 1.2762847 0.081497535 -0.23413955 0.54366827 -1.4191225
-0.06472301 0.19503532 -0.045884784 0.2721683 -1.6011842 -2.0899484 -2.7554371 1.7010295
0.113612935 -0.5747215 0.96933883 0.76005906 0.36521003 -0.0846133 -3.3608367 -1.5660791
-0.10171921 -0.061139666 0.06707988 -0.17055735 1.0820494 -0.55717736 -1.373743 -1.350461
-0.5277652 0.50759447 -0.16622369 0.68939036 -1.631233 0.5339095 0.0006409199 0.74125224
1.2814705 0.295107 0.28538182 1.8059732 0.25283903 -5.610367 -4.3437014 -2.0616295
-0.9215991 -0.6223615 -0.72923934 0.4980694 -0.1331454 -0.32868424 0.045272693 -0.5901206
-0.38837793 0.9423628 -0.77240956 1.1225647 -0.8536664 1.0166204 -0.13802375 -0.09322084
-0.6957764 0.3401366 0.4583697 -0.4668881 0.828419 0.34681693 0.55309635 0.27956972
-0.033335224 -0.12240496 0.31205374 0.70505 -0.60131097 -0.1311882 -0.08172234 -1.488358
0.05414752 0.70359945 -1.699836 0.86964697 1.4258022 -1.2223442 0.02277995 -0.64505726
-0.85454386 0.19200921 0.1754888 -1.2802682 0.23797937 -0.919934 1.6584128 0.6338534
0.31356955 -0.019491771 -0.29399514 -0.1273225 -0.3524119 -0.356561 0.39246622 -0.18553528
0.05096763 -0.4996329 -0.026628776 0.018550025 -1.307984 -0.44371098 -1.3529811 0.5904561
0.28531018 0.20838255 0.46924245 -0.91109616 0.27707583 -0.89096254 0.7774508 0.20551804
1.0541811 -0.30092704 0.4950127 1.8315213 -0.35013977 -0.8674041 1.0186551 -1.4847596
-0.4138308 -0.5073936 -0.43986973 -0.115939945 2.1731064 -0.40366182 0.21947888 0.85810715
-0.8217194 -0.21261439 0.5912663 -1.4523234 -0.569906 0.15499395 1.2640343 -1.6076435
-0.20524514 0.62200457 -0.40206125 0.49954718 -0.94005924 0.5831006 0.8313811 -0.3902737
1.3078613 1.0677947 -0.5706726 -0.11354402 -1.3780919 0.9812311 0.9558965 1.199229
-0.2150531 -0.5259751 0.6972878 -0.8090474 -0.28233144 -0.8090524 -0.84901404 1.9710169
1.0958674 -0.57983434 0.25177684 -1.4316349 -0.32863393 -1.0320174 -1.4272571 0.66244245
0.4611514 -2.0028808 -4.301652 0.22603494 -0.19580011 -0.9799256 -1.0246742 0.45534652

conv_block3.0.bias f4 [32]
00000000: 04b3 62be 9165 15bf 4a41 31bf f1ff 85be
00000010: bd0d 3e3d 8b12 28be 3469 80bd 926a 84be
00000020: 0ca9 ae3e 48d8 cabe aabb 37be fc36 a2be
00000030: b43b bb3e 8b8b f9bc ad20 94be 2f86 a2be
00000040: 78d2 12bf 1f92 1dbf aaaf 8dbe 2508 a7bb
00000050: 0439 913d 3b74 edbd ca4c 98be f86c 10bf
00000060: 7c74 2fbf 83ce 09bf 1809 f0be c203 e0be
00000070: a604 2cbf bcc8 28be 1bce aebe 6fb5 14bf
-0.22138602 -0.58358103 -0.6924025 -0.2617183 0.04639982 -0.16413324 -0.06270066 -0.25862557
0.34113348 -0.39618134 -0.17942682 -0.31682575 0.36568987 -0.030462047 -0.2893118 -0.31743
-0.573524 -0.6155109 -0.27673084 -0.0050974065 0.07090953 -0.11594435 -0.29746085 -0.56416273
-0.68537116 -0.53830737 -0.46881938 -0.43752867 -0.6719459 -0.16482824 -0.3414162 -0.58089346
