trained_models/CNN/cnn_baseline_bn.pth (torch, 45771 bytes, 33 tensors)

conv1.weight f4 [8, 1, 22]
000000 4f 6c 0a 3f da 28 00 bf ef 5a d6 3e 01 95 0f bf
       0.54071516 -0.50062335 0.41866252 -0.56086737
000010 f6 31 6e 3f 84 6e 61 3f 81 f6 77 3f fa 44 b3 3f
       0.93044984 0.8805926 0.9686051 1.4005425
000020 c3 10 0d bf 24 ec 8f 3f 37 76 b0 be 39 fc 61 3d
       -0.551037 1.1243939 -0.3446519 0.05517218
000030 00 57 dd bd 8d 86 72 3d 9f 95 06 3f aa cb 6d be
       -0.108076096 0.05921035 0.52572054 -0.23222223
000040 91 7c f9 3e 34 45 aa bd be 92 83 be 10 e6 c8 bd
       0.4872785 -0.08313981 -0.25697893 -0.09809506
000050 1e 83 4e 3e 62 24 1a bf ee 5b c3 3d cf ac 0c 3e
       0.20167205 -0.60211766 0.095390186 0.13737796
000060 e8 4e 01 3f a2 3b 51 3f 89 d5 27 3f 06 fe 0d be
       0.50511026 0.8173162 0.65560204 -0.13866434
000070 6f 04 d3 be cd 9c 16 bf 5a 3e d2 bd 23 ce a8 bc
       -0.4121432 -0.5883301 -0.10265799 -0.020606106
000080 5b 29 ac 3f f5 83 76 3f 8f 6f 54 3f 40 39 6d be
       1.3450121 0.962951 0.82982725 -0.2316637
000090 ad aa 6d be 99 70 1f bf 53 19 84 3b 10 ed 4d bc
       -0.23209639 -0.62281185 0.004031339 -0.012568727
0000a0 76 73 88 be 50 1b 82 bf b9 94 a3 bf 6b 1e a2 3d
       -0.2665059 -1.0164585 -1.2779762 0.07915958
0000b0 2b 4a b9 bf a3 c6 b7 3e 59 e1 0e bf 40 9a cb 3e
       -1.4475759 0.35893735 -0.55812603 0.3976612
0000c0 32 07 9c 3f 98 6d af 3e f5 13 46 3f 1d de 34 bf
       1.2189696 0.342633 0.773742 -0.7065142
0000d0 11 44 c2 3e 40 a6 27 be f9 93 1f 3f ae 84 0d be
       0.37942556 -0.16372013 0.62335163 -0.13820145
0000e0 9c 60 15 3f a0 be b6 3d cf 14 bf bb 7c 95 8d 3e
       0.5835054 0.089230776 -0.005831338 0.2765311
0000f0 33 3e 79 bf f5 bc 05 bd 61 9d 07 3e 3c 74 c8 be
       -0.97360533 -0.032650907 0.13243629 -0.3915118
000100 48 5a 3f 3f 26 dc 91 be 5d 57 75 bd e7 27 f7 bd
       0.74747133 -0.28488272 -0.05989777 -0.12068158
000110 9c 53 d2 be df a8 ae bf 47 bd 5e bf 9e 2c 51 3e
       -0.41079414 -1.3645285 -0.87007564 0.20427176
000120 cd 0e 02 bf 33 7c 52 3e 2a 3b c1 3e 99 f2 88 3f
       -0.50803834 0.2055519 0.3774045 1.0699035
000130 6a 8c ba 3f 60 34 50 3f 2f 4d cb 3e 91 21 84 3e
       1.4574101 0.8132992 0.39707324 0.2580686
000140 0d e2 c8 3e 21 00 ed bd c9 e0 85 bd 5d f7 53 3e
       0.39234963 -0.1157229 -0.06537015 0.2069983
000150 92 4d 1a bf 88 b9 5d be f0 06 9b bd e6 58 09 bf
       -0.6027461 -0.21652806 -0.075696826 -0.53651273
000160 e6 8c 2a be 67 ab 94 bf 2a 8a f2 be c6 74 e4 be
       -0.16655311 -1.1614808 -0.47371036 -0.4462034
000170 bb d3 35 bf b6 a6 b0 3f 92 b8 e3 be de 4d fc 3e
       -0.710262 1.3800876 -0.44476753 0.49278158
000180 bf 36 68 bf 62 66 b2 3e df bd 86 be 13 8e 97 3e
       -0.90708536 0.34843737 -0.26316735 0.29600582
000190 ac 14 98 3e a1 ae 73 bf e9 3c 35 3f d4 b7 4e be
       0.2970327 -0.9518834 0.70796067 -0.20187312
0001a0 8a bf 2a 3f d4 a5 f1 3e 36 7e 86 be d7 e0 d9 3c
       0.66698515 0.4719683 -0.26268166 0.02659647
0001b0 3b c1 11 3e 6f 54 81 3d c7 b3 83 be 28 38 72 3f
       0.14233868 0.063149326 -0.25723097 0.9461694
0001c0 67 26 34 3e 8f ae 57 3f 4d 2a 85 3d 6a 36 92 3f
       0.17592774 0.8425073 0.06502209 1.1422856
0001d0 e8 3e ad bf 2d bc 78 3e 1c 15 bb bf a3 c7 3f 3e
       -1.3534822 0.24290533 -1.4615817 0.18728499
0001e0 34 05 85 be 34 06 e5 be ef b3 54 3e 2c 99 9c be
       -0.25980532 -0.44731295 0.20771764 -0.3058561
0001f0 00 45 23 3f 39 7c fb bd 6c 74 ad 3d 26 f3 4b be
       0.6377716 -0.12279553 0.08469471 -0.19916973
000200 93 d6 00 3f 34 54 b1 be ec 10 89 3c e7 85 a7 3e
       0.50327414 -0.34634554 0.016731702 0.32719347
000210 d1 8d f0 3e c9 03 d7 be 82 df a4 3d 67 93 dc be
       0.46983197 -0.41995075 0.08050443 -0.4308121
000220 bd 4f 8a 3d e5 a3 c1 bf b9 f2 19 bf eb 0c b3 bf
       0.0675349 -1.5128142 -0.6013599 -1.3988317
000230 1a d7 08 bf e7 d2 3a be ba 7a 0d be 71 4b 29 3f
       -0.5345322 -0.18244515 -0.13816348 0.6613074
000240 09 20 0b 3f 08 ce 32 3f 7c 07 aa 3e 63 af de 3e
       0.54345757 0.6984563 0.33208835 0.43493184
000250 2d d6 5d 3e 43 c9 7b 3f 80 ae a8 be 88 03 22 3f
       0.21663733 0.98353976 -0.32945633 0.6328664
000260 95 9b 88 be 7f 8c d7 bd 8f 98 a5 3d 61 17 f9 be
       -0.266812 -0.105248444 0.08085739 -0.4865065
000270 1b a7 7c 3f 2d a6 8e bf e7 db 5b 3f be 32 8d 3e
       0.9869248 -1.1144463 0.8588242 0.27577776
000280 51 54 66 be 32 fd 0f bf 50 e7 8b bf 61 1e 3e bf
       -0.22493102 -0.5624572 -1.0929966 -0.74265105
000290 91 b3 c1 bd df b4 ea 3e a2 33 85 bd b6 17 0c 3f
       -0.09458078 0.4584112 -0.06503989 0.5472368
0002a0 54 64 27 bf b3 c5 73 3f c3 12 05 3e e8 4a 0a 3f
       -0.65387464 0.9522354 0.12995438 0.5402055
0002b0 a8 3d e7 be 6e 92 ad be 12 c2 b7 bd 3c 0f 5c 3d
       -0.45164227 -0.3390078 -0.08972563 0.053725466

conv1.bias f4 [8]
000000 a8 22 71 3f af b8 50 3e 6d 0b 45 bf ed a0 c8 be
       0.94193506 0.20382951 -0.7697056 -0.39185277
000010 01 34 e1 3e a9 7d 25 3f 0a fa 0e bf 39 1b 6c 3f
       0.43984988 0.6464487 -0.5585028 0.9222904

conv2.weight f4 [16, 8, 3]
000000 51 87 a4 bf b3 b8 53 3e 82 df a4 be 0f d8 a2 bf
       -1.2853795 0.20675926 -0.32201773 -1.2722186
000010 a0 9c bf 3e bd 55 ff be 3c cd 51 3f e1 f3 19 3e
       0.37424183 -0.498701 0.8195379 0.15034439
000020 2b 43 95 3f 7c b2 b8 3e 27 f3 55 be 2f d0 cb 3b
       1.1661123 0.36073673 -0.20893537 0.006219886
000030 cd 0f 2a bf 27 d5 64 3f 4e b4 f0 3d ab 10 da 3d
       -0.6643036 0.89387745 0.117531404 0.106477104
000040 29 16 bd be cd 89 9c be 28 ab 5c bf 64 be 1d bf
       -0.3693097 -0.30573884 -0.86198664 -0.6161864
000050 2a c3 28 bf 7a 5f 53 be 7c 3e 51 3e f8 34 6e 3e
       -0.65922797 -0.2064189 0.20433992 0.23262393
000060 be dd 8b bd eb de bb 3d 35 d2 08 3f 01 a7 97 be
       -0.06829403 0.091733776 0.5344575 -0.296196
000070 8b 4d 0f be 62 90 b1 be 9f f2 cb be 56 04 0d 3f
       -0.13994424 -0.34680468 -0.39833543 0.5508474
000080 8e b7 27 bc 8c ad 76 bf 63 50 7a bf ec 5d 0a 3e
       -0.010236634 -0.9635856 -0.9777891 0.13512391
000090 53 e6 24 bf 45 12 04 3f 07 de 03 3f 82 c2 52 bf
       -0.64413947 0.5159038 0.5151066 -0.82328045
0000a0 c8 4a b3 3e b3 96 19 3e 25 3f ad 3f 55 bc 8d be
       0.3501799 0.14998893 1.3534895 -0.27682748
0000b0 ad 00 30 bf 67 84 5b 3f e6 77 2e be c4 74 1e bf
       -0.6875103 0.85748905 -0.17037925 -0.6189692
0000c0 64 47 05 3f 7e f5 ca bd fe 39 97 3e a0 d7 e6 3e
       0.5206206 -0.09910105 0.29536432 0.45086384
0000d0 e6 f1 95 bd 82 4e ce 3e bb f3 8c 3d ca 40 d2 3e
       -0.07321529 0.40294272 0.068824254 0.41065055
0000e0 76 97 1e bf 46 f1 44 bf ae e9 a4 3c 97 82 85 3f
       -0.6194986 -0.76930654 0.020130958 1.0430478
0000f0 b3 c8 1c bf 08 84 19 3f ff 64 a6 3e c0 19 76 bf
       -0.6124374 0.5996709 0.3249893 -0.9613304
000100 70 39 0f bf 6a b1 57 3e 74 1c 38 3f 91 20 9b bf
       -0.5594702 0.21063772 0.71918416 -1.2119313
000110 3a f4 25 3f 26 ad 12 3f ea 67 3d be 22 6b b7 bd
       0.64825785 0.57295454 -0.18496671 -0.08955981
000120 53 e5 d4 be d6 d5 ac 3f 83 08 39 bf 5e 04 2d bf
       -0.4158121 1.3502758 -0.7227861 -0.6758479
000130 31 aa eb be 7a 72 7b 3e 0b a3 17 3e d1 30 e7 be
       -0.46028283 0.24555388 0.1480829 -0.4515443
000140 3f d2 a9 3e fa 68 3f bf a4 21 9b be 16 23 5e bd
       0.33168218 -0.74769557 -0.30299103 -0.05423268
000150 41 d9 06 be a4 99 2e bf 36 e2 13 bf 52 96 34 bf
       -0.13168813 -0.68203187 -0.57767045 -0.7054187
000160 01 65 9e bf d5 04 b3 be 07 1b 3b bf c5 01 4f 3e
       -1.2374574 -0.34964624 -0.73088115 0.20215519
000170 d7 80 3c be df 3b 89 3f f2 d0 6e 3e f0 07 8e be
       -0.18408523 1.0721396 0.23321894 -0.2774043
000180 30 2b 15 bf 9d 91 de be 88 93 65 3f 95 84 6d 3f
       -0.58269024 -0.4347047 0.8967824 0.9278043
000190 7b c4 3d bf 9c 33 0b 3e 43 02 dd 3b d1 17 69 3f
       -0.7412793 0.13593906 0.0067446544 0.91051966
0001a0 bc fd 3c bf a0 5f 4b 3d 2a 21 34 3f cb e2 35 3f
       -0.7382467 0.049651742 0.70363104 0.71049184
0001b0 5a 39 2c be 74 0e 6c be 0e 39 dc bc 8b 65 c7 bf
       -0.16818753 -0.23052388 -0.026882675 -1.5577863
0001c0 35 55 24 bf fb 9e dc 3e 4d d0 8a bf 73 9d 38 bd
       -0.64192516 0.43090042 -1.0844818 -0.04507203
0001d0 30 f1 08 3e 9b 5c ea be be 58 7c 3e 2b 93 28 3e
       0.13373256 -0.45773777 0.24643227 0.1646239
0001e0 c3 94 84 3e 4f b8 a3 3e e1 5e 1d bf fc 31 14 bf
       0.25894746 0.31976554 -0.614729 -0.5788877
0001f0 35 04 5a 3c ca 96 6c 3f 18 80 88 3f ba 30 2a bc
       0.013306667 0.92417586 1.0664091 -0.010387594
000200 e7 1e 2e be 9e 9b 7f bf 07 d1 b3 bc 6a 2d d9 bc
       -0.17003976 -0.9984683 -0.021950258 -0.026510913
000210 b8 19 52 bd d8 22 78 3d 90 fe c1 be bd 66 3b 3f
       -0.05129406 0.060580105 -0.37889528 0.7320364
000220 ab df df be c1 d7 db 3f e8 c6 09 3f 25 a7 4d 3e
       -0.43725333 1.7175218 0.5381913 0.20083292
000230 76 7b 0f 3f d6 49 04 bf a6 d1 be 3e ed fb 86 3f
       0.5604776 -0.51675165 0.37269324 1.0545632
000240 a0 d6 91 bb 6f d5 0d 3f ef 73 ef be d1 aa 50 bf
       -0.004450634 0.554038 -0.46768138 -0.81510645
000250 3e 10 26 bf 68 31 1a 3f 9a ed 19 bf 96 8f 24 bf
       -0.64868534 0.6023164 -0.60128176 -0.64281595
000260 d8 7d 24 3e 03 bb ec be 58 19 38 3f b1 bf 97 3e
       0.1606363 -0.4623643 0.7191367 0.29638436
000270 ee aa aa 3e d9 f7 3b bf 8f 3b e8 be 4f 21 9c 3f
       0.33333534 -0.7342506 -0.4535794 1.2197665
000280 93 57 26 be 7a 77 61 bf 67 9c 9d 3e 77 fb ab 3e
       -0.16244344 -0.8807293 0.30783388 0.3359029
000290 ca 22 b1 bd 3a b8 d4 be c8 32 bc 3f 26 a2 e3 be
       -0.086492136 -0.41546804 1.4702997 -0.44459647
0002a0 25 76 75 3f 03 65 20 bf 88 09 09 3f d1 45 fb 3c
       0.958834 -0.6265413 0.5353017 0.03067294
0002b0 69 51 2f be df cb 02 3e fa 29 e0 bd 3c 0f 20 bf
       -0.171209 0.12773083 -0.109455064 -0.62523246
0002c0 5c 07 ca 3e fb a1 28 3f f3 b6 d9 3e f2 ae 30 be
       0.3945874 0.6587216 0.42522392 -0.17254236
0002d0 a8 7c 12 3f 4c 85 42 bf 42 81 5a be 7c 89 c2 bf
       0.5722146 -0.75984645 -0.2133837 -1.5198207
0002e0 c1 bd 51 bf 72 fd c1 3e 9a ef 2d be b4 e6 11 3f
       -0.81930166 0.37888676 -0.16985932 0.5699265
0002f0 b3 a1 67 3f d9 2c 84 3f 88 be cf 3e ee 71 46 be
       0.9048111 1.0326186 0.4057505 -0.19379398
000300 03 0d 63 3b e3 74 94 3e a5 05 bf be 57 e1 f9 be
       0.0034645207 0.28995427 -0.37308994 -0.48804733
000310 1f a3 94 be bb 9d c8 bd fd a6 db 3e 41 27 33 3f
       -0.29030702 -0.0979571 0.4290084 0.6998177
000320 11 90 44 be 34 52 da be f6 55 65 3f da a6 c1 be
       -0.19195582 -0.4264084 0.8958429 -0.3782261
000330 ac 9d cc be c4 c5 3c be de d3 ab be 1c cf 08 bf
       -0.39964044 -0.18434817 -0.3356008 -0.53441024
000340 c5 86 dc bf ba 82 52 bf 94 90 0f 3f 75 53 77 bd
       -1.7228628 -0.8223072 0.56079984 -0.060382325
000350 16 5a 34 3f 55 e2 12 3f c4 ee 7f 3f 31 ea d0 3e
       0.7044996 0.57376605 0.999737 0.40803674
000360 ad a3 19 bf c4 7a db be d5 a8 9b 3f e1 f0 dc 3e
       -0.60015374 -0.428671 1.2160898 0.43152526
000370 a3 99 45 3e 61 e5 e0 3e 74 58 8a bf 98 66 14 3f
       0.19296889 0.43925002 -1.0808244 0.57969046
000380 3b 3c 1d 3f ec 59 1c 3f 25 12 98 3e c1 1e ce be
       0.6142003 0.6107471 0.29701343 -0.40257838
000390 a1 ea bd 3e c1 d7 00 3d 1b f7 20 bf 82 b4 c8 be
       0.3709307 0.03145576 -0.62877053 -0.39200217
0003a0 1f 70 99 3e 8a d9 92 3e 46 eb 5f 3f 73 ae 9e 3f
       0.29968354 0.28681594 0.87468374 1.2396988
0003b0 b9 0a 4a bf 7b e9 c1 3d c8 79 d3 be ff 4a dd 3e
       -0.7892261 0.09468361 -0.4130385 0.4322128
0003c0 d7 35 8d 3f de ea 89 3c ec 98 b8 bd 71 10 da 3e
       1.1032056 0.016835626 -0.090135425 0.4259067
0003d0 c0 14 e9 be cc 93 5e be 9c 6a 68 bf 22 96 ea be
       -0.45523643 -0.21736068 -0.90787673 -0.45817667
0003e0 3b e8 92 be 23 01 c2 3e 3b 67 64 bf 9f 55 89 3e
       -0.28692803 0.37891492 -0.8922002 0.26823136
0003f0 e5 1f 2b 3f e1 cc b6 be 9d dd d2 3e 7d 68 d8 3e
       0.6684554 -0.35703185 0.41184703 0.42267218

conv2.bias f4 [16]
000000 cb 53 66 3f 4f ed 36 bf 07 2a ca be 49 c3 80 3f
       0.8997161 -0.71455854 -0.3948519 1.0059596
000010 74 c1 4b 3e c3 40 d1 bf ed 9c 05 3f 41 67 04 bf
       0.19898015 -1.6347889 0.52192575 -0.5172005
000020 56 2c 11 3f 64 fb 0b 3e 74 2f aa bf 0f 22 3f 3f
       0.56708276 0.13670117 -1.3295732 0.74661344
000030 bf 7d 5c 3f a1 66 ec 3e 51 41 0d bf ad ca d1 3e
       0.86129373 0.4617205 -0.5517779 0.40974942

conv3.weight f4 [32, 16, 3]
000000 0e e2 b8 3f a9 fd 81 bf 2c 15 95 3e f1 49 12 bf
       1.4443986 -1.0155536 0.29117715 -0.57144076
000010 0a f7 6f be 9b 1b 64 3e 56 a9 56 bd 27 13 ac 3e
       -0.23434082 0.22276156 -0.052407585 0.33608362
000020 cb ce f1 3e 68 12 30 3f e0 32 83 3e 06 2f 29 3c
       0.47228083 0.68778086 0.25624752 0.010326153
000030 74 bc de 3e 52 4e fb 3d 4d ec b1 bd 79 c6 93 3e
       0.43503153 0.12270798 -0.08687649 0.2886236
000040 fb 4c 8d be d9 ca fc bd d1 93 27 3e e7 ac a3 3d
       -0.27597794 -0.123433776 0.16364981 0.07991963
000050 eb 49 81 3e b9 ad f6 3e 8e 06 5c 3f f7 a7 da 3d
       0.25251707 0.48179415 0.859475 0.10676568
000060 96 34 23 bf ec 0c c8 bf e8 bc b8 3e ab 46 12 3e
       -0.63752115 -1.5628943 0.36081624 0.1428477
000070 9c 5a 5b 3e f8 53 4b bf 8b cb ea 3e aa 64 4a bf
       0.21421283 -0.79425 0.45858416 -0.7905985
000080 fa da 8d 3d b6 e8 a9 3d e7 8d 0b bf 58 06 64 bf
       0.06926532 0.08296339 -0.545134 -0.8907218
000090 39 f4 3a 3f 34 4d b2 be 88 a4 0f 3e f9 44 1a 3e
       0.73028904 -0.34824526 0.14027607 0.15065373
0000a0 db ce c1 bf 5f 03 a6 bf ee 74 a7 be bd c1 5d 3f
       -1.5141252 -1.2969779 -0.32706398 0.86623746
0000b0 bd f0 98 be 94 1a 0b bf 5a 7a 92 3f 64 dd 92 bc
       -0.2987117 -0.5433743 1.1443589 -0.017927833
0000c0 a9 ed c8 be 4e ad ab be d2 11 33 be dc 3d e0 3e
       -0.3924382 -0.33530658 -0.17487267 0.43797195
0000d0 83 9e 7d 3f 2b 7f 1c bf a9 82 f8 3f 0b c2 22 bf
       0.99069995 -0.6113154 1.9414874 -0.63577336
0000e0 da 8d 1a bf 4c 6f 46 3f b4 41 9b 3e 48 77 cb be
       -0.603727 0.77513576 0.30323565 -0.39739442
0000f0 1d 6d 7a bf 76 93 d9 3d 26 e7 84 3d 60 a8 e9 be
       -0.97822744 0.10623829 0.064894006 -0.45636272
000100 20 a5 d9 3e 1a 61 69 3b 81 41 9b 3d 06 af f2 3e
       0.42508793 0.0035610856 0.07580853 0.47399157
000110 99 be 5f 3f 71 72 95 be 8b e4 1d 3e 38 73 5b 3e
       0.87400204 -0.29188874 0.15419213 0.21430671
000120 7b 58 2a 3f 7b 84 c7 be 5e 05 8f 3e c6 e9 9a bf
       0.6654126 -0.38968262 0.27933782 -1.2102592
000130 cd 3a b9 be 1f eb ad be 56 63 28 3f f3 4e 89 bf
       -0.36177674 -0.33968446 0.65776575 -1.0727218
000140 35 a0 2d bf 1a 40 2d bf 50 67 be be fc db 0e 3e
       -0.6782258 -0.67675936 -0.37188196 0.13951105
000150 7b 8a 12 3e db 8a 4a 3f 4c 85 7c 39 81 e3 a1 3f
       0.14310639 0.79118127 0.0002408225 1.2647554
000160 83 53 ee bc 47 4f dd 3c 43 66 30 bf c5 c4 f9 be
       -0.029092556 0.027015341 -0.6890604 -0.48782936
000170 59 d0 30 be 5c 38 55 bf 62 d0 07 be 52 e7 c7 3e
       -0.17266978 -0.8328912 -0.13263085 0.3904367
000180 4c fc 99 be 9f bd 28 be 15 80 65 3f c3 a3 75 bf
       -0.300753 -0.16478585 0.8964856 -0.95953006
000190 0a 58 1f 3f 54 6f 50 3e c3 d8 21 3d 0a 52 15 bf
       0.6224371 0.20354968 0.03951336 -0.58328307
0001a0 ad f8 0f bc ab 4b 9c bf 89 05 63 3f 01 3b 0e 3e
       -0.008787316 -1.2210592 0.8868032 0.13889696
0001b0 1e 91 22 3f c4 d5 0f bf e0 43 ef 3e 35 a1 00 3e
       0.6350268 -0.56185555 0.46731472 0.12561496
0001c0 c3 c9 c5 bd 7e 9d ca be dc 4e 86 3f ca 77 6b bd
       -0.096576236 -0.39573282 1.0492816 -0.057487287
0001d0 8a 1f 6e bf a1 3f 88 3d f3 ec 5b bf 62 7e 08 3f
       -0.93016875 0.06652761 -0.8590843 0.53317845
0001e0 04 a7 0d c0 8b b9 04 bc 01 bf 6d 3e be 43 67 3e
       -2.2133188 -0.0081008775 0.23217393 0.22584435
0001f0 8b 3c 91 be 66 fc 48 bd a4 40 02 3e fb d6 24 bf
       -0.28366503 -0.04906883 0.12719971 -0.64390534
000200 84 d7 0c bf 9a 9d 44 3f b2 a6 08 be eb 4e 91 3d
       -0.5501635 0.7680298 -0.13344839 0.070951305
000210 67 5e d4 3e 68 0f 0f bd de 4c 78 3f 84 91 20 3f
       0.41478273 -0.034926802 0.9699229 0.6272204
000220 5e d4 89 bf 52 e4 48 be bc ae ed be 8d e0 6b bf
       -1.0767934 -0.19618347 -0.46422374 -0.9213951
000230 95 af 33 be e5 98 c7 be 8e 7c 78 be 7b d2 8e 3e
       -0.17547448 -0.38983837 -0.24266264 0.2789496
000240 ec 11 4b 3d 3f a8 fd be cd 26 f4 be 04 d1 4f bf
       0.04957764 -0.49542424 -0.47685853 -0.8117831
000250 64 7d b2 bf 92 e7 c9 be 5c f5 31 3f e7 25 5e 3f
       -1.3944516 -0.39434487 0.69515014 0.86776584
000260 7d e5 a2 be f5 37 0b 3d 1c 0b 76 3e 8c 4a 16 3f
       -0.3181571 0.03398891 0.24027675 0.587075
000270 3d 79 83 bf fe 71 ba bf 7b 30 9a be 23 a8 8a bf
       -1.0271374 -1.4566038 -0.30115113 -1.0832561
000280 1a 54 45 be 91 5e ec be 5f 9f 06 bf a9 da c8 be
       -0.19270363 -0.46165898 -0.5258693 -0.39229324
000290 26 b0 11 bf 72 9c 50 bf 5c 3b fd bd 1d a1 86 bc
       -0.56909406 -0.81488717 -0.123648375 -0.016434247
0002a0 15 5b 62 3d 04 93 f6 bd 74 d0 9d be 41 6c 8f 3f
       0.055262644 -0.1203976 -0.308231 1.1204911
0002b0 35 8e 70 3f 0b 18 71 3e c8 73 34 bf c7 e6 94 3d
       0.9396699 0.23544328 -0.7048917 0.0727058
0002c0 e5 82 1f 3e 65 3a 00 3f b3 4e ef bd d3 a0 50 3e
       0.15577276 0.50089103 -0.116849326 0.2037385
0002d0 1a fa a5 3e c6 40 ed be e0 98 e9 be 6d 55 30 bd
       0.32417375 -0.4633848 -0.45624447 -0.04305022
0002e0 ca 9e e0 bd 86 b9 16 3f fe 17 d0 3e bb 07 f3 3e
       -0.109677866 0.58876836 0.40643305 0.47466835
0002f0 c4 a3 29 3e fa fd 41 3f c7 f3 05 bf 43 86 68 be
       0.16566378 0.7577816 -0.523251 -0.22707467
000300 df ea 60 3f b9 8f 4f 3e a7 59 2b bf b5 ea ec 3e
       0.87858385 0.2026967 -0.66933674 0.46272817
000310 9c e7 43 3f 0e 63 b2 3d 05 58 fe 3e d3 7f 23 3e
       0.7652528 0.087102994 0.4967653 0.1596673
000320 00 4f e5 be d5 71 e8 3e 51 06 a9 bc 2d e7 b8 3d
       -0.44786835 0.45399347 -0.020632895 0.09028468
000330 5c 77 8f 3f a2 8e 9c 3e ed 8a 0f 3f 3d fd 86 bf
       1.12083 0.3057757 0.5607136 -1.0546032
000340 11 e2 93 bf 42 5c 97 3f de 59 20 3f 17 c2 c8 3e
       -1.1553365 1.182503 0.62637126 0.3921058
000350 a3 2f 05 3f e2 18 c0 be 6f dd e8 3e e4 a6 f1 3c
       0.5202581 -0.37518984 0.4548144 0.029498525
000360 1b 14 1b 3f 96 44 97 3d fb 2f 6e 3e fc 12 77 be
       0.60577554 0.073861286 0.2326049 -0.24128336
000370 b3 be 1f 3f 3d 7b 7f 3e 7f f7 7d be 67 04 10 3f
       0.6240036 0.24949355 -0.24801444 0.5625672
000380 ca f3 09 3f 4e d7 d0 be 39 5b 9a bf 45 9f 2d 3f
       0.5388762 -0.40789264 -1.2059089 0.6782115
000390 0f 68 93 bf 6e 7b 13 be c2 34 5a be c0 4e 9f 3f
       -1.1516131 -0.14402553 -0.21309188 1.2445908
0003a0 c7 ed 79 3f b4 46 85 3f 4a fd 80 3e cf 11 41 bf
       0.97628444 1.0412202 0.25193244 -0.754178
0003b0 9a 96 ba 3e 1e df 5a be e1 0a 3d 3f 24 25 f5 bd
       0.36443025 -0.21374175 0.73844725 -0.11969975
0003c0 77 c5 8f 3f 1d 36 cd 3f af 02 7c 3e ca 7b fb bd
       1.1232136 1.6032139 0.24610399 -0.1227947
0003d0 6a 9a f9 3e ae 6f 09 3f ee bb ca 3e a5 4a 32 3f
       0.4875062 0.53686035 0.39596504 0.6964515
0003e0 1c d9 7d 3e 4c 90 ac 3d f1 b4 18 3e 46 61 5b 3e
       0.24789852 0.0842596 0.14912774 0.21423826
0003f0 d6 99 7e 3f ee 7f 20 3f 44 f8 af 3e 08 6f 06 3f
       0.99453485 0.62695205 0.343691 0.5251317

conv3.bias f4 [32]
000000 45 17 29 be 3e 23 8c bf 9c 9f 39 bf 79 5c 18 3f
       -0.16512783 -1.0948255 -0.7250917 0.595161
000010 72 e7 7e bf 85 4b c7 3e 73 c7 19 3f 1d 6b 92 3e
       -0.9957191 0.38924804 0.6006996 0.28597346
000020 ed 05 06 3f e6 a1 69 be d4 80 44 3c bd 1c bb bf
       0.5235279 -0.22815666 0.011993606 -1.4618145
000030 8d ba 61 bf ae 5a 70 3e a6 e6 3e bf a2 b7 e9 3d
       -0.8817528 0.23472092 -0.7457069 0.11411978
000040 03 92 71 bd 46 37 ac be 61 d0 1b bf 67 8d fb 3e
       -0.05897714 -0.3363592 -0.60864836 0.4913132
000050 03 20 26 3f 8f 17 f5 3c fe f0 db 3e f2 eb 00 3f
       0.64892596 0.02991846 0.429573 0.50360024
000060 94 43 d5 3f 14 3a 9e bf fc e5 53 3f a4 2d 1a bf
       1.6661248 -1.2361474 0.82772803 -0.6022589
000070 c5 dd 2f bd 8e 7c 04 3f 71 ad 86 3e 4b 7f d4 3e
       -0.042936105 0.51752555 0.263042 0.41503367

conv4.weight f4 [64, 32, 3]
000000 16 8a 9a bf c6 0a 9e 3c 2a 5f 3a be 00 ea 5a bf
       -1.207339 0.019292247 -0.18200365 -0.85513306
000010 17 5b 49 3f 20 fb 34 bf 7c c3 b6 3e a3 ca c4 3e
       0.7865462 -0.70695686 0.35696018 0.3843585
000020 9b d7 31 3e c8 13 ae bf e1 16 d3 bf 53 7f 7e bf
       0.17367403 -1.3599787 -1.6491357 -0.9941303
000030 13 83 3b 3f 4e a1 e7 3d 6e 3c 9a 3d 8a 17 13 bf
       0.7324688 0.11310063 0.07531057 -0.5745779
000040 b3 64 78 3e e1 36 f7 bd 1a 49 4f bf 57 57 8f bf
       0.24257164 -0.12071014 -0.8097092 -1.1198529
000050 26 94 6d 3e f7 a5 7d 3f d6 aa 15 bf 60 ca 27 be
       0.23201045 0.9908137 -0.584638 -0.16385794
000060 10 93 71 be c0 33 2e 3f 68 1d 65 3e 47 69 91 be
       -0.23591256 0.68047714 0.22374499 -0.28400633
000070 95 ae 21 3f 52 cb aa 3e af 2c e9 3f 1c 23 04 bf
       0.63157016 0.33358246 1.8216761 -0.5161607
000080 35 13 47 3f a8 58 82 be f1 3c b2 be e5 0b a8 3c
       0.7776368 -0.25458264 -0.3481212 0.020513484
000090 59 39 98 bf 33 56 7a 3f c7 de 1e 3f ac e5 0b bf
       -1.1892501 0.9778778 0.6205868 -0.54647326
0000a0 f6 39 77 be f9 2a ac 3e 12 6c 9a 3f 3d 9e 20 be
       -0.24143204 0.33626536 1.206423 -0.15685363
0000b0 1d 28 7d 3e ce a9 56 3f 9a dd 6d be 66 19 eb bd
       0.24722333 0.8385285 -0.23229066 -0.11479454
0000c0 85 75 8a 3e 6f 0d a3 3e 79 a8 46 3d 35 65 55 3e
       0.27042785 0.31846187 0.04850051 0.20839389
0000d0 7c 3d 34 3e e7 66 cb bd 6a ba 2a 3f 6f 18 b7 be
       0.1760158 -0.099317364 0.66690695 -0.3576083
0000e0 2d 23 88 bb 77 36 ad 3e 80 45 f6 3e 36 42 ce bd
       -0.004154584 0.33830616 0.480999 -0.100712225
0000f0 c4 92 bd 3e da cb 1f bf 6b ee be 3e 13 5b d9 be
       0.37026036 -0.6242043 0.37291273 -0.42452297
000100 31 87 3f bc 10 bc a7 be 09 36 b2 be 37 19 23 bf
       -0.011689947 -0.32760668 -0.3480685 -0.6371035
000110 d0 f5 43 3e 2e 77 db be 36 f8 cd be d4 f4 73 3e
       0.19136739 -0.42864364 -0.40228432 0.23823863
000120 3e 86 37 bf 2f 4e 43 bf af d1 0e 3c 89 34 c3 bf
       -0.7168921 -0.76291174 0.008716985 -1.5250407
000130 48 10 d3 3f 7a bb 98 bf 2e 32 75 3f 17 d6 b4 3e
       1.6489344 -1.1932213 0.95779693 0.35319588
000140 0d c7 fe be 79 b7 4c 3f c3 4d e0 3e 2c 58 3d bd
       -0.4976124 0.7996746 0.43809327 -0.046226665
000150 6e 81 7a 3f 2f 6d 2a 3f d0 99 f7 3e 8d 51 a6 bf
       0.97853744 0.6657285 0.48359537 -1.2993637
000160 41 51 82 3f ff fe eb 3e d1 6a 90 3f 45 c3 e9 3e
       1.0181047 0.46092984 1.1282598 0.4565679
000170 a7 58 13 bf 65 ba fe 3e 0b c2 54 be 26 64 df bd
       -0.5755715 0.49751583 -0.20777147 -0.10907774
000180 d6 4d 82 3d 01 bb 01 bf fa 87 e0 bd d1 20 1a 3f
       0.06362502 -0.5067597 -0.109634355 0.60206324
000190 03 9e 24 3f 05 0b 4f bf ed de 47 bf cf b9 3d be
       0.64303607 -0.8087619 -0.7807453 -0.18527912
0001a0 fe 39 09 be 5d 2e ff be ef 32 8f be 8e aa 27 bf
       -0.13401029 -0.4984006 -0.27968547 -0.6549462
0001b0 60 45 68 be 58 0c a1 bd 5f b3 2e 3e 1c 73 65 be
       -0.22682714 -0.078636825 0.17060612 -0.22407192
0001c0 b9 11 9a be 1d d4 ed be fa ae 65 3f 11 93 00 3f
       -0.30091646 -0.46450892 0.8972012 0.50224406
0001d0 7a 11 d3 3d 57 5a f3 3d e8 16 dd bf b3 70 02 3f
       0.10306068 0.11882465 -1.7272615 0.50953215
0001e0 c4 82 a4 3d c5 db c1 be 31 a5 d8 be 87 48 79 3e
       0.08032754 -0.37862983 -0.4231353 0.24344073
0001f0 12 c5 26 bf b8 20 b3 3d 7c c2 22 bf 03 19 bc 3e
       -0.65144455 0.08746475 -0.6357801 0.36737832
000200 f1 a1 d4 3d ec a0 c2 be b1 90 c9 be d7 d9 99 bc
       0.1038245 -0.380134 -0.39368203 -0.018780632
000210 06 93 c5 3f ff 08 9a 3e 8c 36 f6 3e f3 50 83 3d
       1.5435493 0.30084988 0.4808849 0.06411924
000220 14 df bf 3e 1b 0a 98 bc c9 db 20 3e ab 89 dc 3e
       0.37474883 -0.018559506 0.15708841 0.43073782
000230 4a e2 4d 3d 2f 89 a4 be 7a 52 61 be 70 34 fb 3d
       0.050264634 -0.32135913 -0.22004119 0.12265861
000240 79 12 2d bd 79 e9 b4 3d df b8 ab 3e c0 32 ae be
       -0.042253945 0.08833594 0.33539483 -0.34023094
000250 50 29 99 3e be 60 8e be f6 84 3a bf 0b 2d 69 3e
       0.2991433 -0.27808183 -0.7285913 0.22771089
000260 3a 4c 4b 3e 7d 71 bd 3f 4f d5 25 3f 22 65 e3 3d
       0.19853297 1.4800259 0.6477861 0.11103274
000270 4a 92 b7 bc f3 6a 5d bd f3 53 39 be f7 9a 62 be
       -0.022408623 -0.054057073 -0.1809843 -0.22129427
000280 05 f1 e7 be 94 2a 0b 3e 7e 92 ce bf eb 7a ae bf
       -0.4530107 0.13590461 -1.6138456 -1.3631262
000290 90 6d 9b bf 6c c5 7d 3f dd 2f b4 3e 81 e0 55 3e
       -1.2142811 0.99129367 0.35192767 0.20886423
0002a0 de fa f3 bd 18 01 06 bf 1a 0c 3a bf 5d fa a3 c0
       -0.119130835 -0.5234542 -0.72674716 -5.124312
0002b0 43 89 b2 3e 05 a1 41 c0 7b 2d 19 bf 07 87 85 be
       0.34870347 -3.0254529 -0.5983502 -0.2607958
0002c0 b2 83 22 3e d7 76 68 bf b3 7d 22 3d 38 5d 96 be
       0.1587055 -0.90806335 0.039670657 -0.29367995
0002d0 20 d9 2d 3c a8 36 aa be bc c1 d5 bc 5b b8 81 bf
       0.010610849 -0.33244824 -0.026093356 -1.0134386
0002e0 64 02 e7 3e ef 34 c2 3d 5d f2 6a bf 8d 2d 88 bf
       0.4511901 0.094827525 -0.91776067 -1.0638901
0002f0 84 bb 82 3e 31 e6 5c 3f 21 5e c4 3e 1b 43 91 be
       0.25533688 0.86288744 0.38353065 -0.2837151
000300 8f 93 6a 3e 45 6c 7e be 97 00 b3 3d 34 64 92 3f
       0.22907852 -0.24845989 0.08740347 1.143683
000310 57 28 cb be 93 c1 e3 3e 8e c3 40 bf 2c 75 37 bd
       -0.39679214 0.44483623 -0.7529839 -0.04478948
000320 f1 62 ae 3e 4e c9 11 bf 6b d8 40 bf 0e 76 89 bf
       0.3405986 -0.5694779 -0.7533023 -1.0739152
000330 3b a1 9b 3e b5 f6 7b be 46 35 27 3e 11 58 74 bd
       0.30396447 -0.2460583 0.16328916 -0.0596543
000340 79 77 f6 be e3 12 0c be 23 b5 b3 3e 94 54 03 3d
       -0.48138025 -0.1367908 0.35099134 0.03206308
000350 6f 50 44 3e d0 b9 2a 3f 8f 08 1c 3f 3c 93 17 3e
       0.19171308 0.6668978 0.6095056 0.14802259
000360 e2 2a 8b be 7e 12 f5 3c 78 40 a5 3d d4 11 d5 be
       -0.27181154 0.029916044 0.08068937 -0.41615164
000370 83 b7 57 3e 3d 3a 20 bd 45 44 f8 3e f2 a1 2a be
       0.21066098 -0.03911804 0.48489586 -0.1666334
000380 8c 7a 97 3d a1 cb cd be 9d ca 60 3d 4f af 4b 3d
       0.07396421 -0.4019442 0.054880727 0.049727734
000390 a2 dd 5c bf 58 c7 d9 3f e8 7d bd bd b4 6e bd bd
       -0.86275685 1.701396 -0.0925253 -0.092496306
0003a0 83 03 9e 3e ad c8 92 3e e6 16 9c 3f 86 8a 0c be
       0.30862054 0.28668728 1.2194488 -0.13724717
0003b0 64 fc ca 3e b6 3f 76 be 00 22 4b be e7 18 0d bd
       0.39645684 -0.24047741 -0.19837189 -0.034447577
0003c0 2b 25 68 be dc ab 49 be 04 33 92 3f 43 29 f8 bd
       -0.22670428 -0.19694465 1.1421819 -0.12117245
0003d0 18 59 d4 be 3f a7 59 bc 07 7e 69 3d 81 2e 03 bf
       -0.41474223 -0.0132845035 0.057004955 -0.51242834
0003e0 22 d9 07 3e 40 f8 76 bf 3f a3 ce 3e f2 e5 c1 3c
       0.13266423 -0.9647255 0.40358922 0.023669217
0003f0 e0 1c 90 3e eb 88 b8 be 77 bd 8c 3e e7 6d cc be
       0.2814703 -0.3604196 0.274883 -0.399276

conv4.bias f4 [64]
000000 94 02 fc bd ad 84 ba bd 91 ed e7 3e 71 00 21 3f
       -0.12305179 -0.09107337 0.45298436 0.628913
000010 d1 6b fa 3e c3 fb 03 3e 91 1d 15 be e7 04 bb 3f
       0.48910382 0.12889008 -0.1456206 1.4610871
000020 19 8f 3b 3f 9d 76 8b bf 88 5c 79 bf c7 a5 f4 3d
       0.73265225 -1.0895573 -0.97406816 0.11945682
000030 25 1b bc 3e f6 70 50 bd 92 80 f7 3e 10 bf d8 3d
       0.3673946 -0.050888978 0.4834028 0.10583317
000040 af c7 be be aa 5e ab 3f c4 e2 c7 3e 5b 96 15 bf
       -0.37261721 1.3388264 0.39040196 -0.5843255
000050 d0 89 9d 3e 01 b7 43 bf 71 b3 89 3f 3f 66 89 bc
       0.30769205 -0.76451117 1.0757886 -0.016772388
000060 2b 9c fa 3e db 69 19 3f 15 ea cc 3e c9 29 59 3f
       0.48947272 0.5992715 0.4002234 0.84829384
000070 b7 96 c1 be a1 36 b8 be d8 11 e7 3d ae 1e 43 3d
       -0.378103 -0.3597918 0.112827 0.04763668
000080 7d ee c8 3e 90 37 98 be 45 7b dc be d4 b2 67 be
       0.39244452 -0.2972989 -0.43062797 -0.22626811
000090 f7 e8 2d be 57 9a a5 3b 24 7a dc be 3d cb 19 3e
       -0.169834 0.005053799 -0.43061936 0.15018936
0000a0 39 39 92 3f 5f 8d e2 bd 67 1d 36 3d 74 f7 4e 3f
       1.1423713 -0.11062121 0.044461634 0.80846334
0000b0 07 a9 46 3e 67 91 6d be b5 f7 f6 3e 2d 5b bc bf
       0.19400416 -0.23199998 0.4823586 -1.4715325
0000c0 0d 18 25 3d 95 0d 63 3f d2 c9 84 3e cf 44 09 3f
       0.04030614 0.886926 0.25935227 0.5362062
0000d0 56 06 d0 bf 86 a0 87 3e de 57 55 bf 2a af 75 bf
       -1.6251934 0.26489657 -0.833372 -0.95970404
0000e0 65 e8 c6 3e 19 72 44 3d b8 a7 28 bf 8e 9f 92 3e
       0.38849178 0.047960375 -0.6588092 0.28637356
0000f0 b5 53 e8 3d 99 ce 6c be b0 a5 5f 3f d9 d0 3e be
       0.11344091 -0.23125686 0.87362194 -0.18634357

fc.weight f4 [1, 128]
000000 a6 d2 71 41 32 fd 34 41 6b 32 68 41 ce e7 55 41
       15.113928 11.311815 14.512309 13.369093
000010 76 6f 5a 41 8d 98 65 41 40 30 79 41 9b fa 5c 41
       13.652212 14.349744 15.57428 13.811183
000020 98 c7 82 41 e0 82 44 41 da 2b 73 41 a8 07 3f 41
       16.347458 12.281952 15.198206 11.939369
000030 51 56 5c 41 bb 5f 5b 41 34 ae 78 41 28 13 5a 41
       13.771073 13.710872 15.54253 13.629677
000040 08 98 90 41 da 9d 72 41 41 4b 8b 41 04 f1 33 41
       18.074234 15.163538 17.411745 11.246342
000050 d9 74 69 41 ee af 53 41 f7 33 74 41 30 f1 57 41
       14.591027 13.230452 15.262687 13.496384
000060 e0 e6 62 41 8d b1 4f 41 8d 1e 63 41 77 9c 4b 41
       14.181366 12.980847 14.194959 12.725699
000070 a5 3a 6a 41 fe 5f 72 41 2c 1b 48 41 96 0f 57 41
       14.6393175 15.148436 12.506634 13.441305
000080 2b 8c 79 41 ab b1 59 41 72 f2 35 41 4b 2d 5c 41
       15.596721 13.605876 11.371691 13.761058
000090 d5 59 67 41 d0 3f 56 41 1a 40 8f 41 59 b3 5c 41
       14.459432 13.390579 17.9063 13.793786
0000a0 31 b3 6c 41 ee c0 48 41 78 6a 67 41 c1 08 5a 41
       14.793748 12.547102 14.463493 13.627137
0000b0 aa 94 99 41 2f 7f 3c 41 09 b4 6a 41 18 2d 59 41
       19.19759 11.781051 14.668954 13.573509
0000c0 9c 6e 85 41 1a 94 96 41 c7 70 80 41 99 18 42 41
       16.679008 18.822315 16.055067 12.131005
0000d0 a0 52 5c 41 47 a0 3f 41 15 cf 67 41 9a d2 3d 41
       13.770172 11.97663 14.488057 11.863916
0000e0 3d 75 77 41 69 b6 56 41 3f b6 83 41 d3 8d 37 41
       15.466123 13.419534 16.463987 11.472125
0000f0 4b f4 5d 41 84 75 5c 41 76 da 5b 41 93 4e 1f 41
       13.872142 13.77869 13.740835 9.956683
000100 0d f4 6d 41 c6 70 52 41 f5 af 5c 41 2a ca 59 41
       14.872083 13.152533 13.792958 13.611856
000110 55 95 8d 41 aa 12 80 41 7a 90 77 41 c6 a4 59 41
       17.697916 16.009113 15.472773 13.602728
000120 08 e1 76 41 09 27 98 41 cc 11 66 41 2e 36 5a 41
       15.429939 19.01906 14.379345 13.638227
000130 61 89 5d 41 33 54 5d 41 2a f0 77 41 75 b7 55 41
       13.84604 13.833056 15.496134 13.357289
000140 70 d7 63 41 41 6a 44 41 46 44 68 41 e5 43 58 41
       14.240097 12.275941 14.516668 13.516576
000150 79 9f 5c 41 d5 ab 59 41 60 a5 54 41 37 29 4a 41
       13.788934 13.604451 13.290375 12.635062
000160 aa 2b 76 41 47 f0 6d 41 08 d7 3e 41 3f f3 25 41
       15.38566 14.871161 11.927498 10.371886
000170 7b 05 5b 41 d0 65 59 41 04 0e 78 41 8a 14 5a 41
       13.688838 13.587357 15.503422 13.630014
000180 d5 99 5a 41 73 ef 59 41 57 e4 5e 41 0a 9b 54 41
       13.662557 13.620959 13.930747 13.287851
000190 17 d3 62 41 41 20 5a 41 3e ba 69 41 c6 08 4a 41
       14.176536 13.6328745 14.607969 12.627142
0001a0 a4 55 73 41 54 01 64 41 cc 6c 9b 41 34 4c 5a 41
       15.208408 14.250324 19.428123 13.643604
0001b0 b6 47 68 41 84 b3 4e 41 73 42 64 41 d4 e6 59 41
       14.517508 12.918827 14.266223 13.6188545
0001c0 21 f3 6e 41 ee 05 74 41 25 91 97 41 e4 28 61 41
       14.934358 15.251448 18.945871 14.072483
0001d0 f0 84 98 41 b9 ee 60 41 bc ad 56 41 f7 61 3f 41
       19.06491 14.058282 13.417416 11.961417
0001e0 f7 9a 61 41 05 02 5b 41 37 4f 7e 41 d0 09 58 41
       14.100333 13.687993 15.89434 13.502396
0001f0 5a 89 7b 41 46 97 31 41 bd 5d 78 41 53 55 62 41
       15.721033 11.099432 15.522885 14.145831

conv_block1.0.weight f4 [8, 1, 22]
000000 4f 6c 0a 3f da 28 00 bf ef 5a d6 3e 01 95 0f bf
       0.54071516 -0.50062335 0.41866252 -0.56086737
000010 f6 31 6e 3f 84 6e 61 3f 81 f6 77 3f fa 44 b3 3f
       0.93044984 0.8805926 0.9686051 1.4005425
000020 c3 10 0d bf 24 ec 8f 3f 37 76 b0 be 39 fc 61 3d
       -0.551037 1.1243939 -0.3446519 0.05517218
000030 00 57 dd bd 8d 86 72 3d 9f 95 06 3f aa cb 6d be
       -0.108076096 0.05921035 0.52572054 -0.23222223
000040 91 7c f9 3e 34 45 aa bd be 92 83 be 10 e6 c8 bd
       0.4872785 -0.08313981 -0.25697893 -0.09809506
000050 1e 83 4e 3e 62 24 1a bf ee 5b c3 3d cf ac 0c 3e
       0.20167205 -0.60211766 0.095390186 0.13737796
000060 e8 4e 01 3f a2 3b 51 3f 89 d5 27 3f 06 fe 0d be
       0.50511026 0.8173162 0.65560204 -0.13866434
000070 6f 04 d3 be cd 9c 16 bf 5a 3e d2 bd 23 ce a8 bc
       -0.4121432 -0.5883301 -0.10265799 -0.020606106
000080 5b 29 ac 3f f5 83 76 3f 8f 6f 54 3f 40 39 6d be
       1.3450121 0.962951 0.82982725 -0.2316637
000090 ad aa 6d be 99 70 1f bf 53 19 84 3b 10 ed 4d bc
       -0.23209639 -0.62281185 0.004031339 -0.012568727
0000a0 76 73 88 be 50 1b 82 bf b9 94 a3 bf 6b 1e a2 3d
       -0.2665059 -1.0164585 -1.2779762 0.07915958
0000b0 2b 4a b9 bf a3 c6 b7 3e 59 e1 0e bf 40 9a cb 3e
       -1.4475759 0.35893735 -0.55812603 0.3976612
0000c0 32 07 9c 3f 98 6d af 3e f5 13 46 3f 1d de 34 bf
       1.2189696 0.342633 0.773742 -0.7065142
0000d0 11 44 c2 3e 40 a6 27 be f9 93 1f 3f ae 84 0d be
       0.37942556 -0.16372013 0.62335163 -0.13820145
0000e0 9c 60 15 3f a0 be b6 3d cf 14 bf bb 7c 95 8d 3e
       0.5835054 0.089230776 -0.005831338 0.2765311
0000f0 33 3e 79 bf f5 bc 05 bd 61 9d 07 3e 3c 74 c8 be
       -0.97360533 -0.032650907 0.13243629 -0.3915118
000100 48 5a 3f 3f 26 dc 91 be 5d 57 75 bd e7 27 f7 bd
       0.74747133 -0.28488272 -0.05989777 -0.12068158
000110 9c 53 d2 be df a8 ae bf 47 bd 5e bf 9e 2c 51 3e
       -0.41079414 -1.3645285 -0.87007564 0.20427176
000120 cd 0e 02 bf 33 7c 52 3e 2a 3b c1 3e 99 f2 88 3f
       -0.50803834 0.2055519 0.3774045 1.0699035
000130 6a 8c ba 3f 60 34 50 3f 2f 4d cb 3e 91 21 84 3e
       1.4574101 0.8132992 0.39707324 0.2580686
000140 0d e2 c8 3e 21 00 ed bd c9 e0 85 bd 5d f7 53 3e
       0.39234963 -0.1157229 -0.06537015 0.2069983
000150 92 4d 1a bf 88 b9 5d be f0 06 9b bd e6 58 09 bf
       -0.6027461 -0.21652806 -0.075696826 -0.53651273
000160 e6 8c 2a be 67 ab 94 bf 2a 8a f2 be c6 74 e4 be
       -0.16655311 -1.1614808 -0.47371036 -0.4462034
000170 bb d3 35 bf b6 a6 b0 3f 92 b8 e3 be de 4d fc 3e
       -0.710262 1.3800876 -0.44476753 0.49278158
000180 bf 36 68 bf 62 66 b2 3e df bd 86 be 13 8e 97 3e
       -0.90708536 0.34843737 -0.26316735 0.29600582
000190 ac 14 98 3e a1 ae 73 bf e9 3c 35 3f d4 b7 4e be
       0.2970327 -0.9518834 0.70796067 -0.20187312
0001a0 8a bf 2a 3f d4 a5 f1 3e 36 7e 86 be d7 e0 d9 3c
       0.66698515 0.4719683 -0.26268166 0.02659647
0001b0 3b c1 11 3e 6f 54 81 3d c7 b3 83 be 28 38 72 3f
       0.14233868 0.063149326 -0.25723097 0.9461694
0001c0 67 26 34 3e 8f ae 57 3f 4d 2a 85 3d 6a 36 92 3f
       0.17592774 0.8425073 0.06502209 1.1422856
0001d0 e8 3e ad bf 2d bc 78 3e 1c 15 bb bf a3 c7 3f 3e
       -1.3534822 0.24290533 -1.4615817 0.18728499
0001e0 34 05 85 be 34 06 e5 be ef b3 54 3e 2c 99 9c be
       -0.25980532 -0.44731295 0.20771764 -0.3058561
0001f0 00 45 23 3f 39 7c fb bd 6c 74 ad 3d 26 f3 4b be
       0.6377716 -0.12279553 0.08469471 -0.19916973
000200 93 d6 00 3f 34 54 b1 be ec 10 89 3c e7 85 a7 3e
       0.50327414 -0.34634554 0.016731702 0.32719347
000210 d1 8d f0 3e c9 03 d7 be 82 df a4 3d 67 93 dc be
       0.46983197 -0.41995075 0.08050443 -0.4308121
000220 bd 4f 8a 3d e5 a3 c1 bf b9 f2 19 bf eb 0c b3 bf
       0.0675349 -1.5128142 -0.6013599 -1.3988317
000230 1a d7 08 bf e7 d2 3a be ba 7a 0d be 71 4b 29 3f
       -0.5345322 -0.18244515 -0.13816348 0.6613074
000240 09 20 0b 3f 08 ce 32 3f 7c 07 aa 3e 63 af de 3e
       0.54345757 0.6984563 0.33208835 0.43493184
000250 2d d6 5d 3e 43 c9 7b 3f 80 ae a8 be 88 03 22 3f
       0.21663733 0.98353976 -0.32945633 0.6328664
000260 95 9b 88 be 7f 8c d7 bd 8f 98 a5 3d 61 17 f9 be
       -0.266812 -0.105248444 0.08085739 -0.4865065
000270 1b a7 7c 3f 2d a6 8e bf e7 db 5b 3f be 32 8d 3e
       0.9869248 -1.1144463 0.8588242 0.27577776
000280 51 54 66 be 32 fd 0f bf 50 e7 8b bf 61 1e 3e bf
       -0.22493102 -0.5624572 -1.0929966 -0.74265105
000290 91 b3 c1 bd df b4 ea 3e a2 33 85 bd b6 17 0c 3f
       -0.09458078 0.4584112 -0.06503989 0.5472368
0002a0 54 64 27 bf b3 c5 73 3f c3 12 05 3e e8 4a 0a 3f
       -0.65387464 0.9522354 0.12995438 0.5402055
0002b0 a8 3d e7 be 6e 92 ad be 12 c2 b7 bd 3c 0f 5c 3d
       -0.45164227 -0.3390078 -0.08972563 0.053725466

conv_block1.0.bias f4 [8]
000000 a8 22 71 3f af b8 50 3e 6d 0b 45 bf ed a0 c8 be
       0.94193506 0.20382951 -0.7697056 -0.39185277
000010 01 34 e1 3e a9 7d 25 3f 0a fa 0e bf 39 1b 6c 3f
       0.43984988 0.6464487 -0.5585028 0.9222904

conv_block1.1.weight f4 [8]
000000 ac cb ce 3f 4a cb c1 3f ab 50 bd 3f f7 a6 0e 40
       1.6155906 1.5140164 1.4790243 2.2289407
000010 42 f6 03 40 df 7f d0 3f 1d ca 15 40 c2 55 d2 3f
       2.0619054 1.6289023 2.340461 1.6432421

conv_block1.1.bias f4 [8]
000000 50 b2 37 bf 12 93 10 3f ae fb 38 be 55 76 53 bd
       -0.7175646 0.5647441 -0.18064758 -0.051626522
000010 ca b3 07 3f a7 da d7 bc 86 4d c1 3e 0e 85 b2 bf
       0.5300871 -0.026349379 0.37754458 -1.3946855

conv_block1.1.running_mean f4 [8]
000000 1e c1 6a 3f e4 d7 85 3e 39 ea 48 bf d3 92 cb be
       0.91700923 0.26141274 -0.78482395 -0.39760455
000010 44 a8 e2 3e af 73 3a 3f be 3b 10 bf a6 3c 66 3f
       0.44269 0.7283277 -0.5634116 0.8993629

conv_block1.1.running_var f4 [8]
000000 f0 ae 38 41 76 7f 3b 41 50 36 f9 40 fa 1b 5c 41
       11.542709 11.718618 7.78788 13.75683
000010 88 ca 07 41 c7 5e 34 41 f6 d2 75 41 08 2b 07 41
       8.486946 11.273139 15.364004 8.448006

conv_block2.0.weight f4 [16, 8, 3]
000000 51 87 a4 bf b3 b8 53 3e 82 df a4 be 0f d8 a2 bf
       -1.2853795 0.20675926 -0.32201773 -1.2722186
000010 a0 9c bf 3e bd 55 ff be 3c cd 51 3f e1 f3 19 3e
       0.37424183 -0.498701 0.8195379 0.15034439
000020 2b 43 95 3f 7c b2 b8 3e 27 f3 55 be 2f d0 cb 3b
       1.1661123 0.36073673 -0.20893537 0.006219886
000030 cd 0f 2a bf 27 d5 64 3f 4e b4 f0 3d ab 10 da 3d
       -0.6643036 0.89387745 0.117531404 0.106477104
000040 29 16 bd be cd 89 9c be 28 ab 5c bf 64 be 1d bf
       -0.3693097 -0.30573884 -0.86198664 -0.6161864
000050 2a c3 28 bf 7a 5f 53 be 7c 3e 51 3e f8 34 6e 3e
       -0.65922797 -0.2064189 0.20433992 0.23262393
000060 be dd 8b bd eb de bb 3d 35 d2 08 3f 01 a7 97 be
       -0.06829403 0.091733776 0.5344575 -0.296196
000070 8b 4d 0f be 62 90 b1 be 9f f2 cb be 56 04 0d 3f
       -0.13994424 -0.34680468 -0.39833543 0.5508474
000080 8e b7 27 bc 8c ad 76 bf 63 50 7a bf ec 5d 0a 3e
       -0.010236634 -0.9635856 -0.9777891 0.13512391
000090 53 e6 24 bf 45 12 04 3f 07 de 03 3f 82 c2 52 bf
       -0.64413947 0.5159038 0.5151066 -0.82328045
0000a0 c8 4a b3 3e b3 96 19 3e 25 3f ad 3f 55 bc 8d be
       0.3501799 0.14998893 1.3534895 -0.27682748
0000b0 ad 00 30 bf 67 84 5b 3f e6 77 2e be c4 74 1e bf
       -0.6875103 0.85748905 -0.17037925 -0.6189692
0000c0 64 47 05 3f 7e f5 ca bd fe 39 97 3e a0 d7 e6 3e
       0.5206206 -0.09910105 0.29536432 0.45086384
0000d0 e6 f1 95 bd 82 4e ce 3e bb f3 8c 3d ca 40 d2 3e
       -0.07321529 0.40294272 0.068824254 0.41065055
0000e0 76 97 1e bf 46 f1 44 bf ae e9 a4 3c 97 82 85 3f
       -0.6194986 -0.76930654 0.020130958 1.0430478
0000f0 b3 c8 1c bf 08 84 19 3f ff 64 a6 3e c0 19 76 bf
       -0.6124374 0.5996709 0.3249893 -0.9613304
000100 70 39 0f bf 6a b1 57 3e 74 1c 38 3f 91 20 9b bf
       -0.5594702 0.21063772 0.71918416 -1.2119313
000110 3a f4 25 3f 26 ad 12 3f ea 67 3d be 22 6b b7 bd
       0.64825785 0.57295454 -0.18496671 -0.08955981
000120 53 e5 d4 be d6 d5 ac 3f 83 08 39 bf 5e 04 2d bf
       -0.4158121 1.3502758 -0.7227861 -0.6758479
000130 31 aa eb be 7a 72 7b 3e 0b a3 17 3e d1 30 e7 be
       -0.46028283 0.24555388 0.1480829 -0.4515443
000140 3f d2 a9 3e fa 68 3f bf a4 21 9b be 16 23 5e bd
       0.33168218 -0.74769557 -0.30299103 -0.05423268
000150 41 d9 06 be a4 99 2e bf 36 e2 13 bf 52 96 34 bf
       -0.13168813 -0.68203187 -0.57767045 -0.7054187
000160 01 65 9e bf d5 04 b3 be 07 1b 3b bf c5 01 4f 3e
       -1.2374574 -0.34964624 -0.73088115 0.20215519
000170 d7 80 3c be df 3b 89 3f f2 d0 6e 3e f0 07 8e be
       -0.18408523 1.0721396 0.23321894 -0.2774043
000180 30 2b 15 bf 9d 91 de be 88 93 65 3f 95 84 6d 3f
       -0.58269024 -0.4347047 0.8967824 0.9278043
000190 7b c4 3d bf 9c 33 0b 3e 43 02 dd 3b d1 17 69 3f
       -0.7412793 0.13593906 0.0067446544 0.91051966
0001a0 bc fd 3c bf a0 5f 4b 3d 2a 21 34 3f cb e2 35 3f
       -0.7382467 0.049651742 0.70363104 0.71049184
0001b0 5a 39 2c be 74 0e 6c be 0e 39 dc bc 8b 65 c7 bf
       -0.16818753 -0.23052388 -0.026882675 -1.5577863
0001c0 35 55 24 bf fb 9e dc 3e 4d d0 8a bf 73 9d 38 bd
       -0.64192516 0.43090042 -1.0844818 -0.04507203
0001d0 30 f1 08 3e 9b 5c ea be be 58 7c 3e 2b 93 28 3e
       0.13373256 -0.45773777 0.24643227 0.1646239
0001e0 c3 94 84 3e 4f b8 a3 3e e1 5e 1d bf fc 31 14 bf
       0.25894746 0.31976554 -0.614729 -0.5788877
0001f0 35 04 5a 3c ca 96 6c 3f 18 80 88 3f ba 30 2a bc
       0.013306667 0.92417586 1.0664091 -0.010387594
000200 e7 1e 2e be 9e 9b 7f bf 07 d1 b3 bc 6a 2d d9 bc
       -0.17003976 -0.9984683 -0.021950258 -0.026510913
000210 b8 19 52 bd d8 22 78 3d 90 fe c1 be bd 66 3b 3f
       -0.05129406 0.060580105 -0.37889528 0.7320364
000220 ab df df be c1 d7 db 3f e8 c6 09 3f 25 a7 4d 3e
       -0.43725333 1.7175218 0.5381913 0.20083292
000230 76 7b 0f 3f d6 49 04 bf a6 d1 be 3e ed fb 86 3f
       0.5604776 -0.51675165 0.37269324 1.0545632
000240 a0 d6 91 bb 6f d5 0d 3f ef 73 ef be d1 aa 50 bf
       -0.004450634 0.554038 -0.46768138 -0.81510645
000250 3e 10 26 bf 68 31 1a 3f 9a ed 19 bf 96 8f 24 bf
       -0.64868534 0.6023164 -0.60128176 -0.64281595
000260 d8 7d 24 3e 03 bb ec be 58 19 38 3f b1 bf 97 3e
       0.1606363 -0.4623643 0.7191367 0.29638436
000270 ee aa aa 3e d9 f7 3b bf 8f 3b e8 be 4f 21 9c 3f
       0.33333534 -0.7342506 -0.4535794 1.2197665
000280 93 57 26 be 7a 77 61 bf 67 9c 9d 3e 77 fb ab 3e
       -0.16244344 -0.8807293 0.30783388 0.3359029
000290 ca 22 b1 bd 3a b8 d4 be c8 32 bc 3f 26 a2 e3 be
       -0.086492136 -0.41546804 1.4702997 -0.44459647
0002a0 25 76 75 3f 03 65 20 bf 88 09 09 3f d1 45 fb 3c
       0.958834 -0.6265413 0.5353017 0.03067294
0002b0 69 51 2f be df cb 02 3e fa 29 e0 bd 3c 0f 20 bf
       -0.171209 0.12773083 -0.109455064 -0.62523246
0002c0 5c 07 ca 3e fb a1 28 3f f3 b6 d9 3e f2 ae 30 be
       0.3945874 0.6587216 0.42522392 -0.17254236
0002d0 a8 7c 12 3f 4c 85 42 bf 42 81 5a be 7c 89 c2 bf
       0.5722146 -0.75984645 -0.2133837 -1.5198207
0002e0 c1 bd 51 bf 72 fd c1 3e 9a ef 2d be b4 e6 11 3f
       -0.81930166 0.37888676 -0.16985932 0.5699265
0002f0 b3 a1 67 3f d9 2c 84 3f 88 be cf 3e ee 71 46 be
       0.9048111 1.0326186 0.4057505 -0.19379398
000300 03 0d 63 3b e3 74 94 3e a5 05 bf be 57 e1 f9 be
       0.0034645207 0.28995427 -0.37308994 -0.48804733
000310 1f a3 94 be bb 9d c8 bd fd a6 db 3e 41 27 33 3f
       -0.29030702 -0.0979571 0.4290084 0.6998177
000320 11 90 44 be 34 52 da be f6 55 65 3f da a6 c1 be
       -0.19195582 -0.4264084 0.8958429 -0.3782261
000330 ac 9d cc be c4 c5 3c be de d3 ab be 1c cf 08 bf
       -0.39964044 -0.18434817 -0.3356008 -0.53441024
000340 c5 86 dc bf ba 82 52 bf 94 90 0f 3f 75 53 77 bd
       -1.7228628 -0.8223072 0.56079984 -0.060382325
000350 16 5a 34 3f 55 e2 12 3f c4 ee 7f 3f 31 ea d0 3e
       0.7044996 0.57376605 0.999737 0.40803674
000360 ad a3 19 bf c4 7a db be d5 a8 9b 3f e1 f0 dc 3e
       -0.60015374 -0.428671 1.2160898 0.43152526
000370 a3 99 45 3e 61 e5 e0 3e 74 58 8a bf 98 66 14 3f
       0.19296889 0.43925002 -1.0808244 0.57969046
000380 3b 3c 1d 3f ec 59 1c 3f 25 12 98 3e c1 1e ce be
       0.6142003 0.6107471 0.29701343 -0.40257838
000390 a1 ea bd 3e c1 d7 00 3d 1b f7 20 bf 82 b4 c8 be
       0.3709307 0.03145576 -0.62877053 -0.39200217
0003a0 1f 70 99 3e 8a d9 92 3e 46 eb 5f 3f 73 ae 9e 3f
       0.29968354 0.28681594 0.87468374 1.2396988
0003b0 b9 0a 4a bf 7b e9 c1 3d c8 79 d3 be ff 4a dd 3e
       -0.7892261 0.09468361 -0.4130385 0.4322128
0003c0 d7 35 8d 3f de ea 89 3c ec 98 b8 bd 71 10 da 3e
       1.1032056 0.016835626 -0.090135425 0.4259067
0003d0 c0 14 e9 be cc 93 5e be 9c 6a 68 bf 22 96 ea be
       -0.45523643 -0.21736068 -0.90787673 -0.45817667
0003e0 3b e8 92 be 23 01 c2 3e 3b 67 64 bf 9f 55 89 3e
       -0.28692803 0.37891492 -0.8922002 0.26823136
0003f0 e5 1f 2b 3f e1 cc b6 be 9d dd d2 3e 7d 68 d8 3e
       0.6684554 -0.35703185 0.41184703 0.42267218

conv_block2.0.bias f4 [16]
000000 cb 53 66 3f 4f ed 36 bf 07 2a ca be 49 c3 80 3f
       0.8997161 -0.71455854 -0.3948519 1.0059596
000010 74 c1 4b 3e c3 40 d1 bf ed 9c 05 3f 41 67 04 bf
       0.19898015 -1.6347889 0.52192575 -0.5172005
000020 56 2c 11 3f 64 fb 0b 3e 74 2f aa bf 0f 22 3f 3f
       0.56708276 0.13670117 -1.3295732 0.74661344
000030 bf 7d 5c 3f a1 66 ec 3e 51 41 0d bf ad ca d1 3e
       0.86129373 0.4617205 -0.5517779 0.40974942

conv_block2.1.weight f4 [16]
000000 df 18 b5 3f 13 ac bc 3f 86 fa 97 3f 6e e3 6d 3f
       1.4148215 1.4740013 1.1873329 0.92925155
000010 2a 0b db 3f e2 48 bb 3f a3 4c 9e 3f 61 16 9f 3f
       1.7112782 1.4631617 1.2367138 1.2428705
000020 81 88 e0 3f f7 a7 c7 3f 24 a8 bf 3f 33 0d 47 3f
       1.7541658 1.5598134 1.4973187 0.77754515
000030 7b a6 8f 3f a4 6d 9b 3f ea 61 91 3f cc 8e 9b 3f
       1.1222681 1.2142835 1.1358006 1.2152953

conv_block2.1.bias f4 [16]
000000 dc 3e 2e 40 8a 94 df 3f 62 1b f5 bf 2f a0 21 bf
       2.7225866 1.7467206 -1.9148982 -0.63135046
000010 24 e2 e5 3f 72 69 18 40 26 07 24 40 65 ed 97 3f
       1.7959638 2.3814359 2.5629363 1.1869322
000020 42 eb 19 40 84 27 18 c0 64 0a 0b 40 67 38 fb 3e
       2.404984 -2.3774118 2.1725092 0.4906647
000030 5a c7 1a 40 7c e9 0d 40 22 86 e3 bf 44 f5 ba bf
       2.4184175 2.2173758 -1.7775309 -1.4606099

conv_block2.1.running_mean f4 [16]
000000 fe 9a 0b bf ad 75 c0 bf 4d 1c be 3d b6 a1 ff bf
       -0.54533374 -1.5035912 0.09282742 -1.9971225
000010 ba 7c 0f bf c1 32 49 3e 8e 8f 15 be d0 55 86 bd
       -0.5604969 0.19648267 -0.14605543 -0.06559336
000020 ad d3 be be b3 21 f1 3f e0 65 89 bf 1f 05 f7 bd
       -0.3727087 1.8838409 -1.0734215 -0.12061524
000030 64 bc 83 3f e3 3e 3b be 6a 66 d1 be 0e 4e 35 3f
       1.0291867 -0.18285708 -0.40898448 0.70822227

conv_block2.1.running_var f4 [16]
000000 26 8e 2e 3f 71 61 b7 3f aa 8f 85 3f 02 be 77 3f
       0.6818565 1.4326612 1.0434468 0.96774304
000010 21 54 81 3f 18 f4 4d 3f f5 b0 1a 3f 63 6d 2e 3f
       1.0103799 0.8045058 0.60426265 0.6813566
000020 35 68 f7 3f e1 0e b1 3f c2 2d ba 3f 6a 4e 35 3f
       1.9328676 1.3832666 1.4545214 0.70822775
000030 f2 19 1f 3f ac 33 8b 3f 93 22 9f 3f dd b4 56 3f
       0.62148964 1.0875144 1.2432426 0.83869725
