trained_models/CNN_complex/cnn_baseline.pth (torch, 51939 bytes, 41 tensors)

conv1.conv_r.weight f4 [4, 1, 11]
000000 b1 91 20 3c 10 b6 67 3d cf eb 2a bd 82 fe 67 be
       0.009800361 0.056570113 -0.04172879 -0.22655681
000010 8f ef 6e be f9 28 f5 be 57 08 59 be bf 0e 61 bd
       -0.23333572 -0.47882822 -0.21194588 -0.054945704
000020 a0 28 b8 3e 28 cb 02 3f 02 8a 82 3e 9b c5 ec be
       0.35968494 0.5109124 0.25495917 -0.4624451
000030 c2 c5 fc be ae d4 3d be 74 4e 84 3e c5 c4 2a 3f
       -0.49369627 -0.18538162 0.25841105 0.66706496
000040 ff 88 9f 3e 6c 1a ae 3e 24 be a6 be 10 fb 80 be
       0.31159207 0.34004533 -0.3256694 -0.25191545
000050 88 9a 5a be bc 59 19 3e ff d3 d7 be 45 23 40 be
       -0.21348011 0.14975637 -0.42153928 -0.18763454
000060 79 6d b9 3c 9e 36 0f bf 23 eb 5d bf b3 82 cb bf
       0.022635208 -0.55942714 -0.86686915 -1.5899261
000070 31 2d 1a bd 8a 2d a5 3e 45 0e 9b 3f 2b ea 55 3f
       -0.037640754 0.32261306 1.211373 0.83560437
000080 6d f5 33 3f 5f b8 b9 be 18 52 35 bf 99 da a3 bf
       0.70296365 -0.36273476 -0.7082839 -1.2801086
000090 fc 92 47 bf 73 45 d4 3d 20 88 50 3f 0b 60 6e 3f
       -0.77958655 0.10364809 0.8145771 0.931153
0000a0 f3 e8 8c 3f b6 86 93 3e bf 35 08 bf 29 51 b7 be
       1.100859 0.28813714 -0.5320701 -0.35804108

conv1.conv_r.bias f4 [4]
000000 b0 92 44 be e9 35 08 3e 12 cd 1f 3f aa 08 0e 3f
       -0.19196582 0.13301815 0.6242229 0.5548197

conv1.conv_i.weight f4 [4, 1, 11]
000000 25 ae 11 bf 30 62 de 3b e2 c5 bf be d0 fc 4b bf
       -0.5690635 0.006786607 -0.3745566 -0.79682636
000010 ed 73 98 bf 7e 33 8d be 69 f1 5b bf c8 00 64 be
       -1.1910378 -0.27578348 -0.8591524 -0.22265923
000020 17 f1 47 be 2c a9 70 be 22 b5 15 bd f8 45 89 be
       -0.19525562 -0.23502034 -0.036549695 -0.26811194
000030 35 37 3f bf a8 0e 8c bf 62 67 70 bf c8 f2 6b be
       -0.74693614 -1.0941973 -0.9390775 -0.23041832
000040 24 03 88 bc e4 cd 26 3e 85 1f c8 3d 20 82 08 3e
       -0.01660306 0.16289479 0.09771637 0.13330889
000050 d5 55 cc 3e 7f fa 3a 3f b0 12 00 3f 3a 45 07 3f
       0.39909235 0.73038477 0.50028515 0.52840006
000060 45 87 2d 3f 70 37 2d 3f f3 98 24 be 0e cc 2f 3e
       0.6778453 0.67662716 -0.1607397 0.17167684
000070 f7 99 f4 bd 75 3c 41 bf 66 a1 cd be 99 3e 3c be
       -0.11943429 -0.75482875 -0.401622 -0.18383254
000080 5a 31 a7 be f9 8b 85 be e6 02 84 3e 39 8c 02 bc
       -0.3265484 -0.26083353 0.2578346 -0.007968002
000090 8d fd a1 be 60 18 8a bf 2a 23 05 bf 10 7b ee be
       -0.31638756 -1.0788689 -0.5200678 -0.46578264
0000a0 36 1e 15 3f 7c f3 e7 3e cd bb 8b 3e 82 37 95 be
       0.58249223 0.4530295 0.27291718 -0.29143912

conv1.conv_i.bias f4 [4]
000000 9b 4a 19 3f fb 21 2d 3f 75 31 13 3f ed d0 a4 3f
       0.59879464 0.67629975 0.5749734 1.2876259

conv2.conv_r.weight f4 [8, 4, 3]
000000 66 dc 66 3f 91 06 db 3e 34 00 af be ab 40 88 bf
       0.9018005 0.42778447 -0.34179842 -1.0644735
000010 53 20 b5 3f 4f 28 b3 3e b2 cc aa 3f 36 d8 f4 3e
       1.415049 0.3499169 1.3343718 0.47821206
000020 7f 69 2b bf be d5 02 c0 82 f3 2e bf a0 24 bd be
       -0.6695785 -2.0442958 -0.68340313 -0.36942005
000030 0d 30 17 3e df 6a c1 3f c4 16 ee bf 3b e2 be 3e
       0.14764424 1.511074 -1.8600698 0.37281975
000040 37 e1 31 40 4f 23 e1 3f c6 aa ba 3e 51 21 5b 3f
       2.779371 1.75889 0.36458415 0.8559771
000050 90 0a 40 bf d4 41 26 3f 77 b7 fd 3e d5 e9 33 bf
       -0.7501612 0.64944196 0.49554035 -0.70278674
000060 4c bf d3 3f 7f dc a7 3f ab d9 04 c0 e5 44 ed 3f
       1.6542754 1.3114165 -2.0757854 1.853665
000070 f7 8f 82 3f a9 e5 a6 3f fd 37 40 be 05 dd ed be
       1.0200185 1.3038837 -0.18771358 -0.46457687
000080 45 54 ff be 7b 84 e0 3e ee 86 80 bf 07 30 5f 3f
       -0.4986898 0.43851075 -1.0041177 0.8718266
000090 d9 2f 92 3f 94 ed c2 3f 73 5a 11 40 c1 db d9 be
       1.1420852 1.5228753 2.2711456 -0.4255047
0000a0 25 6f 8d bf b1 12 0c 3f 0f 78 22 be e0 9a 6b 3f
       -1.1049544 0.5471602 -0.15866111 0.92033195
0000b0 9e 36 66 3f 5d af cc 3f 2e e8 3e 3f cf a4 83 be
       0.8992709 1.5991017 0.7457303 -0.25711676
0000c0 d2 88 f9 be ca ea c5 bd 60 46 88 3d 6e d4 87 3c
       -0.48737198 -0.09663923 0.06654048 0.016580787
0000d0 8e 19 ce be 7b 63 bc 3e 2d 42 d9 be 4e 81 9a 3e
       -0.40253872 0.36794648 -0.424333 0.30176777
0000e0 d7 24 aa 3d ac f8 98 3f 45 52 b0 3f b0 58 a5 be
       0.08307808 1.1950889 1.3775107 -0.32294226
0000f0 89 d2 e8 3f 69 a8 f6 3e bc 21 c8 be a3 05 1b 3f
       1.818925 0.48175362 -0.39088237 0.60555476
000100 15 4a ee be 4a 17 19 40 7c 06 67 bf 1d f5 b1 3f
       -0.46540895 2.3920465 -0.9024427 1.3902928
000110 8e 4a c7 be 3d cf 8e 3e e3 87 45 be 9a 39 c6 3e
       -0.38924068 0.27892485 -0.19290118 0.38715822
000120 a5 55 94 bd 37 8a 0c bf 50 00 69 3f 7e 3f e4 bf
       -0.07242898 -0.548984 0.910161 -1.7831876
000130 65 39 4b 40 c3 0c 12 bf 72 55 35 3f 9f 09 69 bf
       3.175378 -0.5705072 0.70833504 -0.91030306
000140 1e f0 76 3f e8 2d ae be 4e 17 1c 40 69 49 e8 be
       0.9646014 -0.340194 2.4389224 -0.45368508
000150 51 79 08 be a2 fe c5 3f e1 ea a8 bf 1b 4d 69 be
       -0.13327529 1.5468333 -1.3196679 -0.2278332
000160 70 7c 28 3f 25 8d f7 3f 09 d8 9f 3f 00 2f f5 3f
       0.65814877 1.9339949 1.2487804 1.9154968
000170 65 4e 25 3f 08 6b 38 3e 7b 34 1b 40 35 ba 17 3f
       0.64572746 0.18009579 2.4250782 0.59268504

conv2.conv_r.bias f4 [8]
000000 82 f7 4e be 81 a0 3c bf 58 8f 37 3f 83 fd c3 3b
       -0.20211604 -0.7368241 0.717031 0.0059811487
000010 b3 57 6f be 58 5e 4b 3e c8 a5 8c bf 3a b4 b9 bd
       -0.23373298 0.19860208 -1.0988092 -0.090675786

conv2.conv_i.weight f4 [8, 4, 3]
000000 c3 02 99 bf 99 b7 24 3e 28 9f f3 3d 09 31 83 bb
       -1.1953968 0.16085662 0.11895591 -0.004003648
000010 2c 62 19 bf a2 b3 27 3e 2e 71 c9 be fc bf a7 3f
       -0.59915423 0.16377118 -0.39344162 1.3105464
000020 50 ac a8 be 73 81 de 3e 3d 70 a6 3e 48 62 dc 3e
       -0.32943964 0.43458137 0.32507506 0.43043733
000030 a4 cb cf bf 2f ab 78 bf f7 65 5c bd 77 09 fc be
       -1.6234021 -0.97136205 -0.05380818 -0.4922597
000040 91 a0 97 bd bb e5 4a 3e c9 7f 16 3f 64 22 89 3e
       -0.074036725 0.19814198 0.58788735 0.2678405
000050 b2 04 98 3c 5e 5f 09 3f d3 43 ca 3f d0 bc ae 3e
       0.018556926 0.53661144 1.5801948 0.34128428
000060 40 2f 93 be 40 6b 07 bf 34 6f e6 3e 65 8c 4b bf
       -0.28746986 -0.52898026 0.45006716 -0.795111
000070 fd 45 6c 3f cf b1 0c 3f cb c9 90 3f 16 85 eb 3e
       0.92294294 0.54958814 1.1311582 0.45999974
000080 0a 69 07 3f 74 a5 17 3f 4d 3f 8f 3f 36 10 68 3f
       0.5289465 0.59236836 1.1191193 0.90649736
000090 d4 9c c5 bd 90 df 60 be 94 3a dd bd 42 e8 81 be
       -0.09649053 -0.21960282 -0.108021885 -0.2537251
0000a0 9d bc 5d 3f 41 8e 18 3f e3 e9 d3 3e 08 22 91 3e
       0.86615926 0.5959206 0.4138938 0.28346276
0000b0 1b 7d 86 3e 92 b3 3d 3f 74 ec 39 3f c4 96 c7 be
       0.26267323 0.7410213 0.72626424 -0.38982213
0000c0 db 0f b2 bd fb d7 c8 bf ea 8b 8f bf 36 b3 45 bf
       -0.086944304 -1.5690912 -1.1214573 -0.7722658
0000d0 a2 d3 b0 3e 5c f2 81 3f d4 b5 17 3f 8d f8 13 bf
       0.34536463 1.0152087 0.5926182 -0.57801133
0000e0 ee c2 1c bf 8b 13 36 be 2a 76 de bf b2 75 94 be
       -0.6123494 -0.17780893 -1.7379811 -0.28996044
0000f0 d1 c1 a5 3d 41 59 4d be b7 a0 b0 3b ab ac 8f 3f
       0.08093608 -0.20053579 0.0053902525 1.1224569
000100 a0 54 bd 3e 59 ac b7 3f d6 19 f4 3d f7 fe 80 3f
       0.36978626 1.4349471 0.1191899 1.0077809
000110 ab 77 b8 3e 8e d6 56 be da 99 b2 be 5b a8 6d 3d
       0.360288 -0.20980284 -0.34883004 0.058021884
000120 52 e1 05 bf b3 c2 e8 be 75 8a 84 be 16 8c 45 3e
       -0.52296937 -0.45461044 -0.25886884 0.1929172
000130 90 85 ca 3f 80 45 d4 bd 29 6d 10 3f f0 8a 15 3f
       1.582201 -0.103648186 0.56416565 0.58415127
000140 15 7f b5 bd cc 5e a4 be e0 20 0a 3f 8d 1e ba 3e
       -0.088621296 -0.32103574 0.53956413 0.36351433
000150 95 ec a9 be b1 4a 05 be ec 33 08 3e 63 db 28 3f
       -0.3318831 -0.13016774 0.13301057 0.6595976
000160 51 15 58 3f a7 78 df 3e 56 16 61 bd b7 e8 14 3e
       0.84407526 0.43646738 -0.05495294 0.14541899
000170 22 d6 4d 3d 6b d9 2e 3f 67 5c 8a 3f c3 b9 4d be
       0.05025304 0.68300503 1.0809449 -0.20090394

conv2.conv_i.bias f4 [8]
000000 5c f1 2b 3e 7e e9 2c bf 96 12 68 3b 18 d5 65 bc
       0.1679129 -0.6754378 0.0035411469 -0.014027856
000010 02 59 39 bd 54 35 8a be 1c 7c 64 be 89 01 71 be
       -0.0452509 -0.2699381 -0.22312969 -0.23535742

conv3.conv_r.weight f4 [16, 8, 3]
000000 d8 c9 12 40 46 75 09 bf 64 3e e5 3e b1 85 80 3f
       2.2935696 -0.5369457 0.44774163 1.0040799
000010 be 44 cf 3e 64 e4 33 3e 87 1f ac 3e c9 a7 17 3f
       0.40482134 0.17567593 0.33617803 0.59240395
000020 12 73 a5 bf 30 21 6e 3f 28 f7 65 3f 21 0d c9 bc
       -1.2925742 0.9301939 0.89830256 -0.024542393
000030 d6 6f 68 be 8a 12 c7 bd 1d c2 9d bc ed 76 e7 3f
       -0.22698912 -0.09720333 -0.0192576 1.8083168
000040 dc a7 37 be ed 26 2b 3d 14 4b ab 3f b3 22 10 bf
       -0.17935127 0.04178517 1.3382287 -0.56302947
000050 ca 6d 41 3e d1 a5 b4 3f 95 fa 52 3f fc 82 fc 3e
       0.18889537 1.4113103 0.8241361 0.49318683
000060 21 d4 8a be fd 90 26 3d 03 9b 86 be 1e 82 40 be
       -0.27114967 0.040665615 -0.2629014 -0.18799636
000070 32 5a 2e 3f 44 bc 60 3f 36 c7 b9 bf f1 48 06 40
       0.6810638 0.8778727 -1.4513919 2.098202
000080 9f a9 00 be 9f 88 cd 3f 15 5b ba bd c6 64 0c 3f
       -0.12564705 1.6057318 -0.09099404 0.5484127
000090 2f f3 5f be 8d 85 1f be 4a f4 d3 bc 7f 49 cb 3f
       -0.21870111 -0.1557829 -0.025873322 1.5881804
0000a0 e1 69 1a be 17 88 a2 3e 7b 5a 0f 40 af 6d 85 3e
       -0.15079452 0.31744453 2.2398975 0.26060244
0000b0 11 e2 2b bf 15 3b 7a 3f fb 06 f0 3e e2 7f 72 3f
       -0.67141825 0.977464 0.46880326 0.94726384
0000c0 d7 0a 45 3e a3 e8 43 be 41 5a 4e bf 1a a5 aa be
       0.19242416 -0.19131713 -0.80606467 -0.33329087
0000d0 26 c9 8a 3e 4a db f6 bd 1d 4f 88 3e a4 37 85 bd
       0.2710659 -0.12053545 0.2662286 -0.06504753
0000e0 65 23 6e be f9 24 8b 3d 94 0b 3e be 22 f5 1d 3f
       -0.2325569 0.06794161 -0.18559104 0.6170217
0000f0 5a 52 5e be c0 99 98 3f 1f 98 e6 3e cf 25 ca 3d
       -0.21711102 1.1921921 0.45037934 0.09870493
000100 5f e1 72 be db 94 27 3e 44 00 8d bf b8 ee 40 be
       -0.23718785 0.16365378 -1.1015706 -0.18841064
000110 25 10 63 be 17 cc 45 be e1 b5 5e be 95 15 89 be
       -0.22174127 -0.19316135 -0.21749069 -0.26774278
000120 85 0d 91 3f 78 e4 03 3f 14 b0 b7 be 81 45 42 bf
       1.1332251 0.5152049 -0.35876524 -0.75887305
000130 3d fe d5 3d 35 dc 94 be 1f 00 cf 3f 96 f9 7b 3e
       0.10448883 -0.29074255 1.6171912 0.24606928
000140 60 a4 a2 bf 92 a0 99 3f 8c fc 8e 3e 41 ef 6c 3f
       -1.2706413 1.2002127 0.27927053 0.9255257
000150 34 e6 1c 3e ea bc bb 3d c6 04 75 3d 8e aa 7c 40
       0.1532219 0.09166892 0.059819005 3.9479098
000160 e9 e1 8e 3f 74 e0 16 be 9c 6e 48 bf 40 ee d2 3f
       1.1162692 -0.1473406 -0.78293777 1.6478958
000170 a7 8b 29 3f df 28 50 3b f1 dc 1a be 8e 77 54 3b
       0.6622872 0.0031762642 -0.15123345 0.0032419893
000180 52 ab 8b 40 46 24 f3 3f 3d 89 d6 bf a4 f0 56 3f
       4.364663 1.8995445 -1.6760632 0.8396094
000190 b0 8e 03 bf 88 4b 34 bf 81 e4 34 40 a0 15 0b 3f
       -0.513896 -0.7042775 2.8264468 0.5432987
0001a0 49 91 ac be 13 1b c6 3f ab 8b 48 3f 8f c9 fc 3f
       -0.33704594 1.5477012 0.78338116 1.9749011
0001b0 b9 a9 0c 3e 99 5d 61 3c 7c 57 bd bb c6 50 87 bf
       0.13736619 0.013755226 -0.005778251 -1.0571525
0001c0 4c 02 74 3f ab ae 81 3f dc 5b 0c 40 90 a8 9c 3f
       0.95316005 1.013143 2.1931067 1.2238941
0001d0 1e b4 23 3e 28 23 83 be d8 e2 ef be 0a 14 1b bf
       0.15986678 -0.2561276 -0.46852756 -0.6057745
0001e0 5b c9 18 40 d3 a3 c7 bd 39 ce d1 bf 64 a1 57 be
       2.3872898 -0.09748044 -1.6391059 -0.2105766
0001f0 7b c8 13 3f 80 6f a8 3e d1 ee 19 bf dd 61 5d 40
       0.57727784 0.32897568 -0.6013003 3.459098
000200 9c c6 9d bf 0a 46 fc bd 7a ec 3a bf 46 bb ea 3e
       -1.2326236 -0.123180464 -0.73017085 0.45846003
000210 99 7c c9 be 33 ce 37 be 6f e9 8a 3b ef 9d a1 3f
       -0.39352873 -0.17949753 0.0042392532 1.2626323
000220 86 15 86 3f df 54 06 3e eb c3 18 40 78 ac 66 bf
       1.0475318 0.13118313 2.386958 -0.90106916
000230 ae b1 6c bf 28 8a 69 3f 1c 0a ea 3d ed ac 13 3e
       -0.9245862 0.91226435 0.114277095 0.14421435
000240 3a 47 82 3f 8b 8a 06 bf 52 83 1f 3f 4d 48 3d 3e
       1.0177987 -0.5255515 0.62309754 0.18484612
000250 a8 b2 0e 3f 86 2e 1f 3f 35 f8 88 be 75 99 5e 3f
       0.5574136 0.62180364 -0.26751867 0.86952907
000260 c1 c4 b0 be cc db 9d 3f 3c f5 26 3f c2 1b 9c be
       -0.3452511 1.2332702 0.6521795 -0.30489928
000270 84 3f 9c be 0e 11 0c be 84 30 3f bd fd 6b c5 3f
       -0.3051721 -0.13678381 -0.046677127 1.542358
000280 a0 16 7b 3f 32 d5 4d 3e 69 86 16 40 e2 d1 91 be
       0.980814 0.20100859 2.3519537 -0.2848044
000290 34 e3 92 be 73 f6 9d 3f 6f 68 29 3f 32 e0 12 3f
       -0.28688967 1.2340835 0.6617498 0.57373345
0002a0 f4 ae 95 3f f8 e2 a6 be 7a ab dc 3a 08 a9 7d be
       1.1694016 -0.32595038 0.0016835772 -0.24771512
0002b0 01 a1 aa bc 2a 40 bc 3c 6c 18 9d be ac 03 7a bd
       -0.020828726 0.022979815 -0.30682695 -0.061038658
0002c0 7d 18 e0 be c9 bf 22 be fb d3 37 be ab 60 83 bc
       -0.43768683 -0.15893473 -0.17951958 -0.016037306
0002d0 00 84 90 bf ab 0c 02 3d e8 97 4f bf 4e bb 3b bd
       -1.1290283 0.031750362 -0.81091166 -0.045832925
0002e0 70 54 a6 bd 45 fb 94 be 0b 8c 42 bf 6a 35 e1 be
       -0.08121574 -0.29097953 -0.7599494 -0.43986064
0002f0 bc ec ab 3c 20 ca 4d be 69 02 80 bd 8d e0 1a be
       0.020986907 -0.20096636 -0.0625046 -0.15124722
000300 78 a0 9e 3f 41 11 9c be ec a8 ab 3f 73 82 ef 3e
       1.2392721 -0.30481914 1.3410926 0.46779212
000310 01 84 9a 3e 74 a9 e3 bc c7 15 b0 40 9c 0e 04 3e
       0.30178836 -0.027790762 5.5026584 0.12896198
000320 e2 23 f8 be ed 3a e3 3e 68 38 75 3f a7 30 ac 3e
       -0.48464876 0.44380894 0.95789194 0.3363087
000330 6f 83 4e be 3e 8a a5 bd a4 9f a0 bd 3a 55 1c 40
       -0.20167325 -0.08083008 -0.07842949 2.4427018
000340 64 6c 52 3f 28 bd 33 be 01 bb 0d 3f 24 22 7c 3f
       0.8219664 -0.17552626 0.5536347 0.98489594
000350 bc 7e 8a 3d 79 32 32 be a7 fb cc 3e 2e 27 ca 3e
       0.06762454 -0.17402066 0.40035746 0.39483017
000360 23 d3 93 bf 2b c5 d2 3f 77 24 0b c0 2d 09 7f 3e
       -1.1548809 1.6466421 -2.1741006 0.24905844
000370 3a 17 20 be 1f 1c 30 3e a3 2b d5 3f df d9 17 c0
       -0.1563386 0.17198227 1.6653942 -2.3726728
000380 5d 01 bf 3f 8b 5e 99 3f 15 d9 28 bf 65 4e 2c be
       1.4922291 1.1981977 -0.6595624 -0.1682678
000390 ed 5e 8d 3d 82 20 2e be 9b e9 93 3e 1d 12 c7 3f
       0.06902871 -0.17004588 0.28889164 1.5552403
0003a0 e5 a5 2b 3f bf d3 f0 be 0f eb b0 3e 44 a0 ca 3e
       0.6705001 -0.4703655 0.34554335 0.39575398
0003b0 20 f1 c4 be b8 8e 02 3f 8b ad 97 be 0b aa c1 be
       -0.38465214 0.5099902 -0.2962459 -0.37825045
0003c0 81 4b d6 3f 19 33 0a bf 51 bd fa 3e 17 e9 c0 3f
       1.6741792 -0.5398422 0.48972562 1.5071133
0003d0 c0 02 44 3f cc f0 1e be 26 e6 59 40 38 4f 16 c0
       0.76566696 -0.15521544 3.4046721 -2.3485851
0003e0 16 c9 ac 3f 8d 47 6a bf 63 6c 43 bf d9 e6 8b 3d
       1.3498867 -0.9151543 -0.7633726 0.0683114
0003f0 e2 d0 17 bf 9b 61 08 bf af 24 db bc 72 97 42 3f
       -0.59303105 -0.53273934 -0.02675089 0.7601234

conv3.conv_r.bias f4 [16]
000000 fd f5 b0 bc 01 6e 6e bd 49 c2 6f 3e da 1d 57 bd
       -0.021601671 -0.058210377 0.23413958 -0.052518703
000010 2e e4 34 3e 5c 74 2c 3d 52 60 45 bd 3a 76 3c be
       0.17665169 0.042103156 -0.04818756 -0.18404475
000020 79 e9 8a bc 6a a8 54 be b4 93 db be 5f bb a8 3d
       -0.016957032 -0.2076737 -0.42886126 0.08238863
000030 ce 15 6e be 37 48 d4 bc 71 9a bb bd 8f 2a d2 3d
       -0.23250505 -0.025913341 -0.09160317 0.10262024

conv3.conv_i.weight f4 [16, 8, 3]
000000 02 2b 9a bf bb 01 34 3e 94 9b 49 3c 33 a7 87 3e
       -1.2044375 0.17578785 0.012305159 0.2649475
000010 db fc 5a 3e a3 b5 9a 3e ce 3d 67 3e e2 5a e5 3d
       0.21385519 0.30216703 0.2258217 0.11198975
000020 90 87 59 3d f6 90 7b 3d 99 ee 59 3e ab 7e ee 3d
       0.053107798 0.061417542 0.21282424 0.11645254
000030 e3 34 79 3f 71 9c 92 3f 74 d0 47 3e 79 3a 71 3e
       0.97346324 1.1453992 0.19513112 0.23557462
000040 67 a0 43 3e f5 84 18 3e b6 4c e9 3e 7b 7f 83 3e
       0.19104157 0.14894469 0.45566338 0.25683197
000050 f1 ea 53 3e c0 51 3a 3e 27 9c 6c 3e ca a0 b7 3d
       0.20695092 0.18195248 0.23106442 0.08966215
000060 b0 66 be be 50 85 21 3e 2c 64 82 bf ed e5 3d 3e
       -0.3718772 0.15773511 -1.018682 0.18544741
000070 02 06 39 3e 03 b1 4f 3e 80 89 c1 3d af 57 88 3e
       0.18068698 0.20282368 0.09450054 0.26629397
000080 cd 1f 45 3e 68 50 c9 3d ed 67 2b 3e c9 94 bf 3d
       0.19250412 0.098297894 0.16738863 0.093545504
000090 3d 17 3a 3f 84 87 99 be 70 1c 8c 3f f6 12 48 3e
       0.7269171 -0.29986203 1.0946178 0.19538483
0000a0 64 cb fa 3d 32 8b 83 3e 27 f9 3e 3f 85 67 2f 3f
       0.12245825 0.25692135 0.74598926 0.68517333
0000b0 57 95 ee 3e ed d8 27 3e 7e ed d7 3d ac be 42 3e
       0.46598312 0.16391344 0.10543345 0.19018048
0000c0 de 82 87 3e 9b 99 34 bf ef 22 49 bf 95 9d 1e 40
       0.2646703 -0.70546883 -0.7856893 2.478368
0000d0 b6 21 45 3e d8 07 0d 3d 54 0b 44 3f a5 c7 16 c0
       0.19251141 0.03443131 0.76579785 -2.3559353
0000e0 58 f7 3b bf b8 35 aa 3f 47 b3 a7 be 49 ba 36 3e
       -0.7342429 1.3297644 -0.32753965 0.178445
0000f0 d4 20 b0 bd 3f 1c 5e be fe 29 aa 3e 3b 22 95 3f
       -0.086000115 -0.21690463 0.33235162 1.1651071
000100 e0 e7 2c bf 5e 0d 4a be eb c3 15 40 37 b5 06 bf
       -0.67541313 -0.19731662 2.340083 -0.5262026
000110 f4 2d 04 bf 77 f7 01 40 49 9d 0b 3f 37 f7 cd be
       -0.5163262 2.030729 0.54536873 -0.40227672
000120 e8 99 06 bf 2f f4 53 3f b3 0d 57 3f ba 4f 98 3e
       -0.5257859 0.8279447 0.8400528 0.29748327
000130 f3 c8 50 3c db 77 03 3f 87 b4 43 3f 0c f5 0f 3e
       0.0127432225 0.5135476 0.7644734 0.14058322
000140 5a 9e 3e 3e 54 4c 87 bc 64 14 87 3c 98 3b 03 3d
       0.18615094 -0.016515888 0.016489215 0.032039255
000150 af 34 23 3f 8a 3f 48 3f 84 91 6e 3f 44 7f a1 3e
       0.63752264 0.7822195 0.9319079 0.31542408
000160 74 c6 2f 3e 0c c3 70 3d 74 69 9f 3e a1 62 40 3f
       0.17165548 0.05877976 0.31135142 0.75150496
000170 5f 27 bb bd 13 7b 71 3d 1f e5 78 3d 68 f1 9f 3d
       -0.09138369 0.058955263 0.060765382 0.078097165
000180 f1 e6 de 3f e9 17 16 3f 9b 9d 9f 3f 32 b2 a0 3f
       1.7414228 0.58630234 1.2469972 1.2554381
000190 25 8f 94 3e ef df da 3f bb df b8 3e c1 3c 59 be
       0.2901546 1.7099589 0.36108193 -0.21214582
0001a0 29 32 31 3f cc 62 22 bc c9 ce 1d be 5a 2d 5f bc
       0.69217163 -0.00991125 -0.15410914 -0.0136216525
0001b0 ba c9 06 40 8d 14 c9 3e 95 73 53 3e d7 4e 52 3e
       2.1060624 0.39273492 0.2064956 0.20537888
0001c0 5c 54 d0 be 37 db 55 be cb 2c cc 3f 3b 9c f9 3e
       -0.4068936 -0.20884405 1.595117 0.48752007
0001d0 48 af 73 3f 40 39 87 3c 55 56 a6 3d 94 ce 6a 3c
       0.9518933 0.016506791 0.08121935 0.014331479
0001e0 03 ba d4 be cc 24 f0 3b ae f4 83 bf d7 da 33 be
       -0.41548166 0.0073286053 -1.0309045 -0.1756395
0001f0 87 0e 10 3f 89 87 cb 3e b7 38 c7 3e bc 37 2e 3e
       0.56272167 0.39751843 0.38910457 0.17013448
000200 27 25 82 3e 6b e0 21 3e 61 57 50 3d 6a 04 39 3e
       0.2541897 0.15808265 0.05086458 0.1806809
000210 6c 66 67 be 7a 75 07 bf 20 db 46 3f 29 48 8b 3e
       -0.22597665 -0.5291363 0.7767811 0.2720349
000220 69 66 a9 3d 1f 7f 5c 3e a4 6a 61 bd df 61 50 3f
       0.08271486 0.21532868 -0.05503334 0.8139934
000230 d3 74 60 3e 66 b8 26 3e 55 55 4a 3e 28 9d 79 3e
       0.21919565 0.1628128 0.19759114 0.24376357
000240 f0 f4 1f bf 00 92 ed 3e c6 79 00 bf cc 3d 89 3e
       -0.6248312 0.46400452 -0.5018581 0.2680496
000250 c0 2b a0 3e 45 99 78 3d 63 f9 98 3e b3 c7 bc 3d
       0.3128338 0.060693044 0.29877767 0.09217777
000260 39 b9 2f 3e 92 b4 d5 3d 58 65 38 3e 30 e3 56 3d
       0.171605 0.10434832 0.1800741 0.052462757
000270 24 4e 5e 3f a6 73 76 3e 09 19 79 3e 30 08 34 3e
       0.86837983 0.24067554 0.24325956 0.17581248
000280 33 ab 24 3e cc b8 3d 3e 76 25 06 3f 05 ad 1b 3f
       0.16080932 0.18527526 0.5240091 0.6081088
000290 32 6e 4e 3e fb 1c 43 3e dc bb 25 3e c1 25 11 3e
       0.20159224 0.19054024 0.16184944 0.14174558
0002a0 3d d6 c2 3e 66 23 09 bf 1f 7a bd 3e db 21 36 3f
       0.38054076 -0.5356964 0.37007234 0.7114541
0002b0 ac ff 08 3f 6a 50 f4 3e a3 7b 0f bd 0e f0 c3 bf
       0.53515124 0.477176 -0.03503002 -1.5307634
0002c0 d2 ec 8c bf 50 35 8e 3f 50 11 c9 3e 0b ca 05 3e
       -1.1009772 1.111002 0.3927102 0.13065355
0002d0 17 ba 45 be fa 30 4b 3c 07 5c 2c 3d ed a2 f9 be
       -0.19309269 0.012401814 0.04207995 -0.48757115
0002e0 30 4f f5 be 55 ea 11 3d a0 ff 78 40 73 55 d9 be
       -0.47911978 0.035623867 3.890602 -0.42448005
0002f0 20 23 fb 3d 58 75 09 40 6c ec 27 3f d4 43 99 3e
       0.12262559 2.147787 0.65595126 0.2993456
000300 f6 12 85 bf 45 26 1a 3f 76 cc 8d 3e d6 ff 09 3e
       -1.0396411 0.60214645 0.27695054 0.134765
000310 ab 40 ad 3e 35 77 d8 3e d7 4c 0f 3f b0 7f de 3d
       0.338384 0.42278448 0.55976623 0.10864198
000320 31 c5 53 3e b2 4e 91 3d d7 8e 83 3d 9e e1 40 3e
       0.20680691 0.07095088 0.06423729 0.18836066
000330 9b a4 11 40 0b 40 7f 3f ba 21 0a 3f bd 50 bc 3e
       2.2756717 0.99707097 0.5395771 0.36780348
000340 42 4e 77 3d b1 26 7e 3e 88 f9 71 3f dd f7 28 3f
       0.060377367 0.24819447 0.9452138 0.6600321
000350 b6 d5 88 bd 8f 86 05 3e 53 54 58 3e 12 60 52 3e
       -0.06681387 0.13039611 0.21125917 0.2054446
000360 cf c9 08 40 a5 80 db be 85 49 c6 3c 91 fc 88 3f
       2.1373174 -0.42871585 0.024204979 1.0702077
000370 ad b6 19 bf aa 10 47 3f bb 3e b1 3e 36 79 d3 bc
       -0.60044366 0.777598 0.34618172 -0.025814634
000380 bb 9a 0b 3e 18 28 83 3d 31 1c 66 3d 52 ae da bc
       0.13633244 0.06404132 0.05617923 -0.02669445
000390 84 f1 42 be 81 75 0a bf cc 14 61 3f b2 fa 51 3d
       -0.19037443 -0.54085547 0.8792236 0.051264472
0003a0 a7 31 c8 bc 55 66 42 be c6 7e 4d 3f 25 c0 2c bf
       -0.024437739 -0.18984349 0.80271566 -0.6748069
0003b0 72 3c f4 be fc 0f 16 3d bd 21 cc bd 8b 73 0f 3d
       -0.47702366 0.036636338 -0.099673726 0.0350223
0003c0 e3 be 25 bf 26 43 de 3e ab ba f4 be a2 a1 31 3f
       -0.64744395 0.43410605 -0.47798666 0.6938726
0003d0 d4 7c 9c 3e 1a 65 27 be 00 a1 89 3e 00 12 95 bd
       0.30563986 -0.16347161 0.26880646 -0.07278824
0003e0 02 7a ac 3d 8a 9a 47 bd fe 28 0c 3e df 39 8a be
       0.08421709 -0.048731364 0.13687512 -0.26997277
0003f0 b8 ed 27 3f ec fc 9e bf 82 7f 92 3f bd 6d ab be
       0.65597105 -1.2420936 1.1445162 -0.3348216

conv3.conv_i.bias f4 [16]
000000 1b 64 ee 3d 6c eb bf 3d 2d 1b 90 be b1 45 d4 3d
       0.11640187 0.09371075 -0.28145733 0.10364855
000010 0f 01 dd bd 8c 0d 37 3e a9 6c b2 3d 4d de 22 be
       -0.107912175 0.17876261 0.087121315 -0.15905114
000020 b1 6d 10 3e 0b 8e 0b be bb f8 76 be 93 c5 72 bc
       0.14104344 -0.13628404 -0.2411832 -0.014817613
000030 a7 fe f7 ba cb ae df 3d e2 71 13 be 24 89 1e 3d
       -0.0018920497 0.10922011 -0.14398912 0.038705006

conv4.conv_r.weight f4 [32, 16, 3]
000000 3a d7 83 3d 61 9f 09 3e d3 31 6a 3d c2 6c 6e 3d
       0.064375356 0.13439704 0.057176422 0.05820919
000010 dd 12 04 3e 19 a3 e2 3d 6c 83 d7 bc 85 e0 68 3e
       0.12897821 0.11066265 -0.026307784 0.22741897
000020 2d 85 44 3e 01 11 08 3e dd 59 60 3d d5 dd 53 3d
       0.19191428 0.13287736 0.0547732 0.051725227
000030 c6 46 f0 3d a5 79 83 3d 4d 99 5e 3d 81 28 91 3d
       0.11732249 0.06419686 0.054345418 0.07087804
000040 3d d9 ae 3d 35 ed 47 3d 04 53 64 3d be 81 cf 3d
       0.08537529 0.048810203 0.055743232 0.10132168
000050 0d 02 23 3d c3 cd 4f 3e 7e 9d 22 be 61 0b 3f 3f
       0.039796878 0.20293336 -0.15880391 0.7462674
000060 be d3 fd 3d c8 40 56 3d 57 87 5a 3d 00 a6 90 3e
       0.12393902 0.052307874 0.053351726 0.28251648
000070 61 dd 59 3e 39 b3 ab 3e d1 1e c6 be 28 91 0c 3d
       0.21275856 0.33535174 -0.38695386 0.03431812
000080 66 5e a0 3e 58 95 d1 3d b8 1b 18 3e a2 47 27 3d
       0.3132202 0.10233563 0.14854324 0.0408398
000090 46 c2 e5 3d 80 6c 0a 3e ef a1 01 3e f1 00 9b 3d
       0.11218695 0.13517952 0.12659429 0.07568539
0000a0 dc 67 0b 3e 5b ff 42 3d de de f5 3f 22 b0 91 3e
       0.13613838 0.047606807 1.9208639 0.2845469
0000b0 44 cc 77 be 57 92 58 3d e1 d1 11 3e 40 9a 38 3d
       -0.24199015 0.052873936 0.14240219 0.04506898
0000c0 ff 15 ca 3f f5 d9 c5 3f 3f 17 aa 3e 30 3c 86 3f
       1.5787963 1.545714 0.3322086 1.0487118
0000d0 7c ba 11 3f 16 28 6f be 89 a4 dc bf e7 2c 78 be
       0.5692518 -0.23355135 -1.7237712 -0.24235879
0000e0 cb ed 64 bf e9 16 b4 bf 18 13 e7 bf 45 54 35 3d
       -0.89425343 -1.4069492 -1.8052702 0.04426982
0000f0 d0 b6 7b 40 8e 5f 7e 40 92 71 00 3d 0b 89 ab 3f
       3.933033 3.9745822 0.03135831 1.3401197
000100 a5 72 b7 3f 6c a0 af bd 23 ca 5a 3f a5 72 7b 3f
       1.4331862 -0.0857552 0.85464686 0.9822181
000110 a7 cc 20 be 96 56 0d c0 60 14 9b 3d b3 ed 7d bf
       -0.15703069 -2.2084098 0.075722456 -0.99190825
000120 bc c7 2e 40 06 db ad 3f 37 16 8a 3e 0a 0f d8 bf
       2.7309408 1.3582466 0.26970074 -1.687959
000130 30 d8 3c 3f a1 ac fe bd 38 07 81 3f 9b a6 76 3e
       0.73767376 -0.1243527 1.0080328 0.24086992
000140 8c 47 6d bf cf b8 f7 3e 0d 69 be bf ba a8 27 be
       -0.92687297 0.48383185 -1.4875809 -0.16372958
000150 32 3a 64 3f e9 6f a1 3f 38 75 aa bf 53 73 10 40
       0.891513 1.2612277 -1.3317022 2.2570388
000160 fc e8 28 3f 62 68 b9 bd 83 34 6b c0 af 6d fc 3e
       0.65980506 -0.090531126 -3.67508 0.49302432
000170 14 28 be 3f 28 c6 0e 40 75 95 0a 40 a6 9e 01 be
       1.4855981 2.2308445 2.1653721 -0.12658176
000180 f3 21 6f bf cb 31 9b 3e eb 28 01 bd 3b fd f0 bf
       -0.9341118 0.30311427 -0.031533163 -1.882728
000190 2d 72 a0 bf 97 3c e7 be a7 ac 56 bf ff d0 68 40
       -1.2534844 -0.45163414 -0.83857197 3.637756
0001a0 29 80 ac 3c e8 ff 9c 3d c9 b1 91 3f 74 30 81 3e
       0.021057205 0.07665998 1.1382381 0.2523228
0001b0 a0 f0 a1 be 14 ba 72 be c4 f8 c2 3d f7 b9 39 c0
       -0.31628895 -0.23703796 0.095201045 -2.9019754
0001c0 34 c7 ac 3f a9 23 ff bd 55 33 bd bf d2 c4 79 3e
       1.3498292 -0.124579735 -1.478129 0.24391487
0001d0 7b c2 cc bd a9 07 cd be f5 67 83 40 b1 34 11 bf
       -0.09998032 -0.40044907 4.10644 -0.56721026
0001e0 f4 e0 8e 3e 8e 60 94 3e 60 4b 31 be 42 d1 e2 3f
       0.27906 0.28979915 -0.1731391 1.772011
0001f0 6f aa 72 3f 2d e5 8a be 1d 5c 71 40 d1 18 9a bd
       0.9479131 -0.27127972 3.7712471 -0.075242646
000200 f7 33 8a 3f a2 57 bd 3e 3e 63 30 40 04 8c 20 bf
       1.0797108 0.3698092 2.7560573 -0.62713647
000210 ce 48 ba bf 56 51 2d bf 5f 64 e7 3e b4 50 22 be
       -1.4553468 -0.67702234 0.45193765 -0.15851098
000220 c4 50 5a bd 08 32 ee 3c 7c e6 81 c0 4b f1 4d 40
       -0.05329968 0.029076591 -4.0593853 3.2178524
000230 c8 83 97 3f 5f 41 18 bf 92 b3 f9 bd eb cd 36 3c
       1.1837091 -0.5947475 -0.121924534 0.011157493
000240 ed 5d 43 3e ef cd 02 3e df 1c 34 3e 74 4f 4c 3e
       0.19078799 0.1277387 0.17589138 0.19952184
000250 83 a3 2d 3e 53 f4 b3 3d e3 36 93 be 68 2b 33 3d
       0.16956906 0.087868355 -0.28752813 0.043742567
000260 15 c7 c2 3d 37 08 af 3d 03 d7 3b 3e f5 71 48 3e
       0.09510628 0.08546489 0.18343739 0.19574721
000270 f3 eb a8 3d 5f c3 15 3e 4d 9c 45 3e 2a 81 b1 3d
       0.08248129 0.1462531 0.19297905 0.08667214
000280 0d e4 1b 3e 06 ac 25 3e 11 27 19 3e d6 68 47 3e
       0.15223713 0.16178903 0.14956309 0.19473585
000290 85 de 3d 3e 93 23 d3 3e 36 6f 76 bd 58 dc d0 3e
       0.18541916 0.41238078 -0.060164653 0.4079311
0002a0 ad 92 a0 3d 55 ee d2 3d 46 07 fe 3d cc ce b2 3e
       0.07840476 0.102993645 0.12403731 0.34923398
0002b0 80 1c a2 3e 1d 4a d1 3c 0e 5a 54 3e f6 c0 21 3f
       0.3166237 0.025548035 0.20737478 0.6318506
0002c0 49 15 00 3f b7 b9 02 3e 91 bb 13 3e d0 1f 1b 3e
       0.5003248 0.12766157 0.1442702 0.15148854
0002d0 cf 71 33 3e f4 de d9 3d 6f 71 62 3e de c6 44 3e
       0.17523883 0.10638228 0.22113584 0.19216487
0002e0 21 29 ff 3d 91 86 c9 3d b6 48 a3 bf da 83 ce 3e
       0.124590166 0.0984012 -1.2756565 0.4033497
0002f0 65 d2 4e bf f7 32 01 3e f0 69 bd 3d c5 4c b5 3d
       -0.80789787 0.12617098 0.092487216 0.08852533
000300 97 30 c0 3f aa a5 ae 3f 7e 01 69 3f a9 94 2d 40
       1.5014828 1.3644307 0.910179 2.7121985
000310 e0 27 b0 3f 85 21 17 3d 21 2f 5a bf a6 fe 42 3f
       1.3762169 0.0368972 -0.85228163 0.7616981
000320 4e 28 3b c0 f1 73 9a be 72 c0 8a bf ed 37 1f 3e
       -2.924335 -0.3016658 -1.083998 0.15548678
000330 70 4c 78 40 cb 52 da 3f af bd e7 bd 70 e0 ba 3f
       3.8796654 1.7056516 -0.11315476 1.4599743
000340 15 02 21 40 21 7c 26 be b4 ed 1b 40 12 e0 58 3f
       2.515752 -0.16258289 2.4363832 0.84716904
000350 4a 8f aa 3e b4 d4 f8 bf 06 a8 5d 3f e3 d1 5b c0
       0.33312446 -1.9439912 0.8658451 -3.4346855
000360 c1 16 01 c0 29 d0 de 3f 6a 6e fc 3e 63 60 d7 be
       -2.0170138 1.7407275 0.4930299 -0.42065725
000370 86 55 91 3f b0 17 c1 3e 35 05 11 c0 33 48 84 3f
       1.1354225 0.37713385 -2.2659428 1.0334533
000380 3a 2a 58 bf ad 62 64 3f c9 d7 bc be 5d 8b d4 3d
       -0.8443943 0.8921307 -0.3688338 0.10378144
000390 2b 58 b4 be 3b 4f aa bf d5 fc 19 bf 27 85 22 40
       -0.35223517 -1.3305429 -0.60151416 2.539377
0003a0 0e 1c 60 3f 0a cc 02 be bf 21 a3 bf bb 30 d7 bf
       0.8754281 -0.12773147 -1.2744673 -1.6811746
0003b0 3f c5 2f c0 c6 0a 76 40 16 5c 11 40 c4 d0 37 3e
       -2.746414 3.8444076 2.2712455 0.17950732
0003c0 78 da f5 be ed 3c 79 3f ff 47 b6 3e 5c b0 0e 3f
       -0.4801824 0.9735859 0.35601804 0.55737853
0003d0 b2 83 97 3f 17 80 28 bf 98 f1 59 40 83 fc 8c bf
       1.1837065 -0.6582045 3.4053707 -1.101456
0003e0 49 fb 1f c0 0a 91 61 bf 98 3a f8 3e 2d de 2d 3f
       -2.4997122 -0.8811194 0.48482203 0.6791714
0003f0 ae ed 06 3f c9 af 76 be ef bf 6e 3e f4 55 40 3f
       0.5270642 -0.24090494 0.23315404 0.75131154

conv4.conv_r.bias f4 [32]
000000 97 87 c9 3d 49 2e 9d bd 71 80 5e bd 18 03 08 3e
       0.09840315 -0.07674844 -0.05432171 0.1328243
000010 ef 1c 43 be 58 51 21 bf 9a 2b 21 bd bd d7 f2 bc
       -0.19054006 -0.63014746 -0.039348222 -0.029643888
000020 c8 0d 9a bd 2e c0 bd bd f9 52 d5 3e 9f 06 0d be
       -0.0752216 -0.09265171 0.41664866 -0.13772057
000030 83 83 e3 3e ba b9 3b bd 34 b6 90 3e 48 11 9d 3e
       0.44436273 -0.04583142 0.2826401 0.30677247
000040 3b ec 3f bd c5 0c 35 3e 23 a8 20 3d b1 54 96 3e
       -0.046856146 0.17680652 0.039222848 0.2936149
000050 26 94 98 bd 86 df 01 be 5e eb 9c 3c e9 a9 b9 bd
       -0.07450132 -0.12682924 0.0191552 -0.09065611
000060 b1 14 10 bb 4a 91 d4 3c bd f9 c1 bc f2 98 e9 3c
       -0.002198499 0.025948185 -0.023678655 0.028515313
000070 53 7b 89 be f4 a4 4c bb c7 d4 23 3c 3f a2 d4 3e
       -0.268519 -0.003122625 0.009999461 0.41530034

conv4.conv_i.weight f4 [32, 16, 3]
000000 68 26 36 bc 49 12 c5 bd 34 b6 c1 3d 50 1a 69 be
       -0.011117555 -0.09622628 0.094585806 -0.22763944
000010 27 0f cf be 51 bb eb bd 01 33 ff c0 f1 63 84 c0
       -0.40441248 -0.11510337 -7.974976 -4.1372
000020 9e 4e 8a 40 d9 f3 bd bf 23 00 a0 bf f0 78 c6 be
       4.322097 -1.4840041 -1.2500042 -0.38764143
000030 7b 86 53 c0 d7 fa cb bf e9 b5 8a 3e aa 41 84 be
       -3.305083 -1.5935925 0.2709191 -0.25831348
000040 ea 35 d6 be 31 82 bd be 1d 63 0a 3f 0e a1 b6 be
       -0.41838008 -0.3701339 0.54057485 -0.3566975
000050 81 ec 3c be 82 25 93 c0 53 f9 9f 3f ac db 7b 40
       -0.18449594 -4.5983286 1.2497963 3.9352827
000060 4a a2 ef 3e 1f aa 85 bf 18 69 8a be 70 02 17 be
       0.46803504 -1.0442542 -0.27033305 -0.14747024
000070 44 43 16 bf ba fb e5 3f df a7 bc 3f e0 67 11 bf
       -0.5869639 1.7967446 1.473873 -0.56799126
000080 88 b2 32 3e a4 48 e8 bf 50 3f 96 bf bd b7 fe bd
       0.17450917 -1.8147168 -1.1738071 -0.12437389
000090 e9 ab e0 be c2 92 90 3f 9f 38 43 bd e1 0a 48 3e
       -0.43881157 1.1294787 -0.04766142 0.195354
0000a0 8b ce f1 bd cd 54 21 bc ed c8 03 c0 ed a1 2b c0
       -0.11806973 -0.009846878 -2.0591385 -2.6817582
0000b0 35 20 11 40 1d b6 90 bf b2 a6 23 be 01 0b c5 3f
       2.2675908 -1.1305577 -0.15981558 1.5393983
0000c0 d3 18 b3 3d 01 91 35 3e 26 54 dd 3d 5f ac 2e 3e
       0.08744969 0.17731096 0.10807066 0.17057942
0000d0 ca 44 f8 3d ae 32 e7 3d 1c cc 81 be 18 cf 25 c0
       0.121224955 0.11288963 -0.25351036 -2.590765
0000e0 66 90 90 be 5c 2c 28 3e 44 bd d2 3d ec 71 7f 3d
       -0.28235167 0.16423172 0.10290006 0.062364504
0000f0 75 b4 32 3e 59 60 f6 3d 8b 85 a0 3d da 0a 70 3d
       0.17451651 0.120300956 0.07837971 0.0586041
000100 75 13 74 3d 9f 22 6e 3d 08 53 2c 3e 8d 70 1e 3e
       0.05958887 0.058138486 0.16828549 0.15472622
000110 08 b1 f2 3d 62 c1 b1 bf 8b c3 0d c0 34 ee 7e be
       0.11850172 -1.3887141 -2.21506 -0.24895555
000120 53 8c 0c 3e 6f 72 cd 3d 27 19 d5 3d 16 d4 77 3d
       0.13725404 0.10031592 0.10405188 0.060504995
000130 73 89 b5 bd 24 42 12 3e 65 7e eb bd 78 08 f4 3d
       -0.08864107 0.14283043 -0.11498717 0.11915678
000140 06 5a 16 3e f5 7c e7 3d ac ad 8d 3d 7a 6b 33 3e
       0.14682779 0.113031305 0.06917891 0.17521468
000150 50 43 d6 3d 99 1b 24 3e a2 ae ba 3d f6 c1 f1 3d
       0.104620576 0.16026153 0.0911534 0.11804573
000160 ef 37 0e 3e ed 60 7f 3d 19 39 05 bf 78 de d7 3e
       0.13888524 0.062348295 -0.5204025 0.42161918
000170 0d e5 54 3f 03 f2 d5 3d 1a 94 1c 3e ff ee 35 3e
       0.83162004 0.10446551 0.15290871 0.17766951
000180 f2 d4 c7 3d d6 bf 82 3e 0b 19 8f bd f9 81 99 3e
       0.09757413 0.25536984 -0.069871984 0.29981974
000190 d6 b1 83 3d d0 6a 63 3e 8e 94 4f 3e 09 70 57 bf
       0.06430404 0.22208714 0.20271513 -0.8415533
0001a0 d7 c9 b2 bd a2 4b 15 3f a9 6e 3d 3e 1f 85 ac 3e
       -0.08729904 0.5831853 0.18499245 0.33695313
0001b0 e1 d8 bb be cf 8f df 3d aa bc 81 be 2a f2 fe be
       -0.36688903 0.10916101 -0.25339252 -0.49794132
0001c0 ec e0 8c bc d7 5c c7 3d c0 ea fb 3d f8 85 7a 3e
       -0.017197095 0.09734505 0.123006344 0.24465168
0001d0 f5 b6 60 3d 5f b4 a4 3e 2e a2 83 bf ac 41 10 be
       0.05486198 0.32168862 -1.0283868 -0.14087552
0001e0 fc 05 07 3e 50 93 97 3d fd 39 0c bd 93 1b b1 3e
       0.13185877 0.074011445 -0.03423499 0.3459135
0001f0 18 8d 5f 3e 3f 73 95 3d 68 9a a9 3d d3 f1 1c 3f
       0.21831167 0.07297372 0.08281404 0.61306494
000200 31 dd 2b 3e 7f c3 0e be d3 65 75 3e b2 1f 7c bc
       0.16783597 -0.13941763 0.23964624 -0.015388416
000210 59 be a9 3e 5a 72 3f 3e 5a 3f 97 bc 90 36 10 be
       0.33153036 0.18695965 -0.018462826 -0.14083314
000220 d7 b9 c9 bc ec 24 04 3d be 33 b9 bd 95 06 bb bf
       -0.024624748 0.032261774 -0.09043072 -1.4611384
000230 31 9f 82 bf 23 c0 af 3d 04 fd 98 3d 58 3b 45 3d
       -1.0204831 0.08581569 0.07470134 0.048152298
000240 70 db b7 3e d8 bc 86 3e c6 c9 72 3e e6 82 b9 bd
       0.35909605 0.2631595 0.23709783 -0.0905817
000250 12 17 e0 bd b5 fa d6 3e f2 df 06 c1 8c 64 a1 c0
       -0.109419 0.4198815 -8.429674 -5.043524
000260 c6 d5 c5 3f 5c 62 fb bf f4 65 8e bf 27 34 ca be
       1.5455863 -1.9639392 -1.1124864 -0.39492914
000270 07 26 71 c0 f7 32 d0 bf 28 de c7 be f6 f5 37 3f
       -3.767946 -1.6265553 -0.3903668 0.7185968
000280 38 cc 19 3d db 81 cb 3b 5c 07 68 3f cb 8b d8 bb
       0.037548274 0.0062105483 0.9063623 -0.0066084615
000290 66 70 7d bc 1a 44 8b c0 88 b9 05 c0 1c 94 5c 3f
       -0.015468692 -4.352063 -2.089449 0.86163497
0002a0 95 8c da be 4a cf 22 bf 6c ae 9f be 34 b0 f2 be
       -0.4268538 -0.6359755 -0.3118776 -0.47400057
0002b0 fc 50 ea bf 7f 45 fa be e7 49 bf 3f 33 b7 d7 3f
       -1.8305964 -0.48881146 1.4944428 1.6852783
0002c0 13 d4 15 bf 81 c9 e7 bf 2c 86 ef be b8 17 f0 be
       -0.58526725 -1.8108369 -0.46782053 -0.46893096
0002d0 45 1d fe 3f ee 59 bd 3e 5f e5 47 bc da 47 bb 3e
       1.9852682 0.36982673 -0.012200682 0.36578256
0002e0 28 22 47 3d 3b 7a 1e be 2a a4 f6 bf 24 29 9e 3f
       0.04861656 -0.15476315 -1.9268849 1.2356305
0002f0 92 76 f7 3f 96 cc c6 bf b2 c4 4d be 53 c9 f9 3f
       1.933306 -1.5531185 -0.20094565 1.9514564
000300 eb 8a 98 3e 2f 3b 82 3e d1 f1 a3 3e 57 6c 69 3e
       0.29793486 0.25435778 0.3202043 0.22795235
000310 9c 46 87 3e 58 75 81 3e d7 ee e4 be 84 08 e5 bf
       0.26421058 0.2528484 -0.4471347 -1.7893224
000320 bd 62 8d bf fe 0a 9a 3e df a6 8f 3e 5a da 76 3e
       -1.1045758 0.3008651 0.28057 0.24106732
000330 05 93 86 3e 8d dc 81 3e 72 15 95 3e a3 0c 0e 3e
       0.26284042 0.2536358 0.29117924 0.13872008
000340 ed 66 39 3e e6 9c 57 3e 8e c1 7b 3e 6d 3c 69 3e
       0.1810567 0.21055946 0.24585554 0.22776957
000350 1e 16 78 3e 99 8b 15 c0 fb ea fd bf 4b 17 35 bf
       0.24227187 -2.3366454 -1.9837335 -0.7073867
000360 70 d4 8e 3e 77 b3 30 3e 7d c8 7a 3e 00 09 b4 3e
       0.27896452 0.1725596 0.24490543 0.35163116
000370 f3 99 1e 3d 76 e5 ac 3e 91 82 0e 3f cf 7b b7 3e
       0.038721036 0.33768815 0.5566798 0.35836646
000380 4f 0a 0a 3f 43 0a 40 3e 8c 14 8d 3e 9e 5c 7e 3e
       0.5392198 0.18753915 0.2755474 0.24840018
000390 70 b2 aa 3e a4 38 9f 3e 63 9e aa 3e 10 ac a1 3e
       0.33339262 0.310979 0.33323964 0.31576586
0003a0 a8 81 94 3e 9d bc 88 3e ec a9 69 bf 4e bf 7c bf
       0.2900517 0.267064 -0.91274905 -0.9872941
0003b0 c3 b6 93 3f e7 81 62 3e 7c eb 7d 3e a8 3e 49 3e
       1.154015 0.22119866 0.24796861 0.19652808
0003c0 fd 62 64 3e b1 95 ab bd e6 09 aa bd 9b 6c 0e 3f
       0.22303386 -0.08378161 -0.08302669 0.5563447
0003d0 62 c6 5a 3b 8f 74 d7 3c ec 16 81 3e dc 58 b8 bf
       0.0033382406 0.026300697 0.252128 -1.4402118
0003e0 d5 80 a0 be e6 f7 c1 3e 37 4a e8 3e f2 19 d6 bd
       -0.3134829 0.37884444 0.4536912 -0.104541674
0003f0 63 87 1a 3e f4 b9 b8 3d 83 98 c9 be 0a 72 4c 3f
       0.15090708 0.09019843 -0.3937417 0.7986151

conv4.conv_i.bias f4 [32]
000000 c5 7c eb 3c 76 bd 21 3e 99 c9 f1 bc e9 af 98 3d
       0.028746018 0.1579493 -0.029515075 0.07455427
000010 f2 6f 94 3e 1e 80 f1 bd de ef 17 3e eb 2d f2 3d
       0.28991657 -0.117920145 0.14837596 0.118251644
000020 6a b4 16 3e a6 95 6c 3e 16 2c c2 3e 53 6e 7c 3e
       0.1471726 0.23103961 0.3792426 0.2465146
000030 7c 29 99 3e a5 5f d9 3d 78 98 19 3e 03 cf 5a 3e
       0.29914463 0.10613946 0.14999568 0.21368031
000040 10 29 05 3e fd fd 3a 3e d7 b5 f4 3d 04 3f 65 3e
       0.13003945 0.18260951 0.11948746 0.2238732
000050 ce 13 d7 3c 13 fe 9d 3e 68 c7 6b 3d 3c 95 1f 3e
       0.02625456 0.30857906 0.057563215 0.15584272
000060 1e ff d0 3d 06 6a d0 3d 5e db c8 3b e5 c6 b1 3c
       0.1020491 0.10176472 0.006129666 0.021701286
000070 4a d0 91 3e 2a 14 fb bc 8f 5d fc 3d 96 20 98 3e
       0.28479224 -0.030649263 0.123225324 0.2971236

conv5.conv_r.weight f4 [32, 32, 3]
000000 dc 2a 96 3e 43 b2 5c 3e 61 5d 7f 3f 86 d5 49 3e
       0.29329574 0.21552376 0.9975186 0.19710359
000010 d0 64 21 3e 28 42 31 3e a7 d7 b9 3d 0f f2 27 3e
       0.15761113 0.17310393 0.090743355 0.16400932
000020 17 b9 15 3e ff 54 04 3f 08 54 bf 3e e6 31 86 3e
       0.14621387 0.51692194 0.37368798 0.26209944
000030 0f 4e c6 3d a2 ec c1 3d eb 3f f9 3d b3 28 21 3e
       0.09682857 0.09468962 0.121703945 0.15738182
000040 02 dc 49 be 00 59 33 be ca 8a cc 3d 73 f8 d7 3d
       -0.19712833 -0.1751442 0.099874094 0.10545435
000050 f6 c7 50 3d 19 33 d3 3d 51 21 20 3e b6 07 25 3e
       0.050971948 0.103124805 0.15637709 0.16116223
000060 8a 6c 9f 3d 82 4d d6 3d 39 17 67 3d 00 23 96 3d
       0.07784374 0.10464002 0.05641863 0.073308945
000070 d6 d3 ab 3d fb 83 97 3d 86 9d 34 3f f5 3b d5 3e
       0.08390014 0.0739822 0.7055286 0.41647306
000080 5c 9b 05 3f 5d 29 36 3e a7 27 e0 3d 64 5c fc 3d
       0.52190185 0.17789216 0.10945063 0.123223096
000090 02 63 48 bf fa d2 9c 3e 72 f7 0d bf 3d ff 10 3e
       -0.78276074 0.30629712 -0.55455697 0.14159866
0000a0 a4 6f f4 3d a3 7f 27 3e af 4f d8 3e aa f0 aa 3e
       0.11935356 0.16357283 0.42248294 0.33386737
0000b0 4e e6 10 3f 27 7e ee 3e 16 91 da 3e 65 e1 cb 3e
       0.5660142 0.46580622 0.42688817 0.398204
0000c0 60 21 1f 3e cc 79 4d 3e ba 78 62 3e d7 e3 68 3e
       0.15540075 0.20065993 0.22116366 0.22743164
0000d0 7e d2 94 3e 2f 22 33 bf 1d 2e 1e 3e df 74 26 3e
       0.29066843 -0.69974035 0.15447278 0.1625552
0000e0 63 ee e2 3d 48 6e b9 40 9c 21 cd 3e a0 77 8a bd
       0.11080625 5.794712 0.40064704 -0.06761098
0000f0 62 7d 2b 3e b2 a0 00 3e 01 2a 19 3e 20 2a 98 3d
       0.16747048 0.125613 0.1495743 0.0742991
000100 51 9f b1 3d f4 e4 59 3d 10 22 e0 3d cb 8c bd 3d
       0.08672965 0.053196862 0.10943997 0.0925537
000110 fb 1e 0d 3e 2b 1b fe 3d a7 a8 2a 3e 35 4f 44 3e
       0.1378135 0.12407526 0.16665898 0.1917084
000120 8a f7 e2 3d ce 8b 14 3e 86 ce 2b 3e 33 cb 2c 3e
       0.110823706 0.14506456 0.16778001 0.1687439
000130 98 e4 20 3e da 7c 2e 3e 79 04 0a 3e 9a 46 4f 3e
       0.15712202 0.17039815 0.13478269 0.20241776
000140 56 23 2c 3e 10 c3 23 3e 99 a9 11 3e 02 c0 03 3e
       0.16810355 0.15992379 0.14224853 0.12866214
000150 9b 78 34 3e 13 00 4c 3e 54 30 4e 3e 0f 20 94 be
       0.17624132 0.19921903 0.20135623 -0.2893071
000160 f0 74 a3 3e 6f 0c a8 3d 22 75 b6 3d 1e 04 c2 3d
       0.31925154 0.082054965 0.0890906 0.094734415
000170 cb 5d 09 3d 8a 29 72 3f 48 9d db 3e ce 50 0b 3d
       0.033536714 0.94594634 0.42893434 0.03401261
000180 b1 01 98 3f e0 24 47 3f 15 cf 88 3f 85 39 a6 3d
       1.1875516 0.7779064 1.0688196 0.0811644
000190 cf 3b 03 3e c1 41 10 3e b1 9b b4 3f 31 c3 d4 3d
       0.12815784 0.14087583 1.4110013 0.10388792
0001a0 57 48 ce 3d 0a c5 a5 3f 99 09 74 3f 82 08 5a bf
       0.100723915 1.2950757 0.95327145 -0.8516923
0001b0 2e 80 bf 3d fa cf a6 3d 2d 81 e9 3d 9d 8d 80 3d
       0.0935062 0.08145137 0.114015914 0.062770106
0001c0 32 87 02 3f fe 17 de 3d 63 b2 cf 3d 53 eb 8d 3d
       0.5098754 0.1084442 0.101414464 0.0692965
0001d0 75 41 28 3d c5 de dc 3d 05 77 8a 3d d3 85 a4 3d
       0.04107805 0.107846774 0.067609824 0.080333374
0001e0 b0 13 85 3d e9 08 3d 3d 6d 57 e2 3d 2a ac 80 3d
       0.06497896 0.046151076 0.110518314 0.06282838
0001f0 2e a5 b4 3d 25 ea 37 3d 76 c3 27 c0 e5 c0 43 3f
       0.08820568 0.044901032 -2.621305 0.7646621
000200 38 84 0a be 03 fc b0 3d bb d4 72 3d 13 37 0b 3e
       -0.13527 0.086418174 0.059284907 0.13595228
000210 89 2d a1 40 6b 0b c7 3e 1f 7d 9f 40 e0 c4 95 3d
       5.0368085 0.388759 4.9840236 0.073129416
000220 33 03 b6 3d de 3e 10 3e 53 b6 15 3f 60 e3 50 3f
       0.08887329 0.14086482 0.5848133 0.81596947
000230 2a 89 b0 be 0b e4 4e 3f 43 6f 7c 3f e4 20 dd 3f
       -0.34479648 0.80816716 0.9860727 1.7275662
000240 5e 4b 12 3e 3a e5 b7 3d e7 a3 d4 3d 66 67 f2 3f
       0.14286563 0.08979268 0.103828244 1.8937805
000250 8f 29 5a 3f e0 20 f5 bf 8f 2a cc 3d e7 98 d8 3d
       0.85219663 -1.9150658 0.09969055 0.10576039
000260 96 29 a9 3d 10 f1 97 c0 03 45 8c 3f 77 aa ec bd
       0.08259885 -4.7481766 1.0958561 -0.11555951
000270 a1 03 de 3d db 58 c1 3d 57 bf d1 3d 8a fd f1 3c
       0.10840536 0.09440776 0.10241573 0.029539842
000280 1b 89 b0 3c 43 c1 16 3d e8 8f d6 3d 58 93 c2 3d
       0.021549752 0.036805402 0.10476667 0.0950076
000290 de f2 f8 3d e6 61 3a 3e 27 6d fe 3d df 2d fd 3d
       0.12155698 0.18201408 0.12423163 0.12362265
0002a0 41 fd fe 3d 9f cf ae 3d 23 4d 14 3e b4 78 e6 3d
       0.12450648 0.08535694 0.1448255 0.11253491
0002b0 30 e0 ae 3d fa 96 b7 3d ab 82 ce 3d 3b 0b 13 3e
       0.08538854 0.08964343 0.10083517 0.14359753
0002c0 5c 12 2a 3e 2f 60 01 3e ec 82 a4 3d b2 df 8a 3d
       0.16608566 0.12634347 0.08032784 0.06780948
0002d0 d5 6b b3 3d e5 06 9f 3d 23 46 c5 3d 96 d3 e4 3e
       0.08760802 0.07764987 0.09632518 0.44692677
0002e0 80 e8 1d be ba 70 49 be 78 53 aa 3c 3a 77 9d 3d
       -0.15420723 -0.19671908 0.020791754 0.07688756
0002f0 78 a3 79 3c 17 aa 6d c0 e7 ad 81 3f 68 a2 b9 3f
       0.015236728 -3.7135065 1.0131196 1.4502687
000300 57 cb 2a bf f6 02 12 bf 18 41 26 c0 c7 57 d9 bd
       -0.6671652 -0.5703577 -2.597723 -0.10612445
000310 5b 88 f3 bd 11 7b d8 bd b9 fa 5a 3f 2f 5a 37 be
       -0.11891242 -0.10570348 0.8553882 -0.17905496
000320 6a 20 a4 bd b7 1e 03 bf 0d fb c1 be 6e cf 5e bf
       -0.08013995 -0.5121874 -0.3788685 -0.8703526
000330 2c 7e 91 bd 48 87 a0 bd c7 ec 05 be 24 a9 95 bd
       -0.071041435 -0.07838303 -0.13078605 -0.07307652
000340 74 a7 7c be 06 56 44 bc d9 3e 72 bd 3c bc 89 bd
       -0.24673253 -0.0119834 -0.059141967 -0.06725356
000350 91 b8 8d bd dd e7 f5 bd 2a 6b a2 bd 91 2b 73 bd
       -0.06919969 -0.12007115 -0.07930596 -0.05936772
000360 75 00 99 bd c9 81 7f bd 49 91 f2 bd 3e 4b 27 bd
       -0.0747079 -0.062379632 -0.11844117 -0.04084324
000370 f2 6b 54 bd e9 d7 43 bd 4d 4d 11 bf 6b 2c 0f bf
       -0.051860757 -0.04781333 -0.56758577 -0.5592715
000380 32 6a 4b bf 32 11 38 bd 09 c0 62 bd eb a2 f2 bd
       -0.79458916 -0.044938274 -0.05535892 -0.118474804
000390 94 9d 01 bf 2b a5 a2 be 2e 62 85 bf 43 35 fd bd
       -0.5063107 -0.31766638 -1.0420587 -0.123636745
0003a0 c5 a8 a5 bd 42 fd c9 bd dd 6d d5 be d3 e6 fd be
       -0.08088831 -0.09862758 -0.41685382 -0.49590167
0003b0 42 87 2b bf 8e a4 07 bf 1f d0 df be 96 d8 4c bf
       -0.6700326 -0.52985466 -0.4371347 -0.80017984
0003c0 cd a7 ca bd d0 57 0a be 51 89 01 be 83 92 85 3f
       -0.09895287 -0.1351006 -0.12650038 1.0435337
0003d0 4a 1c b1 be 37 52 06 bf 7b cd c2 bd 50 be d4 bd
       -0.34591895 -0.524692 -0.095118485 -0.10387862
0003e0 ef 24 8c bd 62 d7 10 c0 ca b6 e1 be 55 7e 2e bf
       -0.06842982 -2.263146 -0.4408477 -0.6816152
0003f0 67 a3 a7 bd 25 68 a2 bd 05 a5 de bd 9b 9d 4d bd
       -0.081854634 -0.0793002 -0.10871319 -0.050199132

conv5.conv_r.bias f4 [32]
000000 06 69 30 3e 73 20 c1 3d 23 05 bb bd 46 b5 70 3c
       0.17227563 0.09430017 -0.09131839 0.014691656
000010 36 5b e3 3d 74 ca bc 3d af c4 4a 3e 9d 73 f7 3d
       0.111013815 0.09218302 0.19801591 0.12082598
000020 b4 5a d4 3d 22 78 33 3d 61 85 ee bd 21 40 be 3c
       0.10368863 0.04381574 -0.11646534 0.023223938
000030 65 66 9d 3d 3e c2 cd bd 3e 7c 9e 3d 58 0c 42 bd
       0.07685546 -0.100468144 0.07738541 -0.047375053
000040 ce 07 a4 3d 4e 7e c4 3d 00 ea 83 3c 77 e4 24 3d
       0.08009301 0.09594403 0.01610279 0.040256944
000050 79 fe 8d 3c 53 da 5c 3d f2 54 ad bd a6 d5 73 3d
       0.017333256 0.053919148 -0.08463468 0.059529923
000060 ce 64 38 3d af 6c 48 3e a4 08 f0 3d fd 29 18 bd
       0.04501801 0.1957271 0.11720398 -0.03714942
000070 79 02 c0 3d 7a 5f cc 3d 70 6c 29 3d b1 51 18 3e
       0.093754716 0.09979148 0.04136318 0.14874913
